CCNN-CGH/1920/4init1920shift/proposedstate.pth (torch, 189629 bytes, 52 tensors)

net1.netdown1.COV1.0.conv_r.weight f4 [4, 1, 3, 3]
000000 31 44 ef be fe 5c c5 bd a1 1f 92 be 7f 5d 89 be
       -0.46731713 -0.096368775 -0.28539756 -0.26829144
000010 af be 15 bf 82 da e4 be f3 02 4f 3d 01 9e 99 be
       -0.58494085 -0.44697958 0.050539922 -0.3000336
000020 a7 e9 10 bf ab 65 91 be d0 ee 87 be 83 fe 28 be
       -0.56606525 -0.2839788 -0.26549387 -0.16503339
000030 73 d3 c6 3c 0b a6 4c be 59 7d 69 3e e6 44 4e 3e
       0.024270749 -0.19985215 0.22801723 0.2014347
000040 56 17 70 be 5c ba 01 3e da 59 27 be db 9d e1 bd
       -0.23446402 0.12668747 -0.1634287 -0.11016437
000050 61 c8 97 be 15 6b 3e 3e d2 24 e1 3d bf a0 09 be
       -0.29645064 0.18595536 0.10993351 -0.13440226
000060 73 ac 4a 3e f2 f4 56 be d1 ad 34 be db 2d e4 bd
       0.19792347 -0.20991877 -0.1764443 -0.11141559
000070 95 9c 37 3d 81 f3 e7 bd c9 47 1f 3e f1 e0 86 be
       0.044827063 -0.113257416 0.15554728 -0.26343492
000080 ea 93 82 3c 90 09 a7 bd 79 ed 91 be 41 fb b4 bc
       0.015939672 -0.08156121 -0.2850149 -0.022092463

net1.netdown1.COV1.0.conv_r.bias f4 [4]
000000 50 99 5d bd 25 e4 8a 3d f0 eb c9 3d ef 72 75 be
       -0.05410129 0.06781796 0.09859455 -0.23969625

net1.netdown1.COV1.0.conv_i.weight f4 [4, 1, 3, 3]
000000 05 ff 06 be 35 1f d3 3d f7 84 d8 3b 1f 0d 0a be
       -0.1318322 0.10308687 0.0066076475 -0.13481568
000010 ca e9 8d 3d 56 b5 55 3e 80 72 05 3e 40 90 34 3e
       0.06929357 0.20869955 0.1303196 0.17633152
000020 5a fe 8f be 06 e9 d9 bd 65 aa 16 bd df 7c 09 be
       -0.28123742 -0.10640149 -0.036783595 -0.13426541
000030 25 ea 4c 3e 76 d7 9d bc 70 8f 33 3c 12 b5 c4 be
       0.20011194 -0.019267779 0.010959491 -0.38419396
000040 e1 28 39 bd b8 0c af 3d d6 0c fe 3c ee 4f 65 3e
       -0.045205 0.08547348 0.03101198 0.22393772
000050 43 97 59 be 54 7f 81 be 5d f3 d2 be 68 c9 5f bd
       -0.21249108 -0.25292456 -0.41201296 -0.054635435
000060 b1 1f 0e 3c d4 42 32 3e 2a 4e 98 3d 53 0f e2 3d
       0.008674548 0.17408305 0.074367836 0.11038079
000070 7d d5 d0 bc 5a 58 c3 bd c3 ec c2 bd 84 6f d7 3b
       -0.025492424 -0.09538336 -0.09517815 0.006574573
000080 04 20 d2 3d c8 e9 bc bc 94 f1 57 3e 89 9b 66 3d
       0.10260013 -0.023060694 0.21088248 0.056300674

net1.netdown1.COV1.0.conv_i.bias f4 [4]
000000 4e 65 e6 be 2a ee bb 3e a7 6d a6 3e df 9f 48 be
       -0.44999164 0.36705142 0.32505533 -0.19592236

net1.netdown2.COV1.0.conv_r.weight f4 [8, 4, 3, 3]
000000 1e cb ef 3e fb a6 a5 3e ce 89 d4 3e b3 d3 01 3f
       0.46834654 0.32353958 0.41511387 0.5071365
000010 03 56 68 3d 3f 3c 0c 3f 02 ac 75 3e e0 52 bc 3e
       0.056722652 0.5477943 0.23991397 0.3678198
000020 2f ec 9b 3c 2d f4 45 bd a1 9e be 3b ed 28 4e 3e
       0.01903352 -0.048328567 0.00581725 0.201328
000030 18 23 ad 3c 3a a4 df 3d 91 62 3e 3e 67 de b3 3d
       0.021134898 0.109199956 0.18592288 0.08782654
000040 b8 15 10 bd 08 2d 02 3e 24 5b 2b be 97 28 a0 bd
       -0.035176963 0.1271249 -0.16733986 -0.07820242
000050 24 3d 72 3e a6 f4 c1 bd ca 4f a9 bd 48 3c 35 3e
       0.23656136 -0.09470491 -0.08267172 0.17698777
000060 ad fd 2c 3e a0 5f 2b bd 36 0c 2a 3d 2b 78 c5 bd
       0.16893645 -0.041839242 0.04151555 -0.09642061
000070 1b 4c 1a be a7 47 d2 3d 41 97 47 3c 77 85 95 bd
       -0.15068094 0.10267573 0.012182058 -0.07300847
000080 7b 86 10 be 7c 74 03 be a2 9a 42 be 98 54 c5 3d
       -0.141138 -0.12837404 -0.190043 0.096352756
000090 1d cc a4 3c e3 19 cc ba 8b 2f 16 3d c2 17 85 3d
       0.02011686 -0.001557168 0.036666434 0.06498672
0000a0 2e ae ee 3d 27 5e 70 be c4 14 74 3d 3b 9e 94 3d
       0.11654316 -0.23473416 0.059590116 0.072567426
0000b0 31 4f 82 be 58 94 2b be 75 6d b0 3c 10 eb 7f be
       -0.25451043 -0.16755807 0.021536568 -0.24992013
0000c0 97 b3 3e be 91 35 95 bc 81 8e cb bd e4 61 13 bd
       -0.18623196 -0.018214019 -0.0993929 -0.035982028
0000d0 41 0c a6 3d 91 8f b8 bd ec d6 29 be ab f2 8a bd
       0.08107806 -0.09011758 -0.16585892 -0.067845665
0000e0 04 a2 96 3d 11 80 e5 bd 82 b2 9e 3d f3 5b 4c bd
       0.07355121 -0.11206067 0.077488914 -0.049892377
0000f0 10 ff 90 b9 95 b1 14 be 22 33 a1 38 5c cc 95 3d
       -0.00027655857 -0.14520867 7.6866025e-05 0.07314369
000100 fd 57 1b 3e c6 54 c6 3c d3 ac b7 3d 9b 64 06 be
       0.15170284 0.024210345 0.089685105 -0.13124315
000110 a1 19 09 3e 78 07 1d 3e dc 12 1f 3e 4f 6a 09 3e
       0.13388683 0.1533488 0.15534538 0.1341946
000120 f4 55 de bd 8c 4c 44 be fe 30 e3 be f4 9e 64 be
       -0.10856238 -0.19169825 -0.44373316 -0.22326261
000130 fd cd 81 3e 82 16 91 bc a6 f1 4c 3d 0a 21 8b bd
       0.2535247 -0.017710928 0.05003514 -0.06793411
000140 b5 c8 14 be 29 6a 35 3e ce 45 2c 3e be bc 30 be
       -0.14529689 0.17716278 0.16823503 -0.172595
000150 14 3b ec 3d 78 06 09 be f4 f5 d7 bd 6d f1 8f 3e
       0.11534706 -0.13381374 -0.10544959 0.2811388
000160 6d 03 59 3e d6 0a c2 3d f0 9d 34 3e 55 69 25 3e
       0.21192713 0.09474723 0.17638373 0.16153462
000170 5e 2c b4 bc 8f 77 b3 3d bd 17 60 3e e2 b1 7a be
       -0.021993812 0.08763038 0.21884055 -0.2448192
000180 d2 e3 47 3e 63 13 f6 3d ef 27 7d be 7a d5 db bd
       0.195205 0.120154165 -0.24722265 -0.10734077
000190 97 95 22 be 89 64 d0 bd 55 f9 1b bd 16 a6 17 be
       -0.15877376 -0.101754256 -0.03807958 -0.1480945
0001a0 cc 27 a2 bd cf 5b 83 bd 55 d9 c7 3d 09 75 1e be
       -0.07917747 -0.064139955 0.0975825 -0.15474333
0001b0 48 8a 40 3c 0d e0 f8 3c d5 7b f6 3d 3a 66 c2 3d
       0.011751719 0.030380273 0.12035338 0.094921544
0001c0 e3 7f cb bd ed 69 a5 bd af 82 11 be 1b 2e d5 3d
       -0.09936502 -0.08076844 -0.14210008 0.104091845
0001d0 35 75 ee bd 8f 5e 30 3d bd 6f 83 be 6e b6 a5 bd
       -0.11643449 0.043058928 -0.25671187 -0.08091436
0001e0 8b f9 63 bd 97 69 67 3d ca bb 66 bc 51 e8 f6 3c
       -0.055657905 0.056497183 -0.014082858 0.030140074
0001f0 19 9d cf bd 74 67 fe bc 66 ed 1f be cf b6 0b 3d
       -0.10137386 -0.03105519 -0.15617904 0.034109887
000200 e8 26 56 3d b4 9b ce bc cd e2 37 3b 2d 15 2f 3b
       0.052283198 -0.02522073 0.0028058768 0.0026715503
000210 d6 28 5c bb 54 7d 01 be 11 b0 a3 bd fb 83 dd 3d
       -0.0033593676 -0.12645465 -0.079925664 0.10816189
000220 f4 fc a7 bd 43 d9 f8 3d 66 66 1a 3e b9 24 e5 3d
       -0.08202544 0.121508144 0.15078124 0.11188645
000230 61 b8 0a be f4 d7 d9 3d 7e 3c c9 3d 3b 92 8a 3d
       -0.13546897 0.10636893 0.09825991 0.067661725
000240 95 dd 08 3e 7d 2d 46 bd cc 99 20 be d8 c6 c9 bd
       0.13365777 -0.048383225 -0.15683669 -0.098523796
000250 8f ad 8e 3d 37 49 01 3e a8 92 b8 3d 93 e4 a7 3a
       0.069666974 0.12625585 0.090123475 0.0012809209
000260 51 38 e5 bd 6c 8f 19 bd 42 41 85 3d ce 2d 6d be
       -0.11192382 -0.037490293 0.065065876 -0.23162004
000270 c8 2e c6 bd ae 5f a8 bd e7 69 57 be 57 27 6a be
       -0.096768916 -0.082213745 -0.21036492 -0.2286657
000280 99 9d 09 be fd 88 94 be 19 32 63 3e 84 82 ae bd
       -0.13439025 -0.29010764 0.2218708 -0.08520988
000290 f6 81 3a be 6f 53 67 be d9 71 9e be ee 6c 73 be
       -0.18213639 -0.22590421 -0.30946234 -0.23772022
0002a0 5c 08 28 be 13 89 57 be dd 85 c7 be 8b b0 9d 3d
       -0.16409439 -0.21048383 -0.38969317 0.076996885
0002b0 ad 28 77 3c d6 6f 9a bc 94 65 dc 3d 92 79 13 3e
       0.015085381 -0.018852156 0.10761562 0.14401844
0002c0 a9 40 a5 3d f0 4b 9b 3d 1a 26 0d 3e 07 41 1d be
       0.080689736 0.07582843 0.13784066 -0.15356837
0002d0 88 56 f8 3d d5 65 34 be 46 0a bc 3c f2 a7 b5 3e
       0.121258795 -0.17616971 0.022954118 0.35479695
0002e0 3f f4 14 be 26 3e 87 3c a9 50 8d 3e 8b cf 2d 3e
       -0.14546297 0.016509127 0.276006 0.16973703
0002f0 df 52 73 bd 18 b4 0d bc 05 96 69 bd a8 80 a3 3c
       -0.059405204 -0.008648895 -0.057027835 0.019958809
000300 cf d2 59 bd db 58 a5 3c 1f aa 21 3e 2a ae cd 3d
       -0.05317956 0.020183971 0.15787552 0.10042985
000310 41 47 6a 3e c6 81 4c 3d 62 2b 72 3d 7a 99 bc 3c
       0.22878744 0.04992845 0.059123404 0.023022402
000320 c1 c4 5d 3d 13 cf 6d bd c7 2c 66 be a8 35 f0 3b
       0.054142717 -0.05805881 -0.22478019 0.007330615
000330 07 2b d9 3d 8d 12 37 3d cd 5c 25 be 3a ee 0c be
       0.1060391 0.044695426 -0.16148682 -0.13762751
000340 2a 1d dd bd ba 7e 27 be 5a c1 b4 3d a8 cb 83 3d
       -0.10796578 -0.16356936 0.088259414 0.06435329
000350 60 5a 9c 3d 58 86 11 be 08 2f 0d 3e 62 ee dc 3b
       0.07634425 -0.14211404 0.13787472 0.0067422846
000360 de ee c8 3d ff f0 55 bd f6 59 cb 3b 39 25 15 3c
       0.09811185 -0.052231785 0.0062057925 0.009103113
000370 41 4f 14 be 5f 7b 49 3d fd 99 33 bd 4a 11 ea bd
       -0.14483358 0.04918992 -0.043848027 -0.11429079
000380 56 cd b7 bd 8b cf b8 bd 0e 72 0c be d5 aa b3 be
       -0.089747116 -0.09023961 -0.13715383 -0.35091272
000390 86 c9 98 be 59 d1 7a be 3e 58 e5 bb 43 7d ad bd
       -0.2984125 -0.24493922 -0.0069990447 -0.084711574
0003a0 d8 a9 2a be 21 7c 82 be d0 14 ce 3d 79 8b b8 bd
       -0.16666353 -0.25485328 0.100625634 -0.09010977
0003b0 5f 09 13 be 6e 7c 43 bd dc 95 9d be df 32 0b be
       -0.14359044 -0.047726087 -0.30778396 -0.13593625
0003c0 c5 00 fe bc 5e f8 b5 bd 79 5b 3f be ee 44 09 3e
       -0.031006226 -0.08885263 -0.18687238 0.13405201
0003d0 dc 43 1e be e5 b5 54 bd ca dc a2 bd 52 71 c9 3d
       -0.15455574 -0.05193128 -0.079522684 0.09836067
0003e0 ce 6f 9b 3d ca d2 d4 bd 7e b4 d0 3b de 81 14 be
       0.075896844 -0.10391767 0.0063691726 -0.14502665
0003f0 e1 0b 21 3e 49 5f 04 bd 86 86 43 3e 24 90 90 3d
       0.15727188 -0.032317434 0.19094285 0.07058743

net1.netdown2.COV1.0.conv_r.bias f4 [8]
000000 93 db 36 3d 4b 01 8f bd c6 82 9f 3d 63 7f c4 3c
       0.044642996 -0.069826685 0.07788615 0.023986524
000010 eb 6f 85 bd 66 74 4e 3c c2 13 ce 3b 85 d1 fb bd
       -0.06515487 0.012600994 0.0062889764 -0.12295822

net1.netdown2.COV1.0.conv_i.weight f4 [8, 4, 3, 3]
000000 e1 a4 c4 3d 38 79 9d 3d ca c6 ab 3d a4 bf 72 3e
       0.09601761 0.07689136 0.083875254 0.23705918
000010 95 90 58 bc 74 d0 e0 bd ad 5a f6 3d e2 44 48 3e
       -0.013218065 -0.10977259 0.12029014 0.19557527
000020 29 be c9 3d 5d 5f 0b 3e 44 8a 19 3e fe a0 a4 3e
       0.09850723 0.13610597 0.1499415 0.32154077
000030 75 40 e8 bd f6 7a 15 3c 85 e1 e0 bc b4 56 e5 3d
       -0.11340419 0.009123554 -0.027451286 0.11198178
000040 29 a1 4e 3e a2 ac ac 3d 60 db 5d 3e ea 91 48 3e
       0.20178665 0.084313646 0.21665716 0.19586912
000050 3d 07 32 3d 0a 2e 4a 3d fb 92 09 3e 97 c1 e4 3d
       0.043463934 0.049360313 0.13434975 0.11169737
000060 11 ea 29 3e 58 6f bc 3c 95 32 bb bd 0b 0c 67 bd
       0.16593195 0.023002312 -0.09140507 -0.05640797
000070 58 9c d4 bc c9 de 36 3c b2 e3 1f 3e 4b 9b 12 bc
       -0.025953457 0.011161515 0.15614203 -0.008948158
000080 40 20 4b 3d 2d 87 52 3d e4 0b ca bb 19 a8 a4 3d
       0.049591303 0.051398445 -0.0061659683 0.080398746
000090 0b 56 a2 3e 7c 43 bb 3e 52 6c 55 3e 67 26 f5 3e
       0.3170627 0.36574924 0.20842102 0.4788086
0000a0 cb da a6 3e 71 ad 4f 3e 5e 27 07 3f 75 9f a4 3d
       0.325888 0.20281006 0.52794445 0.080382265
0000b0 50 88 8e 3e 1f b9 5e 3e c7 ae d9 bc 92 1d 4a be
       0.27838373 0.21750306 -0.026572598 -0.19737843
0000c0 da 3f e4 3d 90 19 de 3d 23 28 88 3d b5 9a 9e 3d
       0.11144991 0.108447194 0.066482805 0.07744352
0000d0 41 7f 58 3d 5b 53 a7 bd 93 62 e1 3d 9d d9 60 3d
       0.052855734 -0.08170196 0.1100513 0.054895032
0000e0 07 fb 3b be 82 2d 79 3e 8e 48 e8 bc f3 75 2e be
       -0.18357478 0.24333766 -0.02835491 -0.17037182
0000f0 b6 09 ab 3e 1f 02 d1 bc fc da 55 be 05 f6 fb 3d
       0.33405846 -0.025513707 -0.20884317 0.12302784
000100 e3 41 a3 bd 74 77 b3 bd f8 8b 0f bb 37 d8 95 3d
       -0.07971551 -0.08763018 -0.0021903496 0.0731663
000110 d9 b3 24 be 0c 7d 7d bc 16 14 80 bd 06 81 c1 bd
       -0.16084231 -0.015471708 -0.06253831 -0.094484374
000120 58 2e 6b 3d 39 6e fd bc 13 17 a8 bd 3a 87 d7 3b
       0.057417244 -0.030936347 -0.08207526 0.0065773996
000130 c4 ae 11 3d ea b3 bb bd e7 0b 88 3d db f4 7a 3e
       0.03556706 -0.09165175 0.06642895 0.24507467
000140 e5 5f 4c bd ae 48 3a 3e ad 70 96 3c b4 be bb b9
       -0.04989614 0.18191788 0.018364275 -0.00035809504
000150 f1 79 62 3e 49 1f 06 3e 42 24 03 3e 54 cd 6f 3e
       0.2211683 0.13097872 0.128068 0.2341817
000160 dc 49 da 3d 1e b8 0d bd 17 d6 06 be 6a 22 93 bc
       0.10658619 -0.034599416 -0.13167606 -0.017960746
000170 0b 23 91 bc de c7 0a 3c 69 49 2d 3e 0e 94 13 3d
       -0.017716905 0.008470504 0.16922535 0.036029868
000180 a9 2d 8f 3e 44 a1 a5 3d 7c 93 3f 3d 14 9d 9a 3b
       0.27964523 0.080873996 0.04677151 0.004718432
000190 ea d0 2b 3e b8 0d 26 3e 80 c8 38 bd a1 49 75 bc
       0.16778913 0.16216171 -0.045113087 -0.014971168
0001a0 90 c7 74 bd 57 92 78 bc a1 e8 bf bd 04 da 6c bd
       -0.05976063 -0.015171609 -0.09370542 -0.057825103
0001b0 77 88 02 be 6b 17 a6 3d 81 13 41 3e f3 72 11 be
       -0.1274737 0.081099354 0.18855096 -0.14204006
0001c0 9d 48 91 bd c9 9a 8b bb 87 e4 5f 3e 6e a7 37 be
       -0.07093928 -0.004260395 0.2186452 -0.17934963
0001d0 4c ed 0b be bf 39 10 3e c2 0f 50 3e 95 2b b7 3e
       -0.1366474 0.14084528 0.20318511 0.35775438
0001e0 54 14 b5 3e 0d 38 6c 3e a8 bf 8f 3e 63 cd 39 3e
       0.35367072 0.23068257 0.2807591 0.18144755
0001f0 af ee b9 3e c4 77 7f 3e 2c f5 56 3e 73 d2 d7 3e
       0.36314914 0.2494803 0.20991963 0.42152748
000200 41 5f bd 3e 82 9d 0e 3e 70 a3 2a 3e 7d 88 b2 3e
       0.36986735 0.13927272 0.16663909 0.34869757
000210 de 49 b0 3e 9d 07 8c 3d c6 c6 9a 3e e9 cc da 3d
       0.34431356 0.068373896 0.30229777 0.10683615
000220 f4 eb 59 3d ae 54 2b be f7 0f 18 3e 7e 20 e7 bd
       0.053203538 -0.16731521 0.1484984 -0.11285494
000230 6e 6e 4b 3d 40 66 83 bd c0 c5 b7 3d 98 6b ae 3d
       0.04966586 -0.06415987 0.08973265 0.08516616
000240 9b 3c 13 bd 8d f9 5f be 9d 3c 2a be 23 52 09 bd
       -0.03594647 -0.2187254 -0.16624685 -0.033525597
000250 9e e4 e7 bd b3 17 73 be ef 14 48 3e bd 8d 95 be
       -0.11322902 -0.2373951 0.19539236 -0.292097
000260 2e 60 7f be 7b af e2 3d 8b 11 ba 3d 3a 4b 02 be
       -0.24939033 0.110686265 0.09085377 -0.12724009
000270 9a ba e8 bc e0 b5 44 3e 99 93 07 3d 33 38 1f 3d
       -0.028409291 0.19210005 0.033099744 0.038871955
000280 a1 a1 3b bb d6 00 2e bd 1e 10 a7 3d df 2a 34 be
       -0.0028630274 -0.042481266 0.08157371 -0.17594479
000290 51 d8 84 3d 79 9a 98 bc a6 f6 84 bd 69 ca 8c bd
       0.064865716 -0.018628346 -0.06492357 -0.06874544
0002a0 8c 6a 19 3e 55 5a a9 3d ee 03 1c be f5 52 12 be
       0.1498205 0.082691826 -0.15235874 -0.14289458
0002b0 50 c1 ab bd b4 5c de 3d 53 94 01 be c5 de ac 3d
       -0.08386481 0.108575255 -0.12654237 0.084409274
0002c0 c5 28 ad bd ed 66 ff bd 2a 5a 8f bc 2e 94 98 3c
       -0.08455042 -0.124708034 -0.017499048 0.018625345
0002d0 6c d1 8d bf 5f 29 96 bf c5 ed f2 be 13 92 36 bf
       -1.1079535 -1.1731375 -0.4744703 -0.7131664
0002e0 8a 0e 72 bf 82 79 6b bf fc f4 aa 3d f9 ed 16 3d
       -0.94553435 -0.9198228 0.08347508 0.036848042
0002f0 df b2 eb 3c 0e 41 ab 3d 74 6f ce 3d 81 d1 c1 3e
       0.028771816 0.083620176 0.10079852 0.3785515
000300 59 f5 67 3e b0 d6 e5 3d 58 3c 5f 3e c6 c6 f2 3e
       0.22652186 0.11222589 0.21800363 0.47417277
000310 39 b0 8c 3e d3 a5 a1 3e e7 77 27 bd 91 7b bf bd
       0.27478197 0.31571826 -0.040885832 -0.0934974
000320 bc a3 25 3d 9f 9c 6d 3d 9e 7d 29 3e 68 53 12 3e
       0.040439352 0.058010694 0.16551825 0.1428963
000330 71 77 23 3e cb 95 e4 3d 9e 22 a7 3e b1 da 15 be
       0.15963532 0.11161383 0.32643598 -0.14634205
000340 f8 d8 ab 3d 82 0c 33 bd 98 0d aa bc 33 e8 97 3d
       0.08390993 -0.0437131 -0.020758435 0.07417335
000350 59 e9 c1 bd 0e 59 70 3d 30 9e 1b 3e d3 75 52 3c
       -0.09468336 0.05867868 0.15197062 0.012845474
000360 40 9c e3 bc f4 71 8b bd 52 8e 83 bd 07 af a2 3c
       -0.027784467 -0.06808844 -0.0642363 0.01985885
000370 c4 7c 80 3d 2c f8 dc be ac d5 08 bd 67 64 56 3e
       0.06273797 -0.4315809 -0.0334069 0.20936738
000380 7c d3 86 bc 1a 32 36 bd c5 ea 05 3d 02 9a 2e 3e
       -0.016458265 -0.044481374 0.032694597 0.17050937
000390 05 7e 12 3e c7 10 cc bd 93 ce 6a bc 8f 6d 3a 3d
       0.14305885 -0.099641375 -0.014331478 0.04551464
0003a0 3e 73 52 bc a6 64 95 3c aa ca f6 bc a9 04 a0 3d
       -0.012844859 0.01823647 -0.030125935 0.07813389
0003b0 5b ac 9c bd b4 2b d9 bc 10 06 4a 3d 5c 0f 16 bd
       -0.07650062 -0.026510097 0.049322188 -0.03663574
0003c0 f0 69 ff 3c e5 cc ab 3d 2e cf a9 bc 1a 5b 52 bd
       0.031178445 0.0838869 -0.020728674 -0.051356412
0003d0 d8 ff 76 bd 74 f7 5c 3d e0 06 24 3e 69 33 12 be
       -0.060302585 0.053946927 0.16018248 -0.14277424
0003e0 c8 2c 8a bd 69 c1 33 bd 3c 24 9a 3d 6d bb c1 3c
       -0.067468226 -0.043885622 0.075264424 0.023648942
0003f0 f0 68 51 3d d0 28 3a 3e a0 fa 10 3e 26 b1 1e be
       0.051125467 0.18179631 0.14158106 -0.15497264

net1.netdown2.COV1.0.conv_i.bias f4 [8]
000000 82 57 83 bd 96 d7 89 3c 93 6a f1 bd 57 e1 4f bd
       -0.06413175 0.016826432 -0.117879055 -0.05075201
000010 0e 52 05 3e 07 9e f7 bc 49 6a 4f 3d 6b 34 74 bd
       0.13019583 -0.03022672 0.05063847 -0.059620302

net1.netdown3.COV1.0.conv_r.weight f4 [16, 8, 3, 3]
000000 cb b7 01 be cc d9 6e 3c e9 43 56 bd db f5 fd bc
       -0.12667768 0.014578294 -0.052310858 -0.031001022
000010 ca b0 bd bd 6e 71 cb bd de 64 ac bd be 63 96 3d
       -0.092622355 -0.09933744 -0.084176764 0.07343243
000020 76 5d 61 bd 6d c8 e6 3d 0e f9 c2 3c a1 fd 73 bd
       -0.055020772 0.11268697 0.0238004 -0.05956805
000030 e3 2a 46 bd ee 23 e0 3d 90 a1 92 3d 76 75 ab bd
       -0.048380744 0.10944353 0.07159722 -0.08372013
000040 99 d2 e4 bd 9d 18 c5 bd a4 a8 19 bd a3 64 d1 bd
       -0.11172981 -0.09623835 -0.037514344 -0.10224273
000050 2a 2f 9c bd 15 4e 97 bd 3f de 02 bd 94 dd 9a 3d
       -0.07626183 -0.0738794 -0.03195023 0.07561794
000060 ac b3 9c ba 7d 84 b2 bd c9 41 f2 bd 54 fa b5 bd
       -0.0011955402 -0.087166764 -0.11828954 -0.08885637
000070 9b 1d bd bd cf db 2e 3d 96 96 fd bd f1 64 c5 bd
       -0.092341624 0.042690095 -0.123822376 -0.09638394
000080 66 e7 d2 bc 63 5f eb bd 90 71 cc bd b4 d2 a3 3d
       -0.025745105 -0.11492803 -0.09982598 0.07999173
000090 fc 9f b8 bd 93 e2 c1 3c 38 28 34 bb c1 0e 43 3b
       -0.090148896 0.02366761 -0.0027489793 0.0029763433
0000a0 88 40 64 bc a9 c5 e6 3d e9 09 b3 3d 37 4f 4a bd
       -0.013931401 0.112681694 0.087421246 -0.04939195
0000b0 ff af 9d 3d 25 47 57 3c ed ef ee bd f6 16 8f bd
       0.07699584 0.013139521 -0.11666856 -0.06986801
0000c0 f9 4a a0 3c a9 d3 f0 3c fd 65 82 3d f5 f1 0b bd
       0.019567 0.029397802 0.06367109 -0.034166295
0000d0 3b 1e ba bd ec 2e c8 bd d9 3f 44 3d 1c e4 d3 bc
       -0.09087797 -0.09774575 0.047912452 -0.025865607
0000e0 22 e6 e7 bc 57 f9 a5 bd 97 3e 30 bd eb ac 5c bd
       -0.028307978 -0.081041984 -0.04302844 -0.053875845
0000f0 c9 2b 15 3d 27 58 c4 bd f5 58 62 3d 94 d8 93 b9
       0.03641871 -0.09587126 0.055260617 -0.00028199388
000100 85 64 80 3d 6d c9 9f 3c 88 2d a8 3d 90 32 85 bd
       0.062691726 0.019505227 0.082118094 -0.06503785
000110 bd c7 c9 3c 79 99 b0 bd 27 d9 b0 bd 1a 30 ac 3c
       0.024631375 -0.086230226 -0.086351685 0.02101903
000120 44 8f 2c bd 82 5c 27 bd c4 b4 2d be b8 ab 03 be
       -0.042128816 -0.040859707 -0.16963488 -0.12858474
000130 8d bf b3 be 15 59 b8 be 37 cb a3 be 7b 36 9d be
       -0.3510708 -0.36005464 -0.31990978 -0.30705628
000140 ca 54 93 be 8d 99 84 3d c3 fa c1 bd 98 76 cf 3c
       -0.28775626 0.064746 -0.09471657 0.025325105
000150 b2 50 f5 3c 90 27 bc bd 7e 20 d5 ba 9b 60 b0 3c
       0.029945705 -0.091872334 -0.0016260294 0.02153044
000160 06 3c 01 bd 9a 35 fb bb f1 24 6f bd 98 eb 4c be
       -0.031551383 -0.007666302 -0.05838484 -0.20011747
000170 87 41 84 bd 9c 9f cb bd 14 53 05 bd 76 1c 99 bd
       -0.06457811 -0.099425524 -0.032549933 -0.074761316
000180 b1 0b 4d be 70 1d 56 be a4 b9 93 be 33 85 ec bc
       -0.20023991 -0.20909667 -0.2885257 -0.028872108
000190 2f f7 eb bd 96 0c 1e be ce 51 89 bd 01 b7 12 be
       -0.11521756 -0.15434489 -0.06705056 -0.14327623
0001a0 e4 3f d1 bd 42 3d 3e be f6 5d 6c be 9a f9 c1 bd
       -0.10217264 -0.18578056 -0.23082718 -0.09471436
0001b0 14 29 81 bd 2c ac be bd 4d d6 95 3d 23 67 24 3d
       -0.06306663 -0.09310183 0.07316265 0.04013742
0001c0 1d 36 00 3d 47 3c f9 3d e7 81 e7 3c a4 58 f2 bc
       0.031301606 0.121697 0.028260184 -0.029583283
0001d0 97 95 85 bd 42 93 22 bd 5d cd f3 bd 7a e7 7c bd
       -0.065226726 -0.039691217 -0.11904404 -0.06174419
0001e0 16 6a a5 bd 9d 5b ef bd a7 bb 1e be 17 df 0f be
       -0.08076875 -0.11687396 -0.15501271 -0.14049946
0001f0 1d e3 73 bd bb 22 06 be 1f 06 2a bd 4a 25 aa 3d
       -0.059542764 -0.13099186 -0.041509744 0.083078936
000200 19 85 87 3d d0 9b 18 bd 9a 62 bc bb a7 84 40 bd
       0.06617183 -0.03725797 -0.005749059 -0.047001507
000210 78 32 72 3d c4 d2 1d 3d ba f0 31 bb 69 c7 8c bc
       0.059130162 0.03853108 -0.002715154 -0.01718493
000220 f4 af da bd 3c 12 f3 3d 22 a5 12 3c 35 0d 05 3d
       -0.10678092 0.11868712 0.008950504 0.0324833
000230 dc 22 d6 bd 02 f7 a5 3a 0f 43 7b 3d 21 d3 d6 bd
       -0.10455868 0.0012662115 0.06134325 -0.104894884
000240 f5 5e d0 bd a3 7f 97 bd e0 d4 7d 3b 6d 09 71 bd
       -0.101743616 -0.07397392 0.003873162 -0.05884688
000250 c8 a0 81 bd de 9a 1d 3b 84 be a6 3d 39 88 c0 bd
       -0.06329495 0.0024048607 0.08141807 -0.094009824
000260 94 ab ec 3b b2 64 3d 3d 7a 2d 44 3d 88 b1 68 3d
       0.007222602 0.04623861 0.047894932 0.056809932
000270 1f 11 15 3d 21 f3 3e bd 10 d3 6f bd d2 85 9d bd
       0.03639328 -0.046618585 -0.058550894 -0.0769154
000280 20 8a ce 3d 41 5a fe bc 13 cd 90 bd 98 41 56 3d
       0.10084939 -0.031048896 -0.07070365 0.05230865
000290 60 c9 04 3e 5e d5 20 be 28 73 fa bd 81 9e f7 bc
       0.12967443 -0.15706393 -0.122289956 -0.030226948
0002a0 87 ea aa 3d 36 19 2e 3d 5b db d4 bd c0 97 59 3c
       0.08345514 0.04250451 -0.10393401 0.013280809
0002b0 5b ed 2a bd dc cc 9b bd 76 0c f4 3c 18 d7 02 3d
       -0.041730266 -0.07607433 0.029791098 0.03194341
0002c0 46 08 6e 3d 17 b7 07 be cc 0c be 3d d7 82 a0 3d
       0.05811336 -0.13253437 0.092797846 0.07837456
0002d0 e9 91 c5 3c aa 80 8f bd 51 b2 3a bd c4 ae 5e 3d
       0.024117427 -0.070069626 -0.045580212 0.05436589
0002e0 d3 82 1f 3d c9 4e d0 3d 8d 86 53 bc 49 41 c8 bc
       0.038943123 0.10171277 -0.012910497 -0.024445193
0002f0 6e 73 c9 3d 19 fc 27 be fa 49 c0 3d 6d 34 56 bc
       0.098364696 -0.16404761 0.0938911 -0.013074023
000300 f0 c1 c3 bd fa d2 51 bd e5 a7 2a 3d 78 de c5 bd
       -0.09558475 -0.051226594 0.041664023 -0.09661573
000310 c5 a1 c8 3d ad 95 02 bd fc 75 ee bd 17 63 a0 bd
       0.0979648 -0.031881023 -0.116435975 -0.078314
000320 ef 57 74 bd 6c 99 b6 3d a0 42 80 3d 18 76 be 3d
       -0.059654173 0.08915982 0.06262708 0.09299868
000330 82 c4 8a bd 77 5b 3c bd d6 b0 ee bd ca 65 f4 3c
       -0.06775762 -0.045985665 -0.116548225 0.029833693
000340 8b 2b fe bd b4 c4 03 bd ef 35 ce bc 1e 23 82 bc
       -0.12410649 -0.032170013 -0.025172202 -0.015885886
000350 be be 5b bd 1d dc 99 bd 78 38 59 bd e7 8b 16 bd
       -0.053648703 -0.075126864 -0.05303237 -0.036754515
000360 fc 74 a0 bd 7f 49 2d be 3c af 59 3c be b0 c0 bd
       -0.07834813 -0.16922568 0.013286408 -0.09408711
000370 86 e2 cc bd 03 7e 46 bd b4 f9 a0 bd 55 0d 09 be
       -0.100041434 -0.048460018 -0.07860127 -0.13383992
000380 a4 55 24 bd 6c 90 5c ba 58 0c 4f 3e 92 a0 60 3d
       -0.040120736 -0.00084138545 0.20219553 0.05484063
000390 06 59 eb 3d 72 d5 36 3d b5 3e 93 bd 29 95 15 be
       0.11491589 0.04463715 -0.07189695 -0.14607681
0003a0 83 a8 f7 bd 47 8d 43 be 83 bc 28 3e 25 a0 2e 3b
       -0.12092688 -0.19096862 0.16478162 0.0026645747
0003b0 eb d9 24 3a 95 bf 95 3d bf e1 f5 3d 5a 47 94 3d
       0.0006288576 0.07311932 0.12005948 0.07240172
0003c0 35 2a ba bd f2 46 6c 3d 0e f5 17 be ec ee a6 3c
       -0.090900816 0.057684846 -0.14839575 0.020377599
0003d0 58 d4 99 bd 28 f5 3a bc 72 11 a1 bc 08 fc be 3c
       -0.075112045 -0.011410989 -0.019661639 0.023313537
0003e0 1e 4f ab 3d c3 e5 1d be a7 56 97 be b1 e4 1b bd
       0.083647 -0.15419678 -0.29558298 -0.038059894
0003f0 54 4b 6c 3d ef 6a 76 bc e1 8c af bd 89 bd d5 3d
       0.057689026 -0.015040143 -0.085717924 0.104365416

net1.netdown3.COV1.0.conv_r.bias f4 [16]
000000 de 24 d8 bd 7e cc 6d bd 42 6a db bd ea db bf 3d
       -0.10553907 -0.058056347 -0.107136264 0.09368117
000010 d0 92 41 be a0 20 a9 3d 48 50 99 3d 2c 6b 86 be
       -0.18903661 0.08258176 0.074860156 -0.2625364
000020 10 92 26 bd 8e 64 42 bd 0b bf 8c bd af ff b1 bd
       -0.04066664 -0.047459178 -0.06872376 -0.08691346
000030 77 e5 11 3e 9a a4 47 3d 42 01 7c 3d bf 57 95 3c
       0.1424769 0.04874096 0.061524637 0.018230317

net1.netdown3.COV1.0.conv_i.weight f4 [16, 8, 3, 3]
000000 cd 84 9e 3d 0c 43 ac 3d 61 91 55 bd 42 59 0d 3d
       0.077401735 0.08411226 -0.052140597 0.03450895
000010 66 ca da 3c a6 ef 8b 3d 7c 08 de bc 6b 23 02 bd
       0.02670784 0.06832819 -0.027103655 -0.03177206
000020 bc 7f e3 3d 18 13 09 bd a8 64 c2 3d 86 b2 a9 bd
       0.11108348 -0.033465475 0.09491855 -0.08286004
000030 b8 ee 81 3d 6e 5e 62 bd 87 84 da 3d 51 f5 2f 3d
       0.0634436 -0.055265836 0.10669809 0.04295856
000040 7a 5d 8e bd 75 84 81 bd 8d 11 7b bd 79 91 4a 3d
       -0.06951423 -0.06324092 -0.061296035 0.04945514
000050 ac a6 88 bd 28 1a ec 3d 0f fa d7 3d b6 cc 21 bd
       -0.06672415 0.115284264 0.10545742 -0.03950187
000060 1e 40 54 3d 3a a1 88 3c 25 89 96 3d 22 16 3e bc
       0.05181896 0.016678441 0.07350377 -0.011601957
000070 2d b2 ba 3d 90 a3 7c bd 1a 3b 0a bc 85 62 31 bb
       0.091160156 -0.061679423 -0.0084369425 -0.002706678
000080 ed fb 5a bd d6 ef 71 3d d3 3d c2 3c 7b 33 5c 3d
       -0.05346291 0.059066616 0.02371112 0.053760033
000090 df d2 84 bd 40 73 90 3d fb db 81 3d f3 91 5b bd
       -0.06485533 0.07053232 0.06340786 -0.053605985
0000a0 38 82 5a bd 24 a6 9a bd 46 70 09 3d 4e 86 12 3d
       -0.053346843 -0.0755122 0.033554338 0.035772614
0000b0 48 19 da 3c 58 43 b1 3d e8 71 31 bd a3 c2 12 3d
       0.026623383 0.08655423 -0.04332152 0.03583015
0000c0 0a 3a c9 b9 b1 dd c3 3d b9 71 db 3d fe d3 ce 3d
       -0.0003838095 0.09563769 0.1071505 0.10099028
0000d0 7c 2c c5 bc fb e8 8b bd 6f 59 d7 3c 39 93 b1 3d
       -0.024069063 -0.06831547 0.026287762 0.086706586
0000e0 f5 9b ed 3c bb 13 89 bd 55 5f 8d 3d 4d 07 d0 bc
       0.02900503 -0.066932164 0.06902949 -0.025394106
0000f0 e9 e9 e6 3d a9 35 8c bd c3 93 01 bd 8e 8a 37 3d
       0.112750836 -0.06846172 -0.031635057 0.04480987
000100 ee 43 c9 bd 14 ba 76 bd 13 91 0e 3d f9 a3 d3 3d
       -0.0982741 -0.06023605 0.034806322 0.1033401
000110 f2 16 5f bd 7f c8 b4 bc d5 07 4d bd 90 9b 4a 3d
       -0.05446524 -0.02206826 -0.050056297 0.049464762
000120 55 6b c2 bd 01 8e 21 3e a7 9e d5 3d 6a 8b 52 3c
       -0.09493128 0.15776826 0.10430651 0.012850622
000130 0d 3d 07 ba 26 d9 b4 3d 11 eb c3 bd 70 0a 35 bd
       -0.00051589386 0.0883048 -0.0956632 -0.044199407
000140 5a c3 1c bd 30 95 09 be c8 96 cb 3d 00 31 9d 3d
       -0.03827224 -0.13435817 0.099408686 0.07675362
000150 87 09 90 bd ea 7c 49 3e c5 cc 10 3e 7a 0e d9 3c
       -0.07033067 0.19676557 0.14140613 0.02649616
000160 fa 9f 76 3e 60 a6 5b 3e c2 f6 0d be 6a 20 e8 bd
       0.24084464 0.21450186 -0.13863662 -0.113343075
000170 65 72 91 3b 57 80 53 3d 38 5b b1 3d 0c a6 2c bd
       0.0044386857 0.051636066 0.08659977 -0.042150542
000180 6b eb a0 bd 66 a6 53 bd 9b 42 65 bd a9 f8 9f 3d
       -0.078574024 -0.05167236 -0.055971723 0.078111
000190 81 be 67 3c ec 28 cd 3d 0c 4a 69 bd f5 51 da bc
       0.014144541 0.10017571 -0.056955382 -0.026650408
0001a0 ad e7 bd bd e9 34 01 bd 2d 7f 80 bd a3 47 19 bd
       -0.09272704 -0.0315446 -0.06274257 -0.037421834
0001b0 a6 36 0f 3d 87 4b 2d bc 49 83 4b 3e 1e d6 6e bc
       0.034964226 -0.010577089 0.198743 -0.014577417
0001c0 10 d0 a4 3c a2 a7 24 3e c4 74 30 3e 39 dd 0c 3e
       0.020118743 0.16079572 0.17232043 0.13756265
0001d0 63 78 18 3e 0a fe 97 3d e9 0e 88 bc ce 19 e5 3b
       0.14889674 0.07421501 -0.016608672 0.0069916015
0001e0 64 14 b3 3d 80 fa 43 3e 7f 20 4f 3c cb 6c 88 3d
       0.087441236 0.19138527 0.012642025 0.066613756
0001f0 1d 20 2f 3d 64 16 49 3d 37 b2 be 3d fa 21 8c 3d
       0.042755235 0.04909362 0.093113355 0.06842418
000200 92 0b e6 3d e6 83 39 3e e6 87 d1 bb e9 c8 06 3e
       0.112326756 0.18116722 -0.006394374 0.13162579
000210 e0 45 ad 3d 4b 2c 8b bd 27 8a 54 3d 30 1b 48 bd
       0.08460593 -0.067955576 0.051889565 -0.048854053
000220 fa fe f7 3d 9c 12 21 3c 77 1d be 3d cf 87 5c bd
       0.1210918 0.009831097 0.09282964 -0.053840455
000230 09 88 7e bd a9 ad dd bd c6 c4 eb bd 2d fb a6 3d
       -0.062141452 -0.10824139 -0.11512141 0.08153377
000240 fd 1a 15 3c d1 77 df 3d 08 3e 4f 3d 27 70 bf bc
       0.009100673 0.10911525 0.050596267 -0.023368908
000250 17 0e 8c bc aa f0 e6 3b 53 a6 7a bd e0 7c 18 3d
       -0.017096562 0.0070477324 -0.061193775 0.037228465
000260 98 7e f8 bd 3f c6 95 3c c6 57 bc 3d 30 59 2e 3d
       -0.12133521 0.018283008 0.09196429 0.042565525
000270 51 8d 23 3d 0d 94 2f bd 3d 46 c8 bc 2c 78 6c 3d
       0.03992969 -0.0428658 -0.024447555 0.057731792
000280 5f 49 b2 3c 1c 7a 2e bd 98 fc 94 3d 49 2e 3e 3c
       0.021763502 -0.04259692 0.07274741 0.011607715
000290 12 23 e2 bc 9c 6c fc bc 65 ef 5e 3d f3 d0 c7 bd
       -0.027604613 -0.030813508 0.054427523 -0.09756651
0002a0 8f d7 19 3c d5 4c b8 bc 02 63 fc bd 77 ab 5e 3c
       0.009389772 -0.022497574 -0.12323572 0.013590685
0002b0 7a f8 fa 3d be 01 b8 3d 75 1f 7e 3d c9 57 e1 bd
       0.122544244 0.08984707 0.06204172 -0.11003072
0002c0 57 65 69 3d 6a fa b8 3d 70 81 e6 bd 66 8a 84 ba
       0.05698141 0.09032138 -0.11255157 -0.0010112047
0002d0 bd 22 0e 3e d3 e6 c6 3c dd 8a 17 bc 03 61 b7 3c
       0.13880439 0.024279987 -0.009249416 0.022385126
0002e0 1a 3c bd 3d b2 f9 e8 3d f3 f7 88 bd 15 00 f3 3c
       0.09239979 0.113757506 -0.066879176 0.029663125
0002f0 14 fc 4d 3d 9e ea 70 bd e5 5c 22 bd 8a d6 9d bd
       0.05028923 -0.0588175 -0.039639372 -0.07706936
000300 9e 69 cd bd 50 35 81 3c 54 32 94 bd d8 45 d7 bd
       -0.100299105 0.015772492 -0.07236162 -0.105113685
000310 6d 4e de 3c e2 93 be 3d ea dc 24 bd f5 ea 97 bd
       0.027137006 0.0930555 -0.040249743 -0.07417861
000320 61 46 2f 3c 74 c6 f2 3d d0 a8 a9 bd d1 5b 10 3e
       0.010697932 0.11854258 -0.082841516 0.14097525
000330 a8 db 11 3e ad 70 1a bd 43 15 37 3d 62 b1 ba bd
       0.14243948 -0.037705112 0.04469801 -0.09115864
000340 de 8f 0b bd fe 36 e8 bd 81 79 97 3d e3 2d e4 bd
       -0.03407275 -0.11338614 0.07396222 -0.11141565
000350 fc cf df bd 39 0f 64 3d 46 37 da bc b8 2a d2 3d
       -0.10928342 0.05567858 -0.026637685 0.10262054
000360 88 03 1e 3e 9a a1 55 bd 36 3c bb bd da 6a 12 3d
       0.15431035 -0.05215607 -0.09142344 0.035746433
000370 25 42 b0 3d 7e 1c 91 bd ba a5 03 be d3 25 b5 bd
       0.08606366 -0.070855126 -0.12856188 -0.08845105
000380 6b 04 01 be f9 21 0d 3d 55 51 23 3d 7a 7a 9c 3d
       -0.12599342 0.034456227 0.039872486 0.07640548
000390 c0 2a 67 bd c3 b3 30 bd 15 ba 85 bd 87 16 da 3c
       -0.056437254 -0.043140184 -0.06529633 0.02662207
0003a0 80 11 24 bd fc fd 11 bc 61 90 12 bd ee 9b 10 be
       -0.04005575 -0.008910652 -0.03578222 -0.14121982
0003b0 a7 76 4b 3d d2 9d 9b bd 52 c8 40 bd 0c 4c 9e bd
       0.049673703 -0.07598461 -0.04706604 -0.077293485
0003c0 a7 a1 9d be 7c ea 85 be 8e ff 0c be bb 9b 97 3d
       -0.30787393 -0.2615546 -0.13769361 0.0740275
0003d0 c7 e2 86 3d 36 84 a8 3d b6 6b 66 3d 89 41 28 3e
       0.06586223 0.08228342 0.056255065 0.1643125
0003e0 74 43 b1 3d 03 13 46 be f0 e1 f3 bd 1b 3b 2a be
       0.08655444 -0.1934319 -0.119083285 -0.1662411
0003f0 ac 32 36 3e 3a 4f 12 3e 07 09 d3 3d a6 af 1a 3e
       0.17792767 0.14288035 0.10304456 0.15106067

net1.netdown3.COV1.0.conv_i.bias f4 [16]
000000 3e 22 6c bc e1 60 2f bd de 7c 21 bd f7 0e c7 3d
       -0.014412461 -0.042817 -0.039425723 0.09719651
000010 2f de 6f be 97 2b 6a 3d 21 7d cb bd aa fd 7d 3e
       -0.234246 0.057170477 -0.09935976 0.24803796
000020 db a9 4b bd f4 ab 05 be 04 d0 6d bd 1c 22 10 bc
       -0.049722534 -0.13053876 -0.058059707 -0.008797195
000030 b1 87 be bd 4a c1 59 3a 7f c1 5a bd 19 92 76 bd
       -0.09303225 0.00083066954 -0.05340719 -0.060197923

net1.netdown4.COV1.0.conv_r.weight f4 [32, 16, 3, 3]
000000 49 64 aa 3b f5 2b 2a 3d 44 4f 60 3d 41 4c 5b 3d
       0.005199943 0.041545827 0.054763094 0.05353952
000010 d3 32 19 bc 14 46 49 bd 13 ac 9f bc 47 01 20 bd
       -0.009350496 -0.049139097 -0.019491231 -0.03906372
000020 12 f3 19 3d e6 14 72 3d 87 f1 31 3d b5 39 9f 3d
       0.037585326 0.05910196 0.04344323 0.077746786
000030 e3 43 d3 3b 20 54 6b 3d 6c 31 95 3d e8 5c 64 bd
       0.0064473017 0.057453275 0.07284817 -0.055752665
000040 e8 5b a1 bc fa 5c 41 bd 0c 7e 9a 3c c5 d4 6c bd
       -0.019697145 -0.04720781 0.018858932 -0.0578201
000050 78 b5 90 3d 07 75 15 3b ca b5 c5 3c aa 76 1b 3c
       0.070658624 0.002280535 0.024134535 0.009488741
000060 32 30 2e bc 55 e7 81 3d 51 cf 28 bd 08 55 5c be
       -0.010631608 0.06342951 -0.041213337 -0.21516812
000070 3a d5 28 be ee ee 34 be 00 b0 67 be 0e 37 a0 bd
       -0.1648759 -0.1766927 -0.22625732 -0.07823001
000080 be 41 7e be c2 05 af be f5 92 80 be 53 da 50 be
       -0.24829766 -0.3418408 -0.2511212 -0.20395784
000090 cf 79 1e be 1b c5 b4 bc 16 66 29 3d 8a 8c c1 bc
       -0.15476154 -0.022066643 0.041357122 -0.023626585
0000a0 6e 28 21 3c 5b 79 01 be 61 41 c8 bc 6a c8 70 3d
       0.009836299 -0.1264395 -0.024445238 0.05878488
0000b0 37 64 91 bd 9a 88 76 be c2 4c 7b be 6c aa 96 be
       -0.070991926 -0.24075547 -0.24541 -0.29426897
0000c0 80 75 e7 bd 63 8b c3 bd 12 86 57 bc 6c 91 64 be
       -0.11301708 -0.0954807 -0.013154523 -0.22321099
0000d0 c5 49 19 be a3 40 a0 be e1 92 e9 3d 3a 1f 1b 3e
       -0.14969547 -0.31299314 0.11404968 0.1514863
0000e0 85 ab 43 3e 1e 30 aa bc f5 ad 82 3d 46 9d 0e 3e
       0.19108398 -0.020774897 0.06380836 0.13927183
0000f0 bf f3 58 3b 6c 50 3e bd c2 2d c6 bd 49 70 56 3d
       0.0033104268 -0.046463415 -0.09676696 0.052353177
000100 10 82 29 bc 6e a3 af bd 23 21 61 3c 89 97 2a 39
       -0.010345951 -0.085760936 0.013740811 0.00016268915
000110 e4 2c 6a bd c3 22 4a 3d 0d c8 6a bd 08 4c 86 3d
       -0.057171717 0.049349558 -0.05731969 0.065574706
000120 74 e8 da bc 7e 2b 86 bd a0 8f 6b 3d 73 d8 89 39
       -0.02672217 -0.06551264 0.05751002 0.00026291944
000130 6a 1c 1b bd 80 c7 e1 bc e9 83 e0 3d 7a 9e d9 bc
       -0.037868895 -0.02756095 0.1096266 -0.026564825
000140 3a 5f 8b 3d 63 1b 14 3d aa 32 41 bd 09 95 b3 bd
       0.068052724 0.03615893 -0.047167458 -0.087686606
000150 86 0f ae bd 55 0b 97 3c e0 2e 3b 3c 9b 21 a4 bd
       -0.084990546 0.01843802 0.01142475 -0.08014222
000160 6e a6 16 3d 74 94 5f bd 82 77 85 3d c1 cd 87 bd
       0.036779813 -0.054584935 0.06516935 -0.06631041
000170 9b e8 30 bd a2 4b af bd b8 57 de 3c f6 35 11 3d
       -0.04319058 -0.08559348 0.027141437 0.03545185
000180 99 2c 49 bd b6 fe c1 3c 38 4a 38 3d f2 60 87 3d
       -0.049114797 0.023681026 0.044992656 0.06610288
000190 ab b7 11 3d 97 88 fb bc 3a 34 c2 3c 82 43 6c 3d
       0.03557555 -0.03070478 0.023706544 0.057681568
0001a0 22 54 b7 3d b2 05 51 3d 3b 5e 0c 3d e4 8f a6 3d
       0.08951594 0.051030822 0.034269553 0.08132914
0001b0 b6 78 9e bd 30 46 03 be 55 3e a3 bd c7 dd 97 bd
       -0.077378675 -0.12819743 -0.07970873 -0.074153475
0001c0 85 06 e7 bd 93 1d b5 bb 7d 92 2c bd a9 b5 6c be
       -0.112805404 -0.005527207 -0.04213189 -0.23116173
0001d0 83 65 6d be 92 ec 26 be ac 56 1a be 15 60 05 be
       -0.23183255 -0.16301182 -0.15072125 -0.13024934
0001e0 c1 94 84 be be 57 4a be d7 e7 d3 bd 7e 85 71 be
       -0.2589474 -0.19760033 -0.10346954 -0.2358608
0001f0 64 37 04 be f6 a6 81 bd 9b 10 7d 3d 12 bb 59 3c
       -0.12911755 -0.063306734 0.061783414 0.01328923
000200 ed 09 0f 3e ec 5d 67 3c 8e f6 1e 3d 0b 44 8c bd
       0.1396863 0.014121514 0.03880935 -0.06848916
000210 8f df f4 bc 91 9b 25 bc 1a e6 04 be 03 85 83 bd
       -0.029891757 -0.010107891 -0.12978402 -0.06421854
000220 c0 0f 35 bd 27 af b2 bd 3b 5b 3f be 2b 8f 54 bd
       -0.044204473 -0.08724814 -0.18687145 -0.051894348
000230 2f 3d 9e bd b8 b0 87 be 48 60 3d be f6 73 32 be
       -0.077265136 -0.26502013 -0.1849376 -0.17427048
000240 eb 77 af 3c 18 33 b3 3c 61 4f 88 bd 9d f4 2f bd
       0.021419486 0.02187495 -0.06655765 -0.04295789
000250 78 50 a1 bd 32 5c 8e 3c eb 29 87 bc a8 70 f2 3c
       -0.07876676 0.017377947 -0.01649948 0.029594734
000260 dc 03 03 3b e2 14 ad 3b 6a 28 8f bd 0b 2b 02 3c
       0.0019991314 0.0052820304 -0.0699013 0.007944833
000270 96 e8 f4 bc 9d 49 04 bb 58 76 6d bc 56 b8 86 3a
       -0.029896062 -0.0020185478 -0.014493547 0.0010278325
000280 28 0c 62 be 5c df c1 bd 10 72 24 3e a3 e6 89 3d
       -0.2207495 -0.094664305 0.16059136 0.067334436
000290 f3 06 ba 3d 33 21 95 3d 1b ce 65 3d 94 3b e8 3d
       0.09083357 0.07281723 0.05610476 0.113394886
0002a0 6f dc 1b 3e 23 15 08 ba ac e4 52 3d fa b9 c0 3c
       0.15220807 -0.0005191138 0.05148761 0.02352618
0002b0 1c 8d d1 3d 4c 73 23 3c 9b d4 76 3c 91 03 ca 3d
       0.102319926 0.009976219 0.0150653375 0.098639615
0002c0 03 82 82 3c a9 36 0d 3d 3a d7 1c 3b f9 b5 c8 bd
       0.015931135 0.034475956 0.0023931996 -0.098003335
0002d0 99 88 a2 3d ff f9 74 3e 37 d9 8d 3d e1 5a 39 3d
       0.0793621 0.23923491 0.06926196 0.045252685
0002e0 ef 17 fb 3d 26 e0 9f 3c 1b ab 01 3d 0f e9 60 3e
       0.12260424 0.019516062 0.03165732 0.21963905
0002f0 97 69 5b 3e 54 b8 04 3e c6 79 80 3d e8 58 86 3d
       0.21426998 0.1296094 0.062732264 0.06559926
000300 cb fa a2 3d ca b5 1d 3d 82 b7 5c bb 16 02 be 3d
       0.07957991 0.038503446 -0.0033678715 0.092777416
000310 7e 5c 9d bd 71 05 0a bc 10 83 28 3e de 12 86 3e
       -0.07683657 -0.008424149 0.16456246 0.2618627
000320 bc 57 ce 3d 13 ed a7 3c 7a 33 47 3c 66 61 dc bc
       0.10075328 0.020498788 0.012158269 -0.026901912
000330 08 ca 10 3e 59 e9 9d 3d 9f bf 0a bd 34 5f bd bd
       0.14139569 0.07710523 -0.03387415 -0.09246674
000340 73 14 16 be 8e 6f d6 bd cc 58 d3 bd a7 34 ae bd
       -0.14656238 -0.10470496 -0.10319671 -0.085061364
000350 87 3d 5b be d8 87 2a be ae b1 de be 22 b3 f6 be
       -0.2141019 -0.16653383 -0.43494934 -0.48183542
000360 88 d2 58 be db 20 9c be 8a a7 9d be 5b 29 04 be
       -0.21174061 -0.30493817 -0.30791885 -0.12906401
000370 82 d5 92 3c 89 ec db 3c 28 1e 7a be 28 8e ae bd
       0.017924074 0.026846187 -0.24425566 -0.08523208
000380 ef c6 53 be 95 ac 75 bc 7a 21 ac 3d b6 28 ed bd
       -0.20681356 -0.01499476 0.08404823 -0.115800306
000390 c2 e4 21 3d b3 ec b7 3d 89 1a 80 3c be 40 93 3c
       0.0395248 0.08980694 0.015637653 0.017975207
0003a0 d9 70 df 3d bb 73 03 bd 89 44 a8 3d c3 72 a2 3d
       0.10910196 -0.03209279 0.08216197 0.07932045
0003b0 a5 fe 16 3e 7f c3 3c 3e 35 42 1d 3e 60 77 ae 3d
       0.14745577 0.18433951 0.15357287 0.08518863
0003c0 3c e6 34 3e 1e 8f a5 3d b2 89 07 3e d1 75 73 bd
       0.17665952 0.08083938 0.1323612 -0.05943853
0003d0 8c 27 52 bd f3 57 7d bd 27 6d 86 3d 1a 07 1f bd
       -0.051307246 -0.061851453 0.06563788 -0.038825132
0003e0 9f cc c7 3c cd d3 8f 3d a2 23 6e bd 41 04 3d bd
       0.024389563 0.0702282 -0.05813945 -0.046146635
0003f0 e4 b8 36 3b 55 38 82 bc c8 b9 ad bd 74 96 f4 bb
       0.00278812 -0.015896002 -0.084827006 -0.0074642245

net1.netdown4.COV1.0.conv_r.bias f4 [32]
000000 f8 b6 2b 3d 3c 64 9d 3d 98 ef ce 3d 74 88 c1 bd
       0.04192254 0.07685134 0.10104293 -0.094498545
000010 a0 d2 44 3d 8d 8e 6f 3d 90 ca 5a 3b ed a6 10 bd
       0.04805243 0.058485556 0.0033384897 -0.035315443
000020 f3 32 a7 3d 3f c5 13 3c 9a d0 58 3d cc 89 35 bd
       0.08164015 0.009019195 0.052933313 -0.044320866
000030 b9 e5 95 bc ec be c0 3d 09 6a e1 bc 32 95 a5 be
       -0.018298017 0.094114155 -0.027516382 -0.3234039
000040 e5 c6 d4 bd 7e 99 31 3d df 6b 20 bd b1 fe 3f be
       -0.103894986 0.043359272 -0.039165374 -0.18749501
000050 33 b0 37 bb 70 fc d6 bd fc e0 9c 3d 9e 8e 8d bd
       -0.0028028607 -0.104973674 0.076601 -0.06911968
000060 9a 1e 74 bd 90 e0 9c bd 36 2d dc bd a0 16 d8 3c
       -0.059599496 -0.076600194 -0.10750811 0.026377976
000070 e4 2e b6 bd 22 b3 2d bd 33 f1 77 3c d2 a7 29 bd
       -0.088956624 -0.042407162 0.01513319 -0.04141981

net1.netdown4.COV1.0.conv_i.weight f4 [32, 16, 3, 3]
000000 f5 3e 74 bd a6 99 71 bd 96 e2 42 bd 41 05 a2 bd
       -0.059630353 -0.05898442 -0.04757937 -0.07911158
000010 4e 82 2b bd 18 e7 ac 3d 20 65 ed bc 78 9e bc 3c
       -0.041872315 0.08442515 -0.028978884 0.023024783
000020 c2 6a 5f 3d 2a 06 d4 bc 08 ce 76 3d 13 91 7f bd
       0.05454517 -0.025881846 0.06025508 -0.062394213
000030 e5 c8 47 bc 70 9a fa 3b b5 6c 8c bc 98 e5 03 bc
       -0.012193893 0.007647805 -0.01714168 -0.008050345
000040 76 2f 32 bd 6c 54 4c bd 85 c7 9a bb 9c 41 8f bc
       -0.043502294 -0.0498852 -0.0047234916 -0.01748734
000050 fc 5a 4b 3d 04 42 69 bc 0e d6 22 3d de f0 25 bd
       0.049647316 -0.014236931 0.03975492 -0.040512912
000060 f0 dd a7 3d a2 33 2c 3c 1b ae 70 bc 2f 15 16 bc
       0.08196628 0.010510357 -0.0146899475 -0.009160324
000070 ae 8e d2 3d 31 d2 34 3e a7 8c 7f 3c 85 03 9e 3b
       0.1028112 0.17658307 0.015597499 0.004822197
000080 ac f9 20 3d 6f 30 39 bb 5b 83 6a 3d b0 af e3 bc
       0.039300606 -0.0028257628 0.057254177 -0.027793735
000090 5a b4 63 bd 98 8e 3a be d9 df c0 bd e2 fe ae bd
       -0.05559192 -0.18218458 -0.094176956 -0.08544709
0000a0 32 4b 4f bb 1b 5e 58 3c 47 1c b8 3c 66 e7 77 3c
       -0.0031630513 0.01320603 0.022474421 0.015130853
0000b0 1f fe 70 bc c7 dc d6 bd 0d 7b 08 3d 7b 5b 48 bd
       -0.014709025 -0.10491329 0.033320475 -0.048915368
0000c0 a8 e3 1c 3e 16 74 17 3e 4e 25 29 3e 4b c1 fd bd
       0.15321219 0.14790377 0.16518137 -0.12390383
0000d0 1b f8 4c be b9 e3 51 be b7 05 43 bb 46 f3 ce 3d
       -0.2001652 -0.20497026 -0.0029758045 0.101049945
0000e0 70 27 a4 ba 53 78 c3 bd af 74 a2 bd f9 4b f5 bd
       -0.001252396 -0.095444344 -0.07932412 -0.11977381
0000f0 e2 fc 32 be d5 b9 64 bd 46 27 5c be 32 4b 1a 3d
       -0.1747928 -0.055841286 -0.21499357 0.037669368
000100 4d 65 77 bd fb d6 1d 3c c2 82 bc bc 43 e1 85 bd
       -0.060399342 0.009633775 -0.023011569 -0.06537106
000110 ec 52 db bc 0b 04 c8 3c c4 c9 30 bd 87 a5 45 bd
       -0.026772939 0.02441599 -0.04316117 -0.048253562
000120 dd 96 f7 bc 31 41 42 3e f5 e3 64 3e 96 7c 19 bd
       -0.030223304 0.18970181 0.22352584 -0.03747233
000130 8c 73 2d 3d 0f ed 93 3d 39 d0 8b 3d 41 bc 4a bd
       0.042346522 0.0722295 0.06826825 -0.04949594
000140 4c 2e 02 3d a4 c2 9e bc 48 35 50 bd 77 35 7a 3d
       0.031782433 -0.019379921 -0.050832063 0.061086144
000150 80 c9 2a 3d ee ea 8d 3c 65 dc a1 bc 6f 93 95 bd
       0.04169607 0.017323937 -0.019758413 -0.07303511
000160 9e 3d 9e bc c8 86 81 bd 96 0b 1c bc df 10 17 bd
       -0.01931649 -0.063245356 -0.009524247 -0.036881324
000170 d9 73 a4 bd d6 1b 4c b9 92 b0 bd 3d 9c c1 4c 3c
       -0.08029909 -0.00019465326 0.09262194 0.012497332
000180 42 ca db 3d d4 16 1c 3d ef 41 31 bc 81 f0 95 3d
       0.10731937 0.038107708 -0.010818942 0.07321263
000190 7e 03 a9 bd e3 ee 99 bc 8a c2 6f 3d 76 7e 19 3d
       -0.08252619 -0.018790668 0.058535136 0.03747412
0001a0 5e 26 7d bd 74 0a a0 3c 40 bd 55 3c 47 37 c8 3c
       -0.061804168 0.019536234 0.013045609 0.02444042
0001b0 e8 62 95 bd 8b d3 4c 3d 80 87 c1 3d 88 56 ff bb
       -0.072942555 0.05000643 0.09449673 -0.0077922978
0001c0 0c b4 ed bc 2d b4 05 bd 78 5d aa be 1a bc 84 be
       -0.029016517 -0.032642532 -0.33274436 -0.2592476
0001d0 e1 ad c0 be a4 9b 54 3d 9b 3c 0b bd 62 df 4a bd
       -0.3763266 0.051906243 -0.033993345 -0.04952944
0001e0 0e f7 0b bd 3e 29 50 3d 29 19 bd bc 17 20 32 3d
       -0.034171157 0.05082058 -0.023083286 0.043487635
0001f0 16 71 c7 bc dc 96 df 3d 92 b4 a4 bd 53 94 91 bd
       -0.024345916 0.10917446 -0.080422536 -0.07108369
000200 38 31 32 bd 76 65 6f 3d 9e e8 d3 3c 4f 88 64 3c
       -0.04350397 0.05844637 0.025867756 0.013948514
000210 6c ab 8b bd 9b 63 85 bd 7d ce 2f bc ee cd 83 bd
       -0.068198055 -0.06513139 -0.010730383 -0.06435762
000220 69 8b b8 bc d6 00 16 be 85 0e 11 bd 68 aa c0 bd
       -0.022527413 -0.14648756 -0.035414238 -0.094075024
000230 e7 ef a7 bd ca 6f aa bd 21 50 aa bd e0 3a 88 be
       -0.082000546 -0.08322103 -0.083160646 -0.26607418
000240 4a ea 9e 3d 9f 2a 99 bd 2b 3d 26 bd b4 6c 04 3d
       0.07759531 -0.074788325 -0.040585678 0.03233023
000250 d5 8e c0 3c e6 d8 24 3b 51 2b 28 3d 26 c4 d6 bc
       0.023505608 0.0025153696 0.041056935 -0.026216578
000260 77 93 54 3d 75 9f 51 bd 44 3b 7c bd 26 66 eb bd
       0.051898446 -0.05117746 -0.061579958 -0.11494093
000270 76 83 34 3d d6 f8 4c bd 4a 16 42 3a 08 ee ba bd
       0.044070683 -0.050041996 0.0007403834 -0.09127432
000280 cf c5 d8 bc 5e dd f8 bb 04 4e 92 bb 48 3e 6f 39
       -0.02646151 -0.0075947484 -0.0044648666 0.00022816018
000290 9c a5 92 bd e9 84 26 3d a5 4d 0b 3c c2 35 e7 bb
       -0.07160494 0.040654097 0.008502399 -0.007055969
0002a0 3a e8 3a bd 3c ef ad 3d 72 78 45 3d ca 2b 77 bc
       -0.045631625 0.08492896 0.04821057 -0.015086124
0002b0 c0 67 97 bd 2f 54 61 bd 92 e2 67 bd 5d d7 39 be
       -0.073928356 -0.055011924 -0.05661256 -0.18148561
0002c0 b7 8e b5 bd e8 03 8e bd 91 03 a9 bd d5 40 d7 bd
       -0.08865111 -0.06934339 -0.08252633 -0.105104126
0002d0 de 47 f6 3d f9 ab 33 3c 8d e2 6e 3d 62 61 01 3e
       0.12025426 0.010966294 0.058321524 0.12634805
0002e0 53 c7 64 3c a3 28 e5 3d fb 6f 08 3e 70 f5 7c 3e
       0.013963538 0.111893915 0.13323967 0.24703002
0002f0 80 87 7a 3e 6c c5 05 3d 99 44 0d be c9 3e 87 3d
       0.24465752 0.03265898 -0.13795699 0.06603772
000300 be c5 af bd 7f fa 0e be 91 27 b4 bd 56 d6 ca bd
       -0.08582638 -0.13962744 -0.08796609 -0.099041626
000310 40 55 2d be 5d d1 75 3d 37 3f 72 be df 0d b5 bd
       -0.16927052 0.060014118 -0.23656927 -0.08840536
000320 84 26 a3 be 5a f5 5c be 95 3c 8b 3d 36 2c 2b 3d
       -0.31865323 -0.21577969 0.067986645 0.04179021
000330 f9 ee cc be 2e ea 21 be 8c 34 81 be 9a d8 e5 bd
       -0.40026072 -0.15811989 -0.25235403 -0.11222954
000340 ce a6 8e bd 77 84 69 bd fa d4 7e bd 79 11 bf bd
       -0.06965409 -0.057011094 -0.06221483 -0.093295045
000350 46 b6 26 be 7e df cb bd 98 58 39 be 2d b1 fd bd
       -0.1628047 -0.09954737 -0.18100202 -0.12387309
000360 62 aa 66 3d ab 62 a9 bd e3 07 92 bb 32 45 6e bd
       0.056314833 -0.082707725 -0.0044565066 -0.05817146
000370 64 32 9b 3d 41 ff 5d 3d 3f 69 81 3d 2e 0e 70 bc
       0.075779706 0.054198507 0.06318902 -0.014651818
000380 2e 85 6c 3d 2e 44 70 3d 3f 74 65 bd b6 79 47 3d
       0.057744198 0.05865877 -0.056019064 0.048700057
000390 78 54 07 bc 70 34 8b bc 31 32 04 39 e7 e5 91 bd
       -0.008259885 -0.016992778 0.00012607199 -0.071239285
0003a0 b0 4d 93 bd cf 1d 41 39 27 41 5e bd 50 08 a3 bd
       -0.07192552 0.00018417019 -0.054261353 -0.0796057
0003b0 1e a1 44 3b 43 16 39 bd d3 d4 f2 bd 74 7d 36 bd
       0.003000326 -0.045187246 -0.11856999 -0.044553235
0003c0 b2 9f 59 bd 4f d3 d0 bd 82 a3 fb bd 2b 3f 8d bd
       -0.053130813 -0.10196554 -0.12287046 -0.06896814
0003d0 58 d3 13 be e2 62 49 bd 22 dd ea bd 17 b1 07 bd
       -0.1443609 -0.049166568 -0.11467959 -0.03312787
0003e0 73 07 dc bd 8f bd 92 bd 90 d9 5c bc 45 55 ad bd
       -0.10743608 -0.07165062 -0.013479605 -0.084635295
0003f0 94 b7 30 3c 5d 1e 49 be d0 b4 f1 bd 84 e0 af bd
       0.010785956 -0.19640489 -0.11802065 -0.08587745

net1.netdown4.COV1.0.conv_i.bias f4 [32]
000000 24 a8 3f 3b 34 8d 95 be 22 ec 8f 3d f8 4b df 3b
       0.0029244507 -0.29209292 0.07027461 0.006814476
000010 e2 e3 c7 bd e3 1b ff bd 15 70 5b bc bf 7a dd 3b
       -0.09760262 -0.12456491 -0.013393422 0.0067590172
000020 4c ac 85 bd ad 34 f0 bd 13 75 92 bd 9e fb 6d bb
       -0.06527004 -0.11728797 -0.071512364 -0.0036313306
000030 2f ac 6a 3b fe 04 3c be 3b 5d 77 bd 9c 7e 4f be
       0.0035808196 -0.1836128 -0.060391646 -0.20263141
000040 87 bb 31 bd 85 c9 ba bc 72 ae b6 3c 9e db 54 3e
       -0.04339173 -0.02280117 0.022299979 0.20786902
000050 be 76 2e bc 5c ed 1f 3e 6e cc ba 3d 0f 9e c2 3c
       -0.0106484275 0.15617889 0.09121023 0.023757009
000060 d4 7c b8 3d 88 82 6c bc cb 1c 13 bd b6 ee 65 bd
       0.09008184 -0.014435418 -0.03591613 -0.056135856
000070 42 a8 24 bc bf 77 9c bc 7c 23 f9 bc fd 96 af 3d
       -0.010049881 -0.019100068 -0.030412428 0.085737206
