CCNN-CGH/CCNN-CGH V1.5/ccnn1.pth (torch, 147077 bytes, 30 tensors)

netdown1.COV1.0.conv_r.weight f4 [4, 1, 3, 3]
-0.08810231 -0.032454044 -0.31225333 -0.14032221 -0.13644576 7.390976e-05 -0.18170428 -0.107905194
0.066890806 -0.19089623 0.05584413 0.12054728 -0.06642329 -0.18682699 -0.26652923 -0.020059152
-0.35698056 -0.07824223 -0.17608814 -0.18902215 -0.06540874 -0.29334038 -0.23409685 -0.14645481
-0.2768879 0.14369774 -0.20850706 -0.14848705 0.04693347 0.0858524 -0.1682182 0.0030360357
-0.03516674 0.27729762 0.23410216 0.257719
00000000: fc6e b4bd 88ee 04bd abdf 9fbe a0b0 0fbe
00000010: 70b8 0bbe 0000 9b38 b010 3abe 66fd dcbd
00000020: 0cfe 883d 4d7a 43be d1bc 643d 7ee1 f63d
00000030: ef08 88bd 934f 3fbe 8576 88be 1753 a4bc
00000040: 28c6 b6be 763d a0bd 7350 34be 068f 41be
00000050: 04f5 85bd b630 96be 16b7 6fbe 40f8 15be
00000060: 40c4 8dbe 8025 133e e082 55be fd0c 18be
00000070: 4f3d 403d 62d3 af3d 6441 2cbe 3af8 463b
00000080: 000b 10bd f4f9 8d3e 7ab8 6f3e bff3 833e

netdown1.COV1.0.conv_r.bias f4 [4]
-0.23263404 0.18228777 0.2411021 0.22791345
00000000: 9e37 6ebe a5a9 3a3e 78e3 763e 2562 693e

netdown1.COV1.0.conv_i.weight f4 [4, 1, 3, 3]
-0.3266743 -0.0259825 0.23168936 -0.2687376 -0.14771566 -0.24883223 0.15504289 -0.0037291348
-0.27506694 -0.044834852 -0.072889894 0.0873681 -0.18304618 -0.321303 0.048173606 -0.14600636
0.12211988 0.53943294 -0.15978329 0.21849239 0.34177586 -0.026787456 -0.50317574 -0.1626651
0.08547591 -0.2878391 -0.11464216 0.10053691 0.09191497 0.14106114 -0.2704557 0.33272618
-0.08988776 -0.05574239 0.4295201 0.22400339
00000000: db41 a7be 40d9 d4bc fa3f 6d3e fa97 89be
00000010: c642 17be e0cd 7ebe 90c3 1e3e 8064 74bb
00000020: 93d5 8cbe c0a4 37bd 4c47 95bd 0cee b23d
00000030: 7570 3bbe d481 a4be b051 453d b182 15be
00000040: fd19 fa3d 4718 0a3f 3b9e 23be 78bc 5f3e
00000050: 3ffd ae3e 5e71 dbbc 20d0 00bf ae91 26be
00000060: fe0d af3d a65f 93be 82c9 eabd 4ce6 cd3d
00000070: ea3d bc3d 5572 103e 2b79 8abe 165b aa3e
00000080: 1317 b8bd 2252 64bd 0fea db3e 2561 653e

netdown1.COV1.0.conv_i.bias f4 [4]
0.008862853 0.05701903 0.35630557 -0.22899167
00000000: 8035 113c c98c 693d af6d b63e cb7c 6abe

netdown2.COV1.0.conv_r.weight f4 [8, 4, 3, 3]
-0.01258029 0.046718165 -0.13318263 -0.076084696 0.08499648 0.111393705 0.006858155 0.1538653
-0.087161645 -0.016763464 -0.15942809 -0.1638852 0.005099724 -0.08155006 -0.059411436 0.15017326
-0.016420553 -0.00987995 -0.077563494 0.045481265 0.036728866 0.055754628 -0.07796131 -0.11216811
-0.12796304 0.0650472 -0.13705313 0.061904646 -0.07552806 -0.17884222 0.06974366 -0.1548355
0.025147704 0.119142644 -0.020697124 -0.029641613 -0.16309708 0.05694942 0.14378051 -0.056724153
-0.042765364 -0.08775713 0.0003323406 0.060149074 0.03781797 -0.12933655 0.09449262 -0.13751565
-0.18301919 0.017074997 0.53291744 -0.013533963 0.36620948 0.061953798 -0.11369575 -0.010169923
0.066197805 0.2563663 0.04972052 0.3209221 -0.07797466 -0.015899517 -0.2000165 -0.13155742
0.048786916 0.02646402 -0.026450137 -0.04894235 -0.113216646 -0.18201457 -0.24068192 0.122263595
-0.06727968 0.12614162 0.14506038 -0.07039903 -0.044280514 -0.042425156 -0.1371933 -0.075828314
-0.038344815 -0.09819559 0.13146062 0.1400873 0.08909101 0.03115962 0.15559559 0.07778661
-0.13354458 0.1364064 -0.49511248 -0.5405849 -0.4792645 -0.47651008 -0.53911364 -0.57033277
-0.62029743 -0.64123917 -0.6125856 0.060524248 -0.11351839 -0.019966774 -0.06628852 0.1374264
0.13216805 0.030733617 -0.10583631 0.089802444 0.090149 -0.093407415 0.16412999 -0.12475334
0.05702965 0.049667522 0.075713456 -0.04920113 0.013555348 -0.10288329 0.113983676 -0.09799288
-0.17253242 -0.14896984 -0.19107717 -0.24518761 -0.13739292 -0.024645329 0.03028406 0.059038028
0.07474502 -0.0050664977 -0.013206549 -0.048707876 -0.082895175 0.11208565 0.068516485 -0.033150364
0.019010419 -0.17270409 0.049961112 -0.15111753 0.1881839 -0.09874448 0.040302332 -0.14034715
-0.10022104 -0.06876497 -0.053388104 -0.029957816 0.15531991 -0.08853881 -0.011702821 -0.11634219
0.007812664 0.06410807 0.021377794 -0.1692927 0.08254874 0.12052587 -0.07722174 0.1353927
0.16313267 -0.05172642 -0.0006623908 -0.13848452 0.063233405 -0.18781632 0.03459659 -0.10597836
0.035766717 0.024448397 0.05640791 -0.15636486 0.05758715 0.07464634 -0.07921927 0.20880692
-0.07517456 -0.19583598 -0.09042464 -0.091113865 -0.03291802 0.07794084 0.03852786 0.025437474
0.124006286 0.0017871261 -0.052222237 -0.1274097 -0.025262311 0.48074925 -0.2137518 0.04346103
-0.06993051 0.25744066 0.0664356 0.11754274 0.13182898 -0.008958941 0.028727902 -0.116635196
0.01711712 -0.25451368 0.085244864 -0.022846017 0.17852893 -0.23916563 0.03902935 -0.087920435
-0.12975511 -0.10794894 -0.10401997 -0.20258819 -0.03839357 0.01609169 -0.04823885 -0.081574805
-0.12602626 -0.14475642 0.13931571 0.15294923 -0.1246629 0.16567637 -0.056453094 0.13069092
0.092427805 -0.0679326 0.00752459 0.050303675 -0.008205194 -0.12915239 -0.24819285 -0.076862335
-0.0076153106 0.13787441 0.06810912 0.05650876 -0.03413349 -0.009519927 -0.09033219 0.0130885495
0.056981493 0.23849496 0.3239901 0.009182772 -0.10053977 -0.08206525 -0.076676995 0.058868863
0.12554926 -0.09581659 0.14121999 -0.10855281 0.04096456 0.13653804 0.049999475 -0.0573411
00000000: 901d 4ebc 8c5b 3f3d 0761 08be 4bd2 9bbd
00000010: a212 ae3d 6222 e43d 60ba e03b dd8e 1d3e
00000020: ce81 b2bd 8853 89bc 1e41 23be 86d1 27be
00000030: 961b a73b b803 a7bd 6859 73bd 05c7 193e
00000040: 6584 86bc 84df 21bc 9cd9 9ebd 904a 3a3d
00000050: 0271 163d f75e 643d 2eaa 9fbd 65b8 e5bd
00000060: be08 03be 7737 853d a857 0cbe ba8f 7d3d
00000070: 75ae 9abd 6a22 37be c4d5 8e3d 338d 1ebe
00000080: 8f02 ce3c 0f01 f43d 048d a9bc f8d2 f2bc
00000090: ec02 27be cc43 693d 333b 133e 9657 68bd
000000a0: bc2a 2fbd 03ba b3bd 003e ae39 e05e 763d
000000b0: 04e7 1a3d cd70 04be 5985 c13d e7d0 0cbe
000000c0: 6269 3bbe dde0 8b3c 476d 083f 8ebd 5dbc
000000d0: cf7f bb3e 44c3 7d3d 51d9 e8bd c09f 26bc
000000e0: b792 873d 7242 833e bea7 4b3d e74f a43e
000000f0: 2eb1 9fbd b43f 82bc 20d1 4cbe fdb6 06be
00000100: cad4 473d 13cb d83c f5ad d8bc c677 48bd
00000110: 21de e7bd 0762 3abe 5275 76be 5665 fa3d
00000120: eec9 89bd 452b 013e b58a 143e 5e2d 90bd
00000130: 7c5f 35bd 00c6 2dbd 677c 0cbe e04b 9bbd
00000140: 740f 1dbd c51a c9bd 9d9d 063e 0c73 0f3e
00000150: 5975 b63d 7642 ff3c 7354 1f3e 964e 9f3d
00000160: e9bf 08be 1fae 0b3e 627f fdbe c663 0abf
00000170: 2862 f5be 21f9 f3be 5a03 0abf 5401 12bf
00000180: d0cb 1ebf 4028 24bf 69d2 1cbf 46e8 773d
00000190: 547c e8bd 5c91 a3bc 47c2 87bd 82b9 0c3e
000001a0: 1057 073e 11c5 fb3c b5c0 d8bd 58ea b73d
000001b0: 0aa0 b83d 634c bfbd b111 283e ae7e ffbd
000001c0: ec97 693d 2c70 4b3d a80f 9b3d 2087 49bd
000001d0: 4017 5e3c 79b4 d2bd 4670 e93d 7eb0 c8bd
000001e0: 57ac 30be 8d8b 18be bca9 43be 7612 7bbe
000001f0: bbb0 0cbe 00e5 c9bc 4716 f83c dcd1 713d
00000200: eb13 993d dd04 a6bb 4860 58bc e981 47bd
00000210: f2c4 a9bd 298d e53d 5f52 8c3d adc8 07bd
00000220: bdbb 9b3c 57d9 30be 06a4 4c3d 8ebe 1abe
00000230: 48b3 403e 8c3a cabd 0f14 253d 2ab7 0fbe
00000240: b040 cdbd a6d4 8cbd 7cad 5abd 186a f5bc
00000250: 2f0c 1f3e d653 b5bd 30bd 3fbc d044 eebd
00000260: b000 003c 184b 833d 7c20 af3c 115b 2dbe
00000270: 500f a93d 44d6 f63d 6e26 9ebd 62a4 0a3e
00000280: 400c 273e 15df 53bd 4ba4 2dba e3ce 0dbe
00000290: 8480 813d ec52 40be 27b5 0d3d 2f0b d9bd
000002a0: 1f80 123d 0148 c83c fb0b 673d 1c1e 20be
000002b0: 81e0 6b3d 2ee0 983d b63d a2bd 7bd1 553e
000002c0: 1ff5 99bd 3a89 48be 8e30 b9bd e899 babd
000002d0: 0cd5 06bd 729f 9f3d 64cf 1d3d 4062 d03c
000002e0: 02f7 fd3d 003e ea3a fce6 55bd b077 02be
000002f0: e8f2 cebc c424 f63e c0e1 5abe 3104 323d
00000300: ba37 8fbd 43cf 833e 630f 883d 40ba f03d
00000310: 2dfe 063e 86c8 12bc c756 eb3c 6fde eebd
00000320: 3439 8c3c 9e4f 82be dc94 ae3d 9227 bbbc
00000330: 4ad0 363e d6e7 74be 3ddd 1f3d a10f b4bd
00000340: 86de 04be 5514 ddbd 6c08 d5bd 4773 4fbe
00000350: 9342 1dbd b8d2 833c 1a96 45bd b110 a7bd
00000360: 070d 01be 073b 14be c7a8 0e3e b99e 1c3e
00000370: 434f ffbd 11a7 293e 5c3b 67bd d7d3 053e
00000380: ca4a bd3d 3f20 8bbd d690 f63b 3a0b 4e3d
00000390: 146f 06bc 8640 04be 4426 7ebe 006a 9dbd
000003a0: db89 f9bb f32e 0d3e cb7c 8b3d bb75 673d
000003b0: 8fcf 0bbd 78f9 1bbc 1500 b9bd 5b71 563c
000003c0: 6d65 693d 0638 743e 08e2 a53e 5673 163c
000003d0: cce7 cdbd d311 a8bd d408 9dbd 7a20 713d
000003e0: fc8f 003e 7d3b c4bd f99b 103e f050 debd
000003f0: 74ca 273d a1d0 0b3e 40cc 4c3d 80de 6abd

netdown2.COV1.0.conv_r.bias f4 [8]
-0.18472444 -0.06392723 -0.054014485 0.035978913 -0.17017184 0.11747911 0.1959839 -0.11433485
00000000: 6728 3dbe 48ec 82bd 4b3e 5dbd a05e 133d
00000010: 8741 2ebe e398 f03d 01b0 483e 6428 eabd

netdown2.COV1.0.conv_i.weight f4 [8, 4, 3, 3]
-0.13300079 -0.026885971 -0.15656534 -0.038210794 0.11884187 0.08315797 -0.11674529 0.04733862
-0.045381606 -0.053663597 -0.057306077 0.0811148 -0.09175657 -0.05439566 -0.05419868 -0.0029988447
-0.021992076 -0.06179376 0.01244615 0.10940774 0.07434036 -0.14135893 0.12956819 0.16180298
-0.011757674 0.14336169 0.16657424 -0.057217583 0.13158211 0.024968501 -0.06510984 0.093126535
-0.1086246 0.0779379 -0.036627773 -0.12603769 -0.12475495 0.135628 -0.13471596 0.046334907
0.00053079426 -0.04026769 -0.11525601 0.15925495 -0.15113448 0.08766882 0.17848368 0.044390723
0.039935812 0.23295054 0.058205705 -0.047622934 0.058873843 -0.46691275 -0.16661482 -0.04358785
0.14414655 -0.13151798 0.104913905 -0.027078792 0.05666344 0.112156376 0.097125605 -0.14785668
0.15281433 0.031959813 0.007426407 0.10939134 0.02597488 0.08061906 -0.045396246 0.058497723
-0.0008189529 -0.16098073 -0.057484508 0.13941945 -0.14987749 -0.104966864 -0.110939965 0.09930585
0.02026856 0.041397583 -0.1992043 0.04074257 0.17946328 -0.4233802 -0.015773987 -0.0053687575
0.48391747 -0.07023223 -0.09697359 -0.23735952 0.10095721 -0.20303495 -0.11365997 0.06650314
-0.21333477 0.2993898 0.14000966 -0.11325984 0.09128422 0.21474077 -0.02762407 0.047125924
-0.0045811688 0.0868325 -0.04364516 -0.08511763 -0.035875022 0.07983917 0.025647983 -0.035804078
0.0972503 0.09541501 0.09937383 -0.049522802 0.090015754 -0.116612874 0.29189983 -0.18780433
-0.081526764 0.30616242 -0.06108604 0.13004951 0.14439179 0.1585427 0.0055065784 -0.060057975
-0.1321688 0.092973255 -0.23609334 0.0384547 0.04917148 -0.02870701 -0.0035326965 0.18921721
-0.049977016 0.044234283 -0.106348544 -0.10833022 -0.13515171 -0.16376735 0.014083432 -0.11551779
0.16571037 -0.1533859 0.08760379 -0.10576322 0.043238297 0.12607343 0.11365081 0.05699332
0.03367567 0.15115818 -0.24444051 -0.07302467 0.011727499 -0.25944814 0.02335019 0.0024207965
-0.13827345 0.14763337 -0.08189324 -0.019043386 0.020509463 0.026511429 -0.010529755 0.037767876
-0.03129183 0.0024317296 -0.17426041 -0.02825945 -0.04003883 -0.05236893 0.0066160057 -0.22149055
-0.020221738 0.02089584 -0.1473231 0.078074604 -0.034973726 0.058765277 0.084692106 0.16141571
-0.15439957 -0.11416243 0.069212675 0.13189705 0.16214778 0.0031878375 -0.025874522 -0.2675747
-0.046861563 -0.10112872 -0.2111779 0.063505195 0.0029696466 -0.010501274 -0.12105156 0.02337132
0.026081694 -0.17221387 -0.22241142 -0.1599438 -0.10011472 -0.117253974 -0.25608638 0.051521022
-0.08469828 0.12172616 0.1279037 -0.031385884 0.15940684 0.004323123 0.07470606 0.14776646
0.16151892 -0.038167536 -0.07076931 -0.078073725 -0.01677394 0.09496786 -0.12619424 0.13139535
-0.03357409 0.0864329 -0.008729508 -0.072467074 0.04128908 -0.11219733 -0.08211934 0.038820367
0.18718548 -0.299156 -0.033195548 0.31318924 -0.20293275 -0.098555975 0.07036902 -0.12531844
0.07795512 0.20435864 -0.043952964 0.011459732 -0.12988287 -0.1633119 0.13173886 -0.0251235
0.1302963 0.12312801 -0.17294176 0.16483423 -0.12031212 0.097968444 0.14158647 0.061817527
00000000: 5c31 08be f83f dcbc aa52 20be ec82 1cbd
00000010: 5e63 f33d ba4e aa3d 2818 efbd 24e6 413d
00000020: 10e2 39bd 5cce 5bbd c7b9 6abd 841f a63d
00000030: deea bbbd fccd 5ebd 6fff 5dbd 4488 44bb
00000040: ba28 b4bc 741b 7dbd f0ea 4b3c 2a11 e03d
00000050: c23f 983d 65c0 10be 86ad 043e aeaf 253e
00000060: 42a3 40bc 68cd 123e 7092 2a3e fc5c 6abd
00000070: 76bd 063e be8a cc3c 4f58 85bd 20b9 be3d
00000080: 9376 debd e89d 9f3d 0107 16bd 0610 01be
00000090: 867f ffbd 11e2 0a3e fbf2 09be acc9 3d3d
000000a0: 0025 0b3a bcef 24bd 580b ecbd bb13 233e
000000b0: ffc2 1abe b68b b33d 6dc4 363e 0cd3 353d
000000c0: bc93 233d 968a 6e3e 1b69 6e3d 4410 43bd
000000d0: b325 713d 300f efbe 139d 2abe 2c89 32bd
000000e0: 279b 133e a6ac 06be 1add d63d 58d4 ddbc
000000f0: ec17 683d 3eb2 e53d cae9 c63d be67 17be
00000100: 5c7b 1c3e 4be8 023d 3859 f33b 9108 e03d
00000110: 46c9 d43c 9b1b a53d 6af1 39bd 4f9b 6f3d
00000120: 00af 56ba 22d8 24be e074 6bbd f9c3 0e3e
00000130: 7c79 19be def8 d6bd 7e34 e3bd de60 cb3d
00000140: 400a a63c 8390 293d 36fc 4bbe aee1 263d
00000150: 39c5 373e 4ac5 d8be 7338 81bc 67ec afbb
00000160: 08c4 f73e ead5 8fbd 179a c6bd 600e 73be
00000170: a7c2 ce3d 65e8 4fbe 8fc6 e8bd cc32 883d
00000180: 6e74 5abe 9f49 993e b15e 0f3e c6f4 e7bd
00000190: 39f3 ba3d 01e5 5b3e e04b e2bc 1d07 413d
000001a0: a11d 96bb 3dd5 b13d 44c5 32bd 2752 aebd
000001b0: b0f1 12bd b882 a33d b81b d23c 4ca7 12bd
000001c0: 2a2b c73d f268 c33d 8284 cb3d 6cd8 4abd
000001d0: 2e5a b83d bbd2 eebd e573 953e c74f 40be
000001e0: 81f7 a6bd 52c1 9c3e 5b35 7abd b32b 053e
000001f0: 71db 133e 0459 223e 8770 b43b 5aff 75bd
00000200: 4257 07be c368 be3d 74c2 71be ad82 1d3d
00000210: 0968 493d f72a ebbc d084 67bb 28c2 413e
00000220: b3b4 4cbd 022f 353d 44cd d9bd 3cdc ddbd
00000230: 3665 0abe a1b2 27be 32be 663c 9794 ecbd
00000240: fbaf 293e 3211 1dbe 9e69 b33d 639a d8bd
00000250: a41a 313d 6519 013e c2c1 e83d d471 693d
00000260: 80ef 093d 36c9 1a3e 9d4e 7abe f58d 95bd
00000270: b224 403c 63d6 84be e648 bf3c 3aa6 1e3b
00000280: 8e97 0dbe 342d 173e a5b7 a7bd e000 9cbc
00000290: 7603 a83c 7f2e d93c fe84 2cbc 7db2 1a3d
000002a0: dd2b 00bd a75d 1f3b 5271 32be 5d80 e7bc
000002b0: c2ff 23bd ce80 56bd 14cb d83b 6bce 62be
000002c0: 0fa8 a5bc c12d ab3c dedb 16be 94e5 9f3d
000002d0: 9c40 0fbd dcb3 703d 0e73 ad3d 294a 253e
000002e0: ec1a 1ebe fecd e9bd 60bf 8d3d 0510 073e
000002f0: 110a 263e 0aeb 503b cef6 d3bc 8dff 88be
00000300: e9f1 3fbd 931c cfbd 053f 58be 030f 823d
00000310: 679e 423b 890d 2cbc e1e9 f7bd 3675 bf3c
00000320: 47a9 d53c d558 30be d2bf 63be 4fc8 23be
00000330: f208 cdbd da22 f0bd c11d 83be b507 533d
00000340: 4b76 adbd 914b f93d 30f9 023e 7c8e 00bd
00000350: 8c3b 233e fca8 8d3b 7eff 983d 1750 173e
00000360: 3765 253e 9055 1cbd 80ef 90bd 1ee5 9fbd
00000370: 8069 89bc 827e c23d 1039 01be 818c 063e
00000380: fc84 09bd bb03 b13d 3606 0fbc 9e69 94bd
00000390: bd1e 293d b7c7 e5bd 2f2e a8bd 1b02 1f3d
000003a0: 8dad 3f3e fa2a 99be 0ef8 07bd 575a a03e
000003b0: 9acd 4fbe b7d7 c9bd a21d 903d 7a53 00be
000003c0: efa6 9f3d 6443 513e 0608 34bd 9ac1 3b3c
000003d0: 0400 05be 3c3b 27be 8de6 063e cccf cdbc
000003e0: 656c 053e 8a2a fc3d a517 31be 4eca 283e
000003f0: 3366 f6bd aea3 c83d 0bfc 103e 6034 7d3d

netdown2.COV1.0.conv_i.bias f4 [8]
0.119880475 0.14100984 -0.072511904 -0.15264995 -0.09163424 -0.19615816 -0.038174648 -0.12013257
00000000: e583 f53d e264 103e 1f81 94bd 4550 1cbe
00000010: bbaa bbbd afdd 48be 055d 1cbd 1108 f6bd

netdown3.COV1.0.conv_r.weight f4 [16, 8, 3, 3]
-0.044818453 0.08810071 -0.006856948 0.087184526 -0.004236728 -0.08181069 -0.011559528 0.08733836
0.05645453 0.0061458424 0.01234779 -0.019770714 -0.03921638 -0.08334737 -0.17127268 -0.094991654
-0.04740511 -0.036739305 -0.032360725 -0.0673738 -0.14754768 -0.023890112 0.026991807 -0.12704878
-0.0029856125 -0.08390492 -0.015203487 0.055720735 -0.017784921 0.08209647 0.04098983 -0.057662204
0.090245716 0.06694172 -0.017035116 -0.058041524 0.39660802 0.25562868 0.07636485 0.08353121
0.10981288 0.011729838 0.16739361 0.2469505 0.12678711 0.047349356 0.05321482 0.042097684
-0.13683961 -0.24005653 -0.090932615 0.17609785 0.12226225 0.009003733 -0.025071343 0.037006915
0.08300625 0.04482086 0.07153196 0.043463416 0.042421244 0.0037296235 -0.035283204 -0.23899528
-0.1982244 0.1877315 -0.12947556 -0.112569295 0.2694419 0.08186451 0.06547911 0.39694923
0.05518452 0.10604105 0.027786858 0.06508955 0.00019763647 -0.0020683259 0.012409176 0.07702056
-0.080175065 -0.035014354 -0.029251935 0.08632134 0.06538534 -0.0060524414 0.03227516 -0.049036197
-0.052626643 -0.13980377 -0.12152186 -0.039241187 -0.078085326 0.006471848 0.06608107 0.06801871
-0.15750192 -0.1434888 -0.056597903 -0.14188571 -0.14636117 -0.04895629 -0.028237224 -0.00827439
-0.057002034 0.059375007 0.015595249 -0.040850356 0.08931448 0.0023926466 0.09400357 -0.066846654
0.12440102 0.08319981 -0.0012315982 0.07543009 0.17234503 -0.16388568 -0.04129742 -0.06862131
-0.08161939 -0.07563034 -0.1442017 -0.3192256 -0.16672446 -0.30979508 -0.14681786 -0.17739157
0.016769035 -0.18777557 -0.16102464 -0.14754668 0.010745821 0.0077170865 -0.02996209 -0.086127676
-0.2706583 -0.3371051 -0.25188357 -0.16934489 -0.16334078 -0.059363678 0.008500085 -0.05416846
-0.032392114 -0.042119436 0.10534779 -0.097569816 0.12046985 -0.0055550933 0.015365452 0.119278125
0.10372249 -0.18860616 -0.23754139 -0.078295946 -0.10479874 -0.19906296 -0.17560188 -0.12305995
0.019908395 -0.046091232 -0.01190762 -0.032948278 0.11740947 -0.11559854 -0.029266464 -0.024314279
-0.058308985 -0.04432882 0.003632908 -0.04515259 0.03193328 -0.030612892 -0.046428796 -0.016972972
0.009305092 -0.15488717 -0.065668516 0.0022788846 0.0069224713 -0.0052392078 -0.18939224 0.15717854
0.084376305 -0.018927516 0.25615415 0.07915551 0.08118694 0.20339586 0.15242292 0.06232574
0.09486504 0.08840299 0.06702168 0.18412022 0.069693364 0.2496348 -0.22186922 -0.15168624
-0.12059171 -0.06969208 -0.116399296 -0.03237466 -0.1418916 -0.20592175 0.03442319 0.02901732
0.13991962 0.11104586 0.034619577 0.056788605 0.1473405 0.018281609 0.08999365 -0.051673386
-0.08659632 -0.07559146 0.10431401 -0.022345653 0.07731417 -0.02288019 0.070779406 0.02555092
-0.046434462 -0.14629893 -0.15230404 -0.15074885 -0.049824927 0.0050878143 -0.08822763 -0.0015655004
0.013774172 -0.07105448 0.002272788 -0.04367304 0.080133654 0.10819285 -0.036116898 0.12637205
0.07853287 0.023548659 0.14638929 0.0096904 0.099412486 0.05722452 -0.05500591 0.06408985
-0.05430012 -0.02710099 0.010502032 -0.033218153 -0.025148747 -0.10815775 -0.085195445 -0.088397436
00000000: 8e93 37bd 256e b43d 40b0 e0bb cd8d b23d
00000010: 40d4 8abb 5d8c a7bd 2d64 3dbc 74de b23d
00000020: de3c 673d 1063 c93b 634e 4a3c 31f6 a1bc
00000030: 5ba1 20bd 07b2 aabd 1b62 2fbe fc8a c2bd
00000040: dc2b 42bd f47b 16bd ae8c 04bd 46fb 89bd
00000050: bd16 17be 32b5 c3bc ec1d dd3c 1319 02be
00000060: 44aa 43bb 58d6 abbd 0c18 79bc 6d3b 643d
00000070: afb1 91bc 3222 a83d f4e4 273d 342f 6cbd
00000080: bfd2 b83d be18 893d 3a8d 8bbc f3bc 6dbd
00000090: 3510 cb3e c3e1 823e 2d65 9c3d 6912 ab3d
000000a0: 93e5 e03d 822e 403c 3b69 2b3e 98e0 7c3e
000000b0: 7bd4 013e 66f1 413d c8f7 593d 9f6e 2c3d
000000c0: af1f 0cbe 61d1 75be e13a babd ff52 343e
000000d0: a164 fa3d 6584 133c 6b62 cdbc 9094 173d
000000e0: 2eff a93d 1496 373d 597f 923d b206 323d
000000f0: e6c1 2d3d b36c 743b 1f85 10bd 2ebb 74be
00000100: 56fb 4abe b03c 403e 3e95 04be bb8a e6bd
00000110: 4af4 893e 95a8 a73d e919 863d ee3c cb3e
00000120: 2a09 623d 0d2c d93d 44a1 e33c ac4d 853d
00000130: a33c 4f39 c08c 07bb db4f 4b3c f5bc 9d3d
00000140: d332 a4bd 366b 0fbd c1a1 efbc 3ec9 b03d
00000150: c0e8 853d 8f53 c6bb f532 043d 2eda 48bd
00000160: 098f 57bd b828 0fbe 74e0 f8bd 5ebb 20bd
00000170: 33eb 9fbd cc11 d43b 8355 873d 654d 8b3d
00000180: 2f48 21be baee 12be 34d3 67bd 7d4a 11be
00000190: b4df 15be 6486 48bd c051 e7bc 4f91 07bc
000001a0: f77a 69bd 3533 733d 3783 7f3c b452 27bd
000001b0: 83ea b63d f3cd 1c3b f284 c03d e6e6 88bd
000001c0: f6c5 fe3d a964 aa3d 946d a1ba 177b 9a3d
000001d0: 377b 303e a6d1 27be 7c27 29bd 5489 8cbd
000001e0: 1128 a7bd 14e4 9abd 9ca9 13be 8a71 a3be
000001f0: d1b9 2abe 769d 9ebe 6c57 16be 23a6 35be
00000200: 375f 893c 3d48 40be a5e3 24be 7a16 17be
00000210: 3d0f 303c 9ddf fc3b 0f73 f5bc b563 b0bd
00000220: ba93 8abe 0a99 acbe e2f6 80be bf68 2dbe
00000230: ce42 27be 5427 73bd f143 0b3c bfdf 5dbd
00000240: 98ad 04bd 6e85 2cbd 95c0 d73d afd2 c7bd
00000250: e6b8 f63d 8007 b6bb 60bf 7b3c 1748 f43d
00000260: 756c d43d f921 41be 0d3e 73be a059 a0bd
00000270: b9a0 d6bd 29d7 4bbe fbd0 33be db06 fcbd
00000280: ee16 a33c 29ca 3cbd 2e18 43bc c6f4 06bd
00000290: 6074 f03d edbe ecbd 39c0 efbc bd2e c7bc
000002a0: 67d5 6ebd 2392 35bd 1516 6e3b ecf1 38bd
000002b0: 79cc 023d e3c7 fabc 1f2c 3ebd e70a 8bbc
000002c0: 6274 183c be9a 1ebe 377d 86bd 5759 153b
000002d0: e6d5 e23b a9ad abbb 0af0 41be 69f3 203e
000002e0: 7ccd ac3d e10d 9bbc a326 833e 491c a23d
000002f0: 5745 a63d 0147 503e c114 1c3e 4649 7f3d
00000300: 9a48 c23d a00c b53d aa42 893d 038a 3c3e
00000310: 65bb 8e3d 44a0 7f3e af31 63be a353 1bbe
00000320: c9f8 f6bd b9ba 8ebd c162 eebd 4b9b 04bd
00000330: 084c 11be 27dd 52be 55ff 0c3d bbb5 ed3c
00000340: 1747 0f3e 036c e33d 42cd 0d3d 2b9b 683d
00000350: 6ee0 163e 50c3 953c 974e b83d 79a7 53bd
00000360: 6959 b1bd b2cf 9abd 95a2 d53d 3b0e b7bc
00000370: e456 9e3d 3c6f bbbc cbf4 903d 2a50 d13c
00000380: 1032 3ebd 63cf 15be 97f5 1bbe e85d 1abe
00000390: 3915 4cbd aeb7 a63b b0b0 b4bd 7a31 cdba
000003a0: 11ad 613c 0385 91bd 0ef3 143b 80e2 32bd
000003b0: 1d1d a43d 3794 dd3d 50ef 13bd ad67 013e
000003c0: d7d5 a03d 1ee9 c03c 13e7 153e 7cc4 1e3c
000003d0: c698 cb3d 4264 6a3d e14d 61bd 8a41 833d
000003e0: cd69 5ebd e502 debc b710 2c3c c20f 08bd
000003f0: bf04 cebc cf81 ddbd f37a aebd b709 b5bd

netdown3.COV1.0.conv_r.bias f4 [16]
-0.12547429 -0.18695453 -0.0012328983 -0.15578254 -0.084695086 -0.019225406 0.10716788 -0.087117426
-0.180476 0.0313249 0.052143805 -0.1476327 -0.0784578 0.0046295403 -0.20784307 -0.07214145
00000000: 557c 00be 0271 3fbe 3499 a1ba 7585 1fbe
00000010: 9e74 adbd 997e 9dbc d57a db3d 9f6a b2bd
00000020: b3ce 38be 8a4e 003d be94 553d 072d 17be
00000030: 7cae a0bd 66b3 973b d0d4 54be e6be 93bd

netdown3.COV1.0.conv_i.weight f4 [16, 8, 3, 3]
-0.10447302 0.077271454 0.08757235 -0.08771579 -0.0790831 0.0041268994 0.022485673 -0.09589173
0.08230902 0.19181553 0.12866454 0.11236131 0.064449675 0.16275153 0.08246072 -0.037767023
-0.1025025 -0.11397328 -0.3065494 -0.13373393 -0.003116429 -0.0955197 0.014178615 0.20024626
0.077795185 0.04546556 0.34695375 -0.204716 -0.097452514 -0.21730639 -0.15082492 -0.105953455
-0.23989856 -0.234024 -0.25899082 -0.20389256 -0.20127715 -0.21915808 -0.15869166 -0.13248344
-0.10202449 -0.18787812 0.12208933 0.039883558 0.016658131 0.0146109965 0.16121066 0.10492861
-0.09832429 -0.021606725 0.020020094 -0.0024694751 0.01814632 0.063369334 0.37828413 0.3161565
-0.08224835 0.17902933 0.1560419 -0.11419941 -0.06767975 -0.2937279 -0.5113412 -0.24011108
-0.21552156 -0.02474644 0.05405971 0.053108267 0.014795983 0.122031994 -0.037749805 0.12059723
0.11665254 0.09220905 0.0731876 -0.031689875 -0.016615909 0.026159018 -0.101648875 0.10212235
-0.11488354 0.23519284 0.19881049 0.07170079 -0.06888237 -0.08453799 0.014554749 -0.03535004
-0.10884906 0.031400893 0.0033716927 0.024062436 0.023784775 0.07528325 0.0721132 -0.03306558
0.01385214 -0.010772172 0.0017628238 -0.17720617 -0.28074512 -0.20500249 -0.19974309 -0.12751782
-0.056224078 -0.14391899 0.021482976 -0.03718775 0.12761493 -0.07782577 -0.027334716 -0.037218112
-0.16622366 -0.11104822 0.08026441 0.12818924 -0.012228431 0.22485343 0.12678795 0.22284968
0.07814614 0.10244922 0.096191704 0.17729193 0.011094917 0.07649511 -0.32932803 -0.20970939
-0.1802648 -0.29806182 -0.32377425 -0.12188215 -0.06479878 -0.06699709 -0.06379954 -0.07475364
0.034469668 0.017730294 -0.0716893 -0.10925098 -0.006922455 -0.06433924 -0.022140766 0.008610164
0.033135235 0.09637299 0.040401593 -0.04693853 0.08204031 0.039139442 -0.08706049 0.05953734
0.06633476 -0.028984727 -0.114546135 0.11934103 0.005169344 -0.013649577 -0.08991863 0.009670463
0.012950308 -0.08425112 -0.031539436 -0.023743892 -0.009586546 -0.16878986 -0.1896207 -0.022084476
-0.069763884 -0.023360444 -0.028695937 -0.14446111 -0.102108456 -0.073602 -0.10387659 -0.14172329
0.01918474 -0.14041074 0.052135892 0.051841862 0.057415012 0.17458841 0.008567014 0.039162178
0.03599867 0.06787602 0.06291157 -0.014012257 0.0012845589 -0.13914473 -0.008609631 -0.03982172
0.071931645 0.028594747 0.10253002 -0.0010628953 -0.025765987 0.04688117 0.0032520082 0.022663565
0.07008766 0.022524718 0.03658878 -0.021080418 0.040386714 -0.19294493 -0.17075491 0.015169734
0.09804328 0.1650834 0.12655237 0.18370776 0.048594296 0.11920577 0.10808608 0.03391913
0.07916751 0.07891434 0.07664571 0.07826034 -0.07494404 -0.008653045 -0.11030892 0.10043269
0.10132467 0.09547056 0.07075542 0.083381504 0.031619735 0.05123781 -0.012198246 -0.050025642
-0.10679091 0.11347458 -0.10137239 -0.17444587 -0.15600827 -0.08667916 -0.15405858 0.015265508
-0.028305123 0.078411944 -0.045260835 -0.091012165 0.08345636 -0.090259485 -0.12098658 -0.11089359
0.045409467 -0.13331874 0.016410371 -0.12816815 -0.11019665 -0.10359114 -0.094524704 -0.08234024
00000000: f3f5 d5bd 7f40 9e3d 2259 b33d 56a4 b3bd
00000010: 52f6 a1bd f13a 873b e033 b83c e262 c4bd
00000020: a291 a83d 4a6b 443e a3c0 033e b01d e63d
00000030: 31fe 833d 56a8 263e 2ae1 a83d 98b1 1abd
00000040: d5ec d1bd d36a e9bd 0bf4 9cbe 8cf1 08be
00000050: 013d 4cbb d59f c3bd 6c4d 683c 5b0d 4d3e
00000060: 1553 9f3d 183a 3a3d eca3 b13e 12a1 51be
00000070: 2f95 c7bd 9185 5ebe d971 1abe 20fe d8bd
00000080: f8a7 75be fda3 6fbe 729a 84be 36c9 50be
00000090: 991b 4ebe fa6a 60be 1180 22be bda9 07be
000000a0: 37f2 d0bd 1f63 40be f809 fa3d f15c 233d
000000b0: a276 883c f662 6f3c 6814 253e d0e4 d63d
000000c0: 3f5e c9bd 9600 b1bc 2e01 a43c ebd6 21bb
000000d0: 97a7 943c c8c7 813d 75ae c13e 44df a13e
000000e0: d371 a8bd 7753 373e 73c9 1f3e 61e1 e9bd
000000f0: ae9b 8abd 8163 96be 42e7 02bf aedf 75be
00000100: afb1 5cbe 0cb9 cabc b76d 5d3d 0e88 593d
00000110: da6a 723c e9eb f93d 8a9f 1abd aefb f63d
00000120: 87e7 ee3d 19d8 bc3d 61e3 953d 3ecd 01bd
00000130: 161e 88bc 704b d63c 492d d0bd 8625 d13d
00000140: 1048 ebbd 64d6 703e fa94 4b3e ddd7 923d
00000150: 3312 8dbd 4122 adbd 0b77 6e3c 34cb 10bd
00000160: 42ec debd 399e 003d 9ef7 5c3b 961e c53c
00000170: 4ad8 c23c 1b2e 9a3d 16b0 933d c66f 07bd
00000180: 16f4 623c c47d 30bc 8d0e e73a 8975 35be
00000190: d3bd 8fbe 2cec 51be 7489 4cbe 0894 02be
000001a0: 384b 66bd 805f 13be 11fd af3c 2f52 18bd
000001b0: 7dad 023e 1e63 9fbd 0eed dfbc 0572 18bd
000001c0: 8936 2abe 406d e3bd ab61 a43d 0a44 033e
000001d0: c259 48bc fa3f 663e b3d4 013e b532 643e
000001e0: 150b a03d e6d0 d13d 2800 c53d 048c 353e
000001f0: 74c7 353c 78a9 9c3d af9d a8be 0fbe 56be
00000200: 5697 38be 8f9b 98be bdc5 a5be 599d f9bd
00000210: 39b5 84bd c535 89bd 55a9 82bd 7018 99bd
00000220: 1130 0d3d 1f3f 913c d7d1 92bd fabe dfbd
00000230: c3d5 e2bb 4bc4 83bd 8d60 b5bc a511 0d3c
00000240: d0b8 073d 345f c53d 247c 253d 9e42 40bd
00000250: c004 a83d ae50 203d c54c b2bd 6ddd 733d
00000260: 85da 873d 6171 edbc 2a97 eabd 1269 f43d
00000270: 9a63 a93b 7aa2 5fbc 4227 b8bd dd70 1e3c
00000280: 872d 543c da8b acbd 7f2f 01bd 8d82 c2bc
00000290: e310 1dbc 40d7 2cbe ee2b 42be 81ea b4bc
000002a0: 5ee0 8ebd 675e bfbc be13 ebbc 9ded 13be
000002b0: 3d1e d1bd a5bc 96bd 40bd d4bd e91f 11be
000002c0: 5129 9d3c d5c7 0fbe 728c 553d 2258 543d
000002d0: 012c 6b3d 4ec7 323e a95c 0c3c 8568 203d
000002e0: 5773 133d 9502 8b3d c8d7 803d aa93 65bc
000002f0: a55e a83a f57b 0ebe 690f 0dbc 1a1c 23bd
00000300: e650 933d 883f ea3c 42fb d13d d950 8bba
00000310: 3113 d3bc 7806 403d a51f 553b f1a8 b93c
00000320: 1e8a 8f3d c285 b83c 1ede 153d d7b0 acbc
00000330: 8a6c 253d 5b93 45be 60da 2ebe 7a8a 783c
00000340: eaca c83d 9f0b 293e f296 013e e31d 3c3e
00000350: d00a 473d 2822 f43d 3c5c dd3d c9ee 0a3d
00000360: 9322 a23d d79d a13d 6df8 9c3d f546 a03d
00000370: 437c 99bd 80c5 0dbc a5e9 e1bd a7af cd3d
00000380: 4f83 cf3d 1286 c33d 38e8 903d ecc3 aa3d
00000390: b283 013d bdde 513d 27db 47bc b0e7 4cbd
000003a0: 31b5 dabd 5c65 e83d 549c cfbd f0a1 32be
000003b0: a2c0 1fbe d884 b1bd 88c1 1dbe 2e1c 7a3c
000003c0: 25e0 e7bc 7196 a03d 6d63 39bd 9664 babd
000003d0: 2beb aa3d f7d9 b8bd d0c7 f7bd 2e1c e3bd
000003e0: 47ff 393d b584 08be 0b6f 863c 833e 03be
000003f0: c8ae e1bd 9727 d4bd 2b96 c1bd 00a2 a8bd

netdown3.COV1.0.conv_i.bias f4 [16]
-0.11616922 -0.17103112 -0.103736944 0.07770805 0.060433324 0.11928356 0.15799297 -0.051779054
0.0046274737 -0.10620455 0.034150235 -0.03924086 0.09322645 -0.019381136 -0.05649534 0.012147347
00000000: 21ea edbd c822 2fbe 0974 d4bd 6625 9f3d
00000010: ef88 773d f04a f43d e9c8 213e 4616 54bd
00000020: 10a2 973b c581 d9bd 1ee1 0b3d 06bb 20bd
00000030: 82ed be3d 30c5 9ebc a867 67bd ab05 473c

netdown4.COV1.0.conv_r.weight f4 [32, 16, 3, 3]
-0.11499825 -0.027721167 -0.04433624 -0.15537873 -0.0574662 -0.15579024 -0.022392714 0.034463696
0.1879019 0.054029472 0.013749324 -0.07424049 0.026163764 -0.09182616 -0.015213187 0.030976864
0.064542815 0.052364808 0.08293455 0.008030904 0.13736998 -0.013999926 -0.10879243 -0.0024842406
0.038311705 -0.09294988 -0.13401124 -0.068405695 -0.024587782 -0.07187415 -0.06254865 -0.012466842
-0.071083926 -0.042985003 -0.015366219 0.07522274 0.00091566285 0.017778974 -0.062327836 -0.043377858
0.051647156 0.024105614 -0.000583512 -0.04226041 0.02478213 0.035551533 -0.024072293 -0.004405079
-7.488383e-05 0.025957944 -0.07082211 -0.06400453 0.04296307 0.0692475 -0.058956955 0.03510127
-0.10258983 -0.036101818 0.042369496 -0.102263816 -0.089631 -0.008622883 -0.041558325 0.22747143
0.043662414 0.13976946 -0.03645886 -0.013271307 -0.10848725 0.10498198 -0.048946064 0.06201433
-0.061728787 -0.030099243 -0.059372652 -0.06975212 0.028008439 0.08205071 -0.04119613 0.07594772
0.026020212 -0.0365116 -0.052375488 -0.083930634 -0.0016670364 -0.04499579 0.0054123364 -0.004883775
0.045208264 0.10982233 -0.06662732 0.021346105 -0.047133405 -0.10214024 -0.021823453 -0.08904693
-0.027430369 -0.053467676 -0.015872741 0.06909974 0.045975886 0.07778318 -0.017667301 0.017265096
-0.054424275 -0.050072074 0.07083166 -0.061803874 -0.0621613 0.024336094 -0.04753302 0.024615517
-0.053059727 0.013342454 0.022712082 0.03558165 0.0033057276 -0.046854705 -0.018675014 -0.11275202
0.024542645 0.022797545 -0.007769479 -0.19132833 -0.088645324 -0.10512968 -0.0904262 0.024721757
-0.0053597186 -0.021706909 -0.05913429 -0.06739808 -0.012080223 0.015439134 0.03929914 -0.101196155
-0.09165715 -0.019572958 0.041142415 -0.051181905 -0.016347833 -0.021782534 -0.014671426 -0.06896244
0.0005255177 0.10123418 0.09993757 -0.21634854 -0.20504579 -0.07206729 0.048922084 0.2674408
0.33242026 -0.15265301 -0.2014081 -0.26631677 -0.1422136 -0.1181624 -0.11525635 0.11065651
0.21360032 0.19005911 0.04969085 -0.00761575 0.07145584 -0.0065474226 -0.018266566 -0.074659556
0.11894438 0.1232799 0.124669716 0.077424526 -0.047635525 -0.034632165 0.08463825 0.0301058
-0.018350778 0.0665222 0.047044158 0.05135153 -0.044919424 0.0141624445 0.044473946 0.025243277
0.091501586 -0.090504214 -0.051472764 0.017028306 0.023259677 -0.014532002 0.0013824725 -0.007187937
-0.0048786364 -0.038145676 -0.06468766 0.013757497 -0.021256827 0.06231978 -0.10794149 -0.032784235
0.1080922 -0.10842742 -0.03810923 0.10472711 -0.08882589 -0.048904967 -0.020746956 0.123310566
-0.052579615 -0.36597592 0.12908782 0.10820431 -0.3717493 0.19205846 0.15064791 0.061559062
-0.04267624 -0.093289316 0.0064079403 -0.019569969 0.007875075 0.023488788 0.030381186 0.025185905
-0.05322071 -0.03238848 -0.192661 -0.26142502 0.17176604 0.006984995 -0.09312085 0.16847578
0.1397115 0.08077294 -0.11910762 -0.026263975 0.036676135 -0.11707766 -0.11263019 -0.017049992
-0.14676309 -0.021502338 -0.022115462 -0.009669992 -0.025835533 0.044080123 -0.09136521 -0.13515899
-0.060393155 -0.14410989 -0.14267212 -0.12172836 0.025699962 0.12830113 0.12604044 -0.06779801
00000000: 3484 ebbd 8017 e3bc eb99 35bd 9a1b 1fbe
00000010: ae61 6bbd 7a87 1fbe ed70 b7bc ce29 0d3d
00000020: 5b69 403e 024e 5d3d d844 613c 660b 98bd
00000030: 6455 d63c 5b0f bcbd bb40 79bc 31c3 fd3c
00000040: 062f 843d 7b7c 563d 97d9 a93d 0e94 033c
00000050: b7aa 0c3e f25f 65bc 91ce debd a4ce 22bb
00000060: bcec 1c3d 825c bebd 3e3a 09be 4918 8cbd
00000070: 516c c9bc c132 93bd 8219 80bd ba41 4cbc
00000080: 7394 91bd 0b11 30bd 98c2 7bbc 610e 9a3d
00000090: 1809 703a 36a5 913c 794b 7fbd fbac 31bd
000000a0: f88b 533d 2379 c53c d4f6 18ba 4019 2dbd
000000b0: e503 cb3c 7c9e 113d 4233 c5bc 7b58 90bb
000000c0: f30a 9db8 c1a5 d43c 2f0b 91bd cf14 83bd
000000d0: 0bfa 2f3d a2d1 8d3d d97c 71bd 59c6 0f3d
000000e0: 9e1a d2bd 80df 13bd a38b 2d3d b16f d1bd
000000f0: 7590 b7bd fe46 0dbc 1039 2abd 45ee 683e
00000100: 5cd7 323d ba1f 0f3e e355 15bd e56f 59bc
00000110: 902e debd cb00 d73d ab7b 48bd bd02 7e3d
00000120: 53d7 7cbd b092 f6bc bd30 73bd 33da 8ebd
00000130: f471 e53c 340a a83d 46bd 28bd 7a8a 9b3d
00000140: 5728 d53c 308d 15bd ae87 56bd d3e3 abbd
00000150: 7680 daba 814d 38bd f859 b13b 1308 a0bb
00000160: 4d2c 393d 88ea e03d e873 88bd 07de ae3c
00000170: f50e 41bd e72e d1bd 19c7 b2bc 3d5e b6bd
00000180: a7b5 e0bc ec00 5bbd 8d07 82bc 2a84 8d3d
00000190: 3651 3c3d ca4c 9f3d 04bb 90bc 886f 8d3c
000001a0: fdeb 5ebd 6018 4dbd 3010 913d 0f26 7dbd
000001b0: d99c 7ebd 7d5c c73c fcb1 42bd 7ba6 c93c
000001c0: 2855 59bd 4f9a 5a3c b00e ba3c 10be 113d
000001d0: e8a4 583b b8ea 3fbd 58fc 98bc 88ea e6bd
000001e0: a80d c93c ebc1 ba3c 1d97 febb 93eb 43be
000001f0: ae8b b5bd 3b4e d7bd 5f31 b9bd 4885 ca3c
00000200: 94a0 afbb b0d2 b1bc cc36 72bd 0108 8abd
00000210: 21ec 45bc 6cf4 7c3c 23f8 203d ee3f cfbd
00000220: beb6 bbbd 7857 a0bc f384 283d 1ea4 51bd
00000230: e4eb 85bc 4971 b2bc 6c60 70bc 2e3c 8dbd
00000240: e5c2 093a de53 cf3d 12ac cc3d 798a 5dbe
00000250: 86f7 51be 0498 93bd 8662 483d 00ee 883e
00000260: fd32 aa3e 1251 1cbe ed3d 4ebe ac5a 88be
00000270: 71a0 11be 21ff f1bd 850b ecbd e19f e23d
00000280: 0bba 5a3e db9e 423e a288 4b3d 8b8d f9bb
00000290: 7057 923d c38b d6bb c4a3 95bc 1ce7 98bd
000002a0: 1c99 f33d 2c7a fc3d d652 ff3d c090 9e3d
000002b0: 781d 43bd 75da 0dbd d256 ad3d 70a0 f63c
000002c0: 5f54 96bc cb3c 883d 60b1 403d fb55 523d
000002d0: 6efd 37bd 9909 683c 502a 363d fdca ce3c
000002e0: 2f65 bb3d 465a b9bd 1bd5 52bd f27e 8b3c
000002f0: 148b be3c a217 6ebc 1434 b53a c988 ebbb
00000300: f8dc 9fbb a43e 1cbd f77a 84bd 2067 613c
00000310: cc22 aebc 0743 7f3d 6e10 ddbd c348 06bd
00000320: 715f dd3d 320f debd 6d18 1cbd 2b7b d63d
00000330: 59ea b5bd 9350 48bd 85f5 a9bc 408a fc3d
00000340: b95d 57bd 3261 bbbe 992f 043e 399a dd3d
00000350: ed55 bebe f9aa 443e 7243 1a3e 5b25 7c3d
00000360: 48cd 2ebd 780e bfbd b3f9 d13b 3351 a0bc
00000370: 7506 013c 8f6b c03c f7e1 f83c ac52 ce3c
00000380: f6fd 59bd c8a9 04bd ed48 45be 80d9 85be
00000390: 70e3 2f3e 63e2 e43b 25b6 bebd ea84 2c3e
000003a0: 8810 0f3e 486c a53d b2ee f3bd 8c27 d7bc
000003b0: b739 163d 6ac6 efbd a8aa e6bd 6dac 8bbc
000003c0: 1049 16be ac25 b0bc 7c2b b5bc e36e 1ebc
000003d0: 0aa5 d3bc 5c8d 343d af1d bbbd 1e67 0abe
000003e0: d05e 77bd 8b91 13be a418 12be b84c f9bd
000003f0: ba88 d23c 5f61 033e bf10 013e afd9 8abd

netdown4.COV1.0.conv_r.bias f4 [32]
-0.21659693 -0.07140178 0.032950457 0.020805126 -0.13232377 -0.2771956 -0.12982883 -0.039068535
0.11347455 -0.04179718 0.0861573 -0.13758282 -0.012583172 -0.015670214 -0.062465206 -0.0989281
-0.038436223 0.12309189 -0.1810342 0.04594324 0.03198346 -0.07425753 -0.0500409 0.10063211
0.01323136 0.16714318 0.008060315 -0.24456488 -0.12962416 -0.17803524 -0.114837006 0.014715257
00000000: 96cb 5dbe 193b 92bd 0ff7 063d 836f aa3c
00000010: e27f 07be 95ec 8dbe d9f1 04be 5406 20bd
00000020: 5865 e83d 8533 2bbd 3d73 b03d 83e2 0cbe
00000030: a629 4ebc d25e 80bc 84db 7fbd d19a cabd
00000040: 4d6f 1dbd 9a17 fc3d 0861 39be fb2e 3c3d
00000050: 1701 033d 5514 98bd b0f7 4cbd 3518 ce3d
00000060: 59c8 583c 9527 2b3e 690f 043c 376f 7abe
00000070: 32bc 04be df4e 36be aa2f ebbd 4318 713c

netdown4.COV1.0.conv_i.weight f4 [32, 16, 3, 3]
-0.055417057 -0.03761932 0.027852107 -0.003864074 -0.038220715 0.05789519 -0.018611325 0.013730819
-0.053094238 -0.003845218 0.052007973 -0.10590021 0.0071441736 0.093355045 0.0037496865 -0.0816153
0.03120384 0.00083362794 0.0051112077 -0.008570419 -0.0070486777 0.004259419 -0.09969886 -0.036709502
-0.09769576 0.007605029 0.02067347 0.070452735 0.0049624206 0.036443193 0.058880664 0.007226315
-0.05158469 0.030902982 0.013092885 0.021061469 -0.053944275 -0.0015941163 0.046429835 0.0038006906
-0.009420904 -0.0651866 0.052743644 -0.034399718 -0.056098264 0.04371725 -0.0029345227 0.031094318
-0.03427748 -0.081166446 -0.03055092 0.036231175 0.07081125 0.05494896 0.29065105 0.12191312
0.31819957 0.056499474 0.10862068 0.1454754 0.14882818 -0.050816406 0.006123956 0.06776473
0.11744208 0.18774614 -0.06233908 -0.027426176 -0.06653718 0.019835483 0.023769675 0.09118789
-0.03461683 -0.07060775 -0.021836357 0.069098 -0.0070599583 -0.014112588 0.0021030866 -0.024194654
-0.064478375 0.06670783 -0.007708097 -0.008246438 -0.10502534 0.023027994 0.047022577 -0.06838878
0.070745006 -0.021860177 -0.12336344 0.01382574 -0.07677689 -0.07191978 -0.13162833 -0.142364
0.018500011 0.06142039 0.05372829 0.07665607 0.07728848 0.09750272 0.040331516 -0.033902496
0.1286738 0.033700038 0.04994235 0.08630889 -0.10408116 -0.07832421 -0.1573405 0.101135254
0.057178415 -0.15804744 0.2284508 0.329537 0.33591515 0.043864865 0.05835047 -0.05044695
-0.05739895 -0.020152165 0.065751016 0.0013703493 -0.08060967 0.005713149 0.0030672995 -0.019433074
-0.057794645 0.0762703 0.007486586 -0.03582304 0.013160707 -0.006098672 0.13360518 0.03436054
0.14129387 0.088166535 0.04515826 0.16341631 0.18512218 0.16088563 0.13187134 0.24079779
0.04497547 0.12727691 0.09987391 -0.14027786 -0.036606897 0.0030956902 -0.030683855 -0.059764743
0.05105171 0.0031635237 -0.010593813 -0.15818532 0.07577319 0.0737404 -0.012646149 -0.047800675
0.074214526 0.060305472 -0.0828314 -0.22417302 -0.22084993 0.013610289 -0.025639128 0.015549872
0.087105595 0.23836154 0.30586284 -0.002343755 0.013440201 -0.025235582 0.029608957 0.024624875
0.015510281 -0.0014315133 -0.037420787 -0.073285505 -0.11799021 -0.040134728 -0.023443215 -0.06460423
-0.093758374 0.06408059 0.050697684 0.100713916 0.1690712 0.030952943 0.032639083 -0.004973612
0.030363793 -0.042042904 0.0326216 -0.013226117 -0.039106876 -0.029767497 0.22394855 0.3655088
0.35024303 -0.00912473 0.1721964 0.25550464 -0.34181607 -0.30930895 -0.17346206 -0.06759046
0.25355342 0.2276684 -0.23078056 0.15944074 0.011167688 -0.011633883 0.08465257 0.03340568
-0.090139106 -0.06715001 -0.06259888 0.046925735 -0.09759037 -0.070458785 -0.034298275 -0.0713778
0.010288821 0.005489381 0.111994594 -0.028780522 0.007052692 -0.014425118 0.059020977 -0.111419864
-0.15640497 -0.02683738 0.020786723 0.114716895 0.101543106 0.090262 0.0698342 0.07040693
0.09980907 0.17259482 0.28936625 0.16615446 0.12065195 0.21992439 0.031736534 -0.032786887
-0.049240645 0.1762375 0.25669223 0.25806072 0.120106846 0.13198675 0.118532375 0.12914851
00000000: fffc 62bd b716 1abd 1a2a e43c 673c 7dbb
00000010: 538d 1cbd 8223 6d3d c776 98bc 3bf7 603c
00000020: 5879 59bd 0e00 7cbb 5006 553d 36e2 d8bd
00000030: ac19 ea3b ee30 bf3d 4dbd 753b ec25 a7bd
00000040: 329f ff3c d387 5a3a eb7b a73b f16a 0cbc
00000050: 98f8 e6bb 9992 8b3b ea2e ccbd b45c 16bd
00000060: b714 c8bd 9b33 f93b 695b a93c 8649 903d
00000070: cd9b a23b 7545 153d da2c 713d b9ca ec3b
00000080: 784a 53bd 4028 fd3c 8a83 563c 1a89 ac3c
00000090: acf4 5cbd abf1 d0ba 362d 3e3d 0215 793b
000000a0: 235a 1abc 8d80 85bd b809 583d b8e6 0cbd
000000b0: 4bc7 65bd dc10 333d 1f51 40bb 83b9 fe3c
000000c0: 8b66 0cbd 983a a6bd ec45 fabc 2467 143d
000000d0: 7d05 913d 2912 613d 37d0 943e 96ad f93d
000000e0: 0eeb a23e fe6b 673d 8574 de3d 81f7 143e
000000f0: 6a66 183e dd24 50bd 77ab c83b 3cc8 8a3d
00000100: 7985 f03d 8640 403e 4357 7fbd dcac e0bc
00000110: a544 88bd 067e a23c 9fb8 c23c b7c0 ba3d
00000120: 61ca 0dbd cc9a 90bd 29e2 b2bc 4183 8d3d
00000130: 3957 e7bb 7c38 67bc f0d3 093b de33 c6bc
00000140: 3d0d 84bd 1d9e 883d 3494 fcbb 111c 07bc
00000150: 8717 d7bd 34a5 bc3c bf9a 403d 6b0f 8cbd
00000160: c2e2 903d 1d14 b3bc f9a5 fcbd 5b85 623c
00000170: 343d 9dbd ad4a 93bd 94c9 06be dec7 11be
00000180: 568d 973c f293 7b3d 3212 5c3d dcfd 9c3d
00000190: 6c49 9e3d 82af c73d a932 253d 58dd 0abd
000001a0: 11c3 033e 0d09 0a3d 5990 4c3d b7c2 b03d
000001b0: 8128 d5bd 7268 a0bd de1d 21be 0020 cf3d
000001c0: ea33 6a3d 30d7 21be 02ef 693e 13b9 a83e
000001d0: 12fd ab3e a5ab 333d e700 6f3d 76a1 4ebd
000001e0: 291b 6bbd 2716 a5bc 78a8 863d 4b9d b33a
000001f0: af16 a5bd 5e35 bb3b bf04 493b 1c32 9fbc
00000200: 14ba 6cbd 9a33 9c3d 0952 f53b 2ebb 12bd
00000210: 02a0 573c 5ed7 c7bb cccf 083e a3bd 0c3d
00000220: 57af 103e a890 b43d def7 383d 9b56 273e
00000230: ab90 3d3e 34bf 243e 4809 073e b293 763e
00000240: 3338 383d e154 023e b18a cc3d 00a5 0fbe
00000250: 1df1 15bd 10e1 4a3b b55c fbbc e0cb 74bd
00000260: 991b 513d 1f53 4f3b ac91 2dbc 55fb 21be
00000270: f92e 9b3d 3505 973d cb31 4fbc a4ca 43bd
00000280: c9fd 973d df02 773d 82a3 a9bd 9d8d 65be
00000290: 7c26 62be b1fd 5e3c 2609 d2bc e4c4 7e3c
000002a0: 6b64 b23d 0c15 743e 0e9a 9c3e af99 19bb
000002b0: 4a34 5c3c daba cebc 7c8e f23c 1bba c93c
000002c0: d51e 7e3c 9ea1 bbba 8a46 19bd b616 96bd
000002d0: daa4 f1bd 5064 24bd fc0b c0bc 394f 84bd
000002e0: 6404 c0bd af3c 833d 60a8 4f3d 1943 ce3d
000002f0: 0021 2d3e 0791 fd3c 8fb0 053d aef9 a2bb
00000300: 7dbd f83c 2e35 2cbd 3a9e 053d 5bb2 58bc
00000310: 882e 20bd f7da f3bc c552 653e f823 bb3e
00000320: 0e53 b33e e47f 15bc 4154 303e 81d1 823e
00000330: 8402 afbe be5d 9ebe 0aa0 31be de6c 8abd
00000340: c1d1 813e e821 693e bd51 6cbe 6f44 233e
00000350: aef8 363c 0b9c 3ebc 545e ad3d 65d4 083d
00000360: da9a b8bd f285 89bd d733 80bd 3335 403d
00000370: 76dd c7bd b24c 90bd 597c 0cbd 862e 92bd
00000380: 7192 283c 44e0 b33b 6c5d e53d 21c5 ebbc
00000390: 451a e73b 5557 6cbc fbbf 713d 1930 e4bd
000003a0: a028 20be 11da dbbc eb48 aa3c b1f0 ea3d
000003b0: d5f5 cf3d 49db b83d 3c05 8f3d 8231 903d
000003c0: b368 cc3d b2bc 303e d027 943e 6524 2a3e
000003d0: 5f18 f73d dc33 613e 2bfe 013d 8b4b 06bd
000003e0: 8fb0 49bd 9a77 343e 2a6d 833e 8920 843e
000003f0: 94fa f53d 8927 073e 1ac1 f23d 823f 043e

netdown4.COV1.0.conv_i.bias f4 [32]
0.09080462 -0.030589642 0.10238776 -0.021949803 0.034076817 -0.0035212056 0.022015858 0.061509088
0.120285906 0.047443636 -0.04942693 0.004324923 0.02147144 -0.09575712 0.1251646 0.05376763
0.12643999 0.21914294 -0.037873648 -0.07374407 0.0805046 -0.100761466 -0.023360748 0.22894353
0.10570945 -0.1081243 -0.05894891 0.07769222 0.06213764 0.03146496 -0.019039443 -0.06074119
00000000: c6f7 b93d 2197 fabc adb0 d13d 13d0 b3bc
00000010: 2294 0b3d 07c4 66bb 9a5a b43c f4f0 7b3d
00000020: 7558 f63d 4254 423d e473 4abd 15b8 8d3b
00000030: e0e4 af3c 4f1c c4bd 262b 003e 723b 5c3d
00000040: 7c79 013e 0267 603e 6621 1bbd 2207 97bd
00000050: 99df a43d 075c cebd 0a5f bfbc 2c70 6a3e
00000060: 327e d83d 4670 ddbd 6a74 71bd 191d 9f3d
00000070: 0a84 7e3d 67e1 003d 9bf8 9bbc c1cb 78bd

netup4.COV1.0.conv_tran_r.weight f4 [32, 16, 4, 4]
-0.027307428 -0.08422119 -0.095574126 -0.06999361 -0.119682185 -0.15875433 -0.0050835297 -0.08562916
0.13122042 0.2232347 0.035841983 0.058030676 0.1210935 0.02537215 0.048841473 -0.046588525
-0.028828079 -0.21584952 -0.06573363 -0.08464098 0.15343769 -0.036402166 0.015256865 0.011357212
0.08367448 -0.03033007 0.042729154 0.08178857 0.11300055 0.057786692 0.08784098 0.021299873
-0.04904328 -0.0012723085 -0.0405315 0.015347656 0.0014462363 0.021268096 0.0059057996 -0.013000131
-0.023116246 0.06303564 0.016271425 -0.018800078 -0.0069093253 0.037947737 0.03943256 0.0007791188
-0.040303312 -0.21724392 0.009808845 0.048038293 0.124466516 0.05164877 0.038644113 -0.047326878
0.011687411 0.00075339334 0.085816994 0.053009525 -0.015246222 0.037578538 -0.027274748 -0.001789696
-0.024270225 -0.08901273 -0.103603385 -0.04375612 -0.015578868 -0.031586837 0.035806406 -0.124028735
-0.05869721 -0.046719242 -0.043759838 -0.086192496 0.08976041 -0.069057114 0.034362417 -0.1023891
-0.003302447 -0.02432043 0.006361648 -0.039647866 -0.10716275 -0.009191095 0.087848626 -0.061540294
0.17883025 0.2268101 0.2456395 0.04969749 -0.037537873 -0.028319433 0.06159987 0.009636181
0.16205083 -0.012712719 -0.116915196 0.062141676 0.026463911 -0.028761534 0.09987725 -0.052107487
0.09731632 -0.11955766 0.08615504 0.04456541 -0.100314125 0.033034813 -0.014287347 -0.018787464
0.0003489786 -0.03155994 -0.026471354 -0.049527973 0.0064432076 -0.03422276 -0.041421358 0.038826663
-0.017744042 0.0044221277 -0.011596358 -0.06073196 0.007627375 -0.078018226 -0.03479506 -0.036057297
-0.06726402 0.16742533 0.02360865 -0.039722335 -0.12388813 -0.050925143 0.020821104 -0.07021997
-0.039933383 -0.092259035 -0.15865657 0.008704529 -0.055441495 -0.03218529 -0.07290848 -0.016015517
0.06670512 -0.0130742155 0.0483994 0.119587295 0.0974219 0.04958234 0.094800994 -0.05353389
-0.07793779 -0.05378729 -0.15847313 -0.09379771 0.027529238 -0.055214 -0.033355873 0.017807502
0.05894026 0.08203117 0.1491227 0.050198007 0.05831671 0.040323474 0.08153484 0.104574
0.0017219424 -0.11814663 0.032095477 -0.0067475466 -0.091264926 -0.06450489 -0.035846334 -0.033685606
0.036809478 0.008513065 -0.22170419 0.06327646 -0.060821746 -0.08899541 -0.012712454 0.055267446
-0.09172732 -0.015422564 -0.11016959 0.099676564 0.055211343 -0.022979038 0.038911037 -0.028579073
-0.12030497 0.05595994 -0.16017058 0.056982473 0.024643797 -0.16711994 -0.041087773 0.00553384
0.043390557 -0.070026934 -0.00039136625 -0.14703158 0.08961189 0.23799303 0.14556889 0.13514113
0.011886597 0.07358525 -0.041566066 0.033803105 0.0036780445 0.12376541 0.021763608 0.11624497
0.044129018 0.07130852 0.011229229 0.042119626 -0.033089463 0.04600201 0.07973518 0.0543113
0.028284078 -0.018156845 0.01882742 0.119893625 0.06514414 0.009425882 0.12040884 -0.0039392873
-0.086316295 -0.028955396 -0.11674326 -0.063661896 -0.0978526 0.040764365 -0.0008499739 -0.056069694
-0.055565886 -0.0065843165 -0.026306871 0.027315935 0.027969945 0.06296517 0.085936435 0.01666487
0.0056467396 0.0682101 0.17279302 -0.0944055 -0.037113402 0.022404201 -0.007079656 -0.116381384
00000000: d4b3 dfbc 297c acbd 5ebc c3bd cf58 8fbd
00000010: ef1b f5bd 7f90 22be bd93 a6bb 575e afbd
00000020: a55e 063e a397 643e 0bcf 123d 93b1 6d3d
00000030: deff f73d 41d9 cf3c ff0d 483d 9cd3 3ebd
00000040: dd28 ecbc a807 5dbe 5a9f 86bd 4058 adbd
00000050: c51e 1d3e 701a 15bd eef7 793c 9a13 3a3c
00000060: 875d ab3d c476 f8bc c404 2f3d c480 a73d
00000070: d56c e73d bdb1 6c3d f9e5 b33d 127d ae3c
00000080: 9be1 48bd 97c3 a6ba 5c04 26bd bc74 7b3c
00000090: a38f bd3a 6e3a ae3c 7085 c13b 80fe 54bc
000000a0: 485e bdbc d418 813d a74b 853c 9f02 9abc
000000b0: 9f67 e2bb 166f 1b3d 0984 213d c73d 4c3a
000000c0: 1615 25bd 3175 5ebe 47b5 203c cdc3 443d
000000d0: 4de8 fe3d a98d 533d 4a49 1e3d d4d9 41bd
000000e0: 8e7c 3f3c 5f7f 453a d2c0 af3d 8420 593d
000000f0: 4acb 79bc f4eb 193d 4b6f dfbc 3c94 eaba
00000100: 5ad2 c6bc 4e4c b6bd 032e d4bd 9e39 33bd
00000110: 823e 7fbc 3361 01bd bda9 123d c702 febd
00000120: 7c6c 70bd ad5c 3fbd 843d 33bd b185 b0bd
00000130: 4ed4 b73d d16d 8dbd 9bbf 0c3d 60b1 d1bd
00000140: de6d 58bb a33b c7bc 5f75 d03b cd65 22bd
00000150: 2578 dbbd 3f96 16bc fbe9 b33d ad11 7cbd
00000160: 471f 373e e840 683e ec88 7b3e 988f 4b3d
00000170: 50c1 19bd 28fe e7bc 2550 7c3d 13e1 1d3c
00000180: a7f0 253e 0249 50bc 3c71 efbd 4588 7e3d
00000190: d8ca d83c 4f9d ebbc 728c cc3d a96e 55bd
000001a0: c74d c73d a5da f4bd 0e72 b03d 388a 363d
000001b0: 7e71 cdbd 834f 073d 7a15 6abc 2be8 99bc
000001c0: 1df7 b639 ff44 01bd 74da d8bc d8dd 4abd
000001d0: 8b21 d33b 2a2d 0cbd 71a9 29bd b508 1f3d
000001e0: f45b 91bc 7fe7 903b a7fe 3dbc 13c2 78bd
000001f0: 0fef f93b 05c8 9fbd 4485 0ebd d1b0 13bd
00000200: b8c1 89bd 8c71 2b3e ed66 c13c e3b3 22bd
00000210: 0fb9 fdbd e296 50bd 0591 aa3c 7dcf 8fbd
00000220: 3091 23bd 4ef2 bcbd de76 22be 719d 0e3c
00000230: 9f16 63bd b9d4 03bd 0b51 95bd f932 83bc
00000240: b29c 883d 3c35 56bc 733e 463d 2fea f43d
00000250: 2285 c73d da16 4b3d 0627 c23d 5a46 5bbd
00000260: d99d 9fbd 1050 5cbd c846 22be 0419 c0bd
00000270: ff84 e13c 1328 62bd 2ba0 08bd 0ae1 913c
00000280: 586b 713d f5ff a73d 9fb3 183e 6d9c 4d3d
00000290: 81dd 6e3d 3a2a 253d bdfb a63d e52a d63d
000002a0: cdb2 e13a dcf6 f1bd 8c76 033d 861a ddbb
000002b0: 1be9 babd 241b 84bd 9bd3 12bd ebf9 09bd
000002c0: 89c5 163d 627a 0b3c 6c06 63be 1797 813d
000002d0: 3920 79bd 3a43 b6bd e647 50bc 1e60 623d
000002e0: 88db bbbd ecae 7cbc 98a0 e1bd 3a23 cc3d
000002f0: 4a25 623d 893e bcbc 2e61 1f3d a91e eabc
00000300: 7462 f6bd 4036 653d c203 24be 7466 693d
00000310: cae1 c93c 7d21 2bbe a74b 28bd 3755 b53b
00000320: 4cba 313d 486a 8fbd 4a30 cdb9 728f 16be
00000330: 7086 b73d 72b4 733e 0310 153e 7062 0a3e
00000340: 00c0 423c ddb3 963d 2e41 2abd 2075 0a3d
00000350: 590b 713b b878 fd3d 9849 b23c d811 ee3d
00000360: a1c0 343d 340a 923d cdfa 373c a185 2c3d
00000370: d188 07bd 9b6c 3c3d 334c a33d 8775 5e3d
00000380: 03b4 e73c aabd 94bc f63b 9a3c ca8a f53d
00000390: 4a6a 853d 046f 1a3c e998 f63d 2315 81bb
000003a0: 99c6 b0bd de33 edbc 1717 efbd 2b61 82bd
000003b0: f266 c8bd 89f8 263d c8d0 5eba 56a9 65bd
000003c0: 0e99 63bd 40c1 d7bb 8281 d7bc abc5 df3c
000003d0: 3a21 e53c e2f3 803d 71ff af3d c484 883c
000003e0: 4908 b93b bdb1 8b3d a7f0 303e ac57 c1bd
000003f0: 3904 18bd 0489 b73c 75fc e7bb 5d59 eebd

netup4.COV1.0.conv_tran_r.bias f4 [16]
0.12728316 -0.043076526 -0.12542449 -0.05840962 -0.051999945 0.2251686 -0.20377462 -0.26005146
0.05101231 -0.15210582 -0.07301486 -0.033924084 -0.109788835 -0.15952034 -0.008818213 -0.08283042
00000000: 8456 023e 0371 30bd 476f 00be ed3e 6fbd
00000010: e5fd 54bd 9992 663e 4baa 50be 7725 85be
00000020: 49f2 503d a1c1 1bbe d188 95bd fbf3 0abd
00000030: f8d8 e0bd 4d59 23be 447a 10bc ffa2 a9bd
