CCNN-CGH/CCNN-CGH V1.5/ccnn2.pth (torch, 41309 bytes, 22 tensors)

netdown1.COV1.0.conv_r.weight f4 [4, 1, 3, 3]
0	0xbe36c35a	-0.17847958
1	0xbddf9603	-0.10917284
2	0xbe500468	-0.20314181
3	0x3d48f1c4	0.04905869
4	0x3d233f5e	0.039855354
5	0xbe952673	-0.29130897
6	0xbe5f5e2c	-0.21813267
7	0xbe34c630	-0.17653728
8	0xbe20a95c	-0.15689605
9	0xbe3d5739	-0.18490304
10	0x3db6075f	0.08888125
11	0x3e7290ce	0.23688051
12	0xbb927880	-0.004469931
13	0x3db051cd	0.08609352
14	0xbdb822c1	-0.08991004
15	0xbdd9886e	-0.10621725
16	0xbea04054	-0.31299078
17	0x3d29c040	0.04144311
18	0xbc1f9182	-0.009739282
19	0xbdd05c67	-0.10173874
20	0xbe4275fe	-0.18990323
21	0xbcbcdae9	-0.023053603
22	0x3ec82f93	0.39098796
23	0xbe460481	-0.19337656
24	0xbd9852ce	-0.07437669
25	0xbe842af7	-0.2581403
26	0x3e38e770	0.18057036
27	0x3e20149b	0.1563286
28	0xbe1f1e4f	-0.15538906
29	0xbe03fe3f	-0.12889956
30	0x3c274895	0.010210176
31	0xbd67a684	-0.056555286
32	0xbd82319a	-0.06357117
33	0xbd276ccc	-0.04087524
34	0x3e967b32	0.29390866
35	0xbe8c40cb	-0.27393183

netdown1.COV1.0.conv_r.bias f4 [4]
0	0xbea49a35	-0.321489
1	0xbd94b4fc	-0.072610825
2	0x3db26fa1	0.08712698
3	0x3e64fdff	0.22362517

netdown1.COV1.0.conv_i.weight f4 [4, 1, 3, 3]
0	0x3dccc501	0.09998513
1	0x3e5922ee	0.21204731
2	0xbd13f47d	-0.036121834
3	0xbe6baf11	-0.23016001
4	0xbe2c5e3b	-0.16832821
5	0x3da823f3	0.08209982
6	0xbd95f65a	-0.073223785
7	0x3df2f383	0.118628524
8	0xbe9d7afc	-0.30757892
9	0xbd8d378e	-0.06895362
10	0xbeb1333c	-0.346094
11	0x3d9f1eb7	0.0776953
12	0xbee39a95	-0.44453874
13	0x3eb9a40c	0.3625797
14	0x3e02f71e	0.1278958
15	0x3e3db7a3	0.18527083
16	0xbe5c1f5a	-0.21496335
17	0xbd6f1b5e	-0.05837571
18	0xbd2f5549	-0.042805944
19	0xbc424111	-0.011856333
20	0x3a39c32f	0.00070862746
21	0xbe0b0d7a	-0.1357936
22	0xbe460255	-0.19336827
23	0x3ecaf975	0.39643446
24	0x3ea50d09	0.32236508
25	0xbe308fc0	-0.17242336
26	0x3def68e8	0.11689931
27	0xbe31d47b	-0.17366211
28	0xbedabbdc	-0.4272145
29	0xbdb43911	-0.08799947
30	0xbe055e6d	-0.13024302
31	0xbd01e8ad	-0.031716038
32	0x3eaff32e	0.3436522
33	0xbcd73a5c	-0.026272945
34	0x3e0091fd	0.1255569
35	0xbed85303	-0.42250833

netdown1.COV1.0.conv_i.bias f4 [4]
0	0xbe9f74bd	-0.31143752
1	0x3e2916bf	0.16512583
2	0xbe699f6f	-0.22814725
3	0x3d6c9c03	0.057765972

netdown2.COV1.0.conv_r.weight f4 [8, 4, 3, 3]
0	0xbe3934af	-0.18086503
1	0xbe4467f0	-0.19180274
2	0xbcb5ff09	-0.022216337
3	0xbe019a14	-0.12656432
4	0x3c254822	0.010087999
5	0x3d8ae9fe	0.06782912
6	0xbe1a3f3a	-0.15063182
7	0xbc285c34	-0.010275889
8	0xbc52c31d	-0.012863901
9	0xbd2d722c	-0.04234521
10	0x3c711284	0.014713887
11	0xbd638207	-0.055543926
12	0x3de14c52	0.11000885
13	0x3e55cdca	0.20879284
14	0xbcd82414	-0.02638439
15	0xbb26ada7	-0.0025433095
16	0xbcc433a6	-0.02395041
17	0xbda43de2	-0.08019616
18	0xbdc78e4f	-0.0974394
19	0xbe846e71	-0.2586551
20	0xbdc78086	-0.09741311
21	0xbc7c8309	-0.015412101
22	0x3e7afeff	0.24511336
23	0x3e98e399	0.29861143
24	0xbd01c793	-0.03168447
25	0xbea919db	-0.3302754
26	0xbde77f37	-0.11303561
27	0x3c440e48	0.011966296
28	0x3e955798	0.2916839
29	0x3e3b4bc3	0.1829062
30	0x3e92913a	0.28626424
31	0x3ecd066b	0.4004396
32	0x3ecaa838	0.39581466
33	0xbd9dd19a	-0.07705994
34	0xbc2ebf97	-0.010665796
35	0xbe4ece74	-0.20195943
36	0xbd9c9b02	-0.07646753
37	0x3d532a2a	0.051553883
38	0x3df960aa	0.1217664
39	0xbd5ac7c8	-0.053413182
40	0x3caa226b	0.020768365
41	0xbda2a476	-0.07941525
42	0x3d3eea7f	0.04661035
43	0xbd5fa780	-0.0546031
44	0x3e1a0ab2	0.15043142
45	0xbc7b42b4	-0.0153357275
46	0xbb8c3255	-0.004278461
47	0x3e156cb7	0.14592253
48	0x3d504346	0.050845407
49	0xbe9d937f	-0.30776593
50	0xbed5f824	-0.4179088
51	0xbcd59597	-0.026072307
52	0xbec088cc	-0.37604368
53	0xbee6c938	-0.45075393
54	0xbd96c86d	-0.07362447
55	0xbc83a3c3	-0.016069299
56	0x3bd945d4	0.0066306386
57	0xbdb664c8	-0.08905941
58	0xbe6be318	-0.23035848
59	0xbe3ae1fb	-0.18250267
60	0x3e577bfe	0.21043393
61	0x3d035cb8	0.032070845
62	0xbe52c116	-0.20581469
63	0x3d7f9099	0.06239376
64	0xbc882f00	-0.016623974
65	0x3cdf1695	0.027232448
66	0x3d44efae	0.04808014
67	0x3c77e5ab	0.015130441
68	0xbd0c8261	-0.034304027
69	0x3dfb055d	0.12256882
70	0x3e6dc90c	0.23221225
71	0xbdb5e015	-0.08880631
72	0x3c88f25d	0.01671713
73	0x3e256bf8	0.16154468
74	0x3d9b4ec9	0.075833865
75	0xbdcf7408	-0.10129553
76	0x3e8fcb52	0.2808481
77	0xbe804417	-0.25051948
78	0xbe67783f	-0.22604464
79	0x3e19e0fe	0.15027234
80	0xbe20e017	-0.15710483
81	0xbd51941d	-0.051166642
82	0x3d6b832a	0.057498135
83	0xbe111bb5	-0.14170726
84	0xbd1c19d0	-0.038110554
85	0xbe1e463b	-0.15456478
86	0xbe027506	-0.12739953
87	0xbe04f7ce	-0.12985155
88	0xbddf18db	-0.10893413
89	0xbd20c488	-0.039249927
90	0x3c1fea28	0.009760417
91	0xbde73d29	-0.11290962
92	0x3d844cc8	0.06459957
93	0x3ce3e46b	0.02781888
94	0x3b5e05d6	0.003387799
95	0x3e51be2d	0.20482703
96	0xbdd975f0	-0.10618198
97	0xbb166f34	-0.0022954466
98	0x3ddc040d	0.1074296
99	0xbd36cd70	-0.044629514
100	0xbdeda19f	-0.116030924
101	0xbe1e9fa5	-0.15490587
102	0xbd156ad9	-0.03647885
103	0xbdc9470a	-0.09828003
104	0x3d75e501	0.06003285
105	0xbd9811b1	-0.07425249
106	0xbe38c9cd	-0.18045731
107	0x3cd7b457	0.02633111
108	0x3e1a77e5	0.15084799
109	0x3e482acf	0.1954758
110	0x3d0f688b	0.03501181
111	0x3e11801a	0.14209023
112	0x3d392d02	0.04520894
113	0xbe3039ca	-0.17209545
114	0x3e113c93	0.14183263
115	0x3d903f42	0.070433155
116	0x3dcb806a	0.099366024
117	0x3ddd60c5	0.10809473
118	0x3d8e2db7	0.06942313
119	0xbd4fa79a	-0.050696947
120	0xbd3064af	-0.04306477
121	0xbe5c9abe	-0.21543404
122	0xbdfa85c1	-0.12232543
123	0xbd24a544	-0.040196672
124	0x3e438597	0.19093929
125	0x3d420dec	0.04737656
126	0xbcc5c269	-0.024140554
127	0x3d401955	0.04689916
128	0xbe0475b1	-0.1293552
129	0xbe18b068	-0.14911044
130	0xbdf97fbc	-0.121825665
131	0x3c574465	0.013138865
132	0x3baaf62f	0.0052173357
133	0xbd815854	-0.063156754
134	0xbe0f17be	-0.139739
135	0x3d08185b	0.033226352
136	0x3e5aca52	0.21366242
137	0x3ce3c15a	0.027802158
138	0xbc95b14b	-0.018273016
139	0x3cfb26b8	0.030658111
140	0x3d9ac1ea	0.075565174
141	0xbda7d0b6	-0.08194105
142	0xbe10460e	-0.14089224
143	0xbdfe0ff2	-0.12405385
144	0xbe27836f	-0.16358732
145	0xbe42bd53	-0.19017534
146	0xbe7461e2	-0.23865464
147	0x3e3df34a	0.18549839
148	0x3ddbcd04	0.10732463
149	0xbda5c9b8	-0.080951154
150	0x3e82610f	0.25464675
151	0x3e300772	0.1719034
152	0xbcd0ab2d	-0.025472248
153	0xbcf5faf9	-0.0300269
154	0xbe244f82	-0.16045955
155	0xbdb0f629	-0.08640701
156	0x3d7f4415	0.062320787
157	0x3dffe85d	0.12495492
158	0xbdf1ae0f	-0.11800777
159	0x3d175f62	0.0369562
160	0x3e32816f	0.17432187
161	0xbd7bfa69	-0.061518107
162	0xbbaf511f	-0.0053502466
163	0xbd252e7e	-0.04032754
164	0x3cb3adf7	0.021933539
165	0xbd135eb4	-0.035978988
166	0xbe10d3d3	-0.14143305
167	0xbdfac169	-0.12243921
168	0x3c25d41b	0.010121371
169	0xbd882451	-0.06647552
170	0xbcf23bb4	-0.029569484
171	0xbe1ae47d	-0.15126224
172	0xbcc64514	-0.02420286
173	0x3dbec4a5	0.09314851
174	0x3b40f7cf	0.002944458
175	0xbe049500	-0.12947464
176	0xbdcf288f	-0.10115158
177	0xbe5f492b	-0.21805255
178	0xbe03f01f	-0.12884568
179	0xbded922d	-0.116001464
180	0xbdba219f	-0.09088444
181	0xbdb3cca6	-0.08779268
182	0xbe9b1be8	-0.30294728
183	0xbe7afc15	-0.24510224
184	0xbd088b3d	-0.033335913
185	0xbe72ead3	-0.23722391
186	0xbe65a5be	-0.22426507
187	0x3e19ccef	0.15019582
188	0xbe0a9a3d	-0.135354
189	0x3e1969e5	0.14981802
190	0x3e1904b1	0.14943196
191	0x3d854da6	0.06508951
192	0xbd11e92c	-0.03562276
193	0xbeb16a00	-0.34651184
194	0xbf3175f3	-0.693206
195	0x3e399f95	0.18127282
196	0xbef2cfa6	-0.47424048
197	0xbfaca452	-1.3487647
198	0xbd754732	-0.05988235
199	0x3c525d7d	0.012839672
200	0x3d5714ac	0.05250995
201	0xbd731065	-0.059341807
202	0xbe20ab7a	-0.15690413
203	0xbe3f5a6e	-0.1868684
204	0xbdbde8f8	-0.09272951
205	0xbe575132	-0.21027067
206	0xbd820723	-0.063490175
207	0x3c94206c	0.018081866
208	0x3e1eff08	0.15526974
209	0xbd7760a1	-0.060394887
210	0x3cac213d	0.021011943
211	0x3de717c1	0.112838276
212	0x3d7805c2	0.060552366
213	0xbbd91b7b	-0.0066255904
214	0x3ed7654d	0.42069474
215	0x3e468137	0.19385229
216	0xbb02c643	-0.00199546
217	0xbc8b9101	-0.017036917
218	0x3e7f054e	0.24904367
219	0x3db90cdd	0.090356566
220	0xbe944eea	-0.28966457
221	0x3e21c41f	0.1579747
222	0xbdede208	-0.11615378
223	0xbc30e2f4	-0.010796297
224	0x3d9074f3	0.07053556
225	0xbd1ee719	-0.03879461
226	0x3cee7f65	0.02911348
227	0xbd12526c	-0.035723135
228	0x3cef0b20	0.02918011
229	0x3c4ee148	0.012626953
230	0xbe719559	-0.23592128
231	0x3c859ea3	0.016310995
232	0x3e68db8a	0.22739998
233	0xbe2baf66	-0.16766128
234	0x3db55797	0.08854597
235	0x3d15c7b0	0.03656739
236	0xbd9ccd34	-0.07656327
237	0x3c80087b	0.015629044
238	0xbe13e6ce	-0.14443514
239	0x3c987525	0.018610546
240	0x3d9cfda5	0.07665566
241	0xbe38427a	-0.17994109
242	0xbcc43bb3	-0.023954248
243	0xbc607fbb	-0.013702328
244	0x3c67de85	0.014152174
245	0xbd098061	-0.033569697
246	0x3e160072	0.14648607
247	0xbdc26553	-0.09491982
248	0xbdc39c22	-0.09551264
249	0x3dd0b31a	0.10190411
250	0xbd9f798b	-0.07786854
251	0x3d739621	0.059469346
252	0x3c8d91e6	0.017281484
253	0xbe3a656d	-0.18202753
254	0xbd46cf5b	-0.048537593
255	0x3d7c81df	0.061647292

netdown2.COV1.0.conv_r.bias f4 [8]
0	0xbe1673fe	-0.14692685
1	0x3e403c0d	0.18772908
2	0x3e11bba6	0.14231738
3	0x3e53259a	0.20619813
4	0x3e09b300	0.1344719
5	0xbe0b499c	-0.13602298
6	0x3dae16d3	0.08500447
7	0xbeb4c7e3	-0.3530875

netdown2.COV1.0.conv_i.weight f4 [8, 4, 3, 3]
0	0x3d60c12b	0.05487172
1	0x3e1181af	0.14209627
2	0x3d864ee2	0.065580145
3	0x3dfc708c	0.12326154
4	0x3f0e6b16	0.5563215
5	0x3e6ad9ba	0.22934619
6	0xbe3ac180	-0.18237877
7	0x3e249f0f	0.16076301
8	0x3c3428cd	0.010996056
9	0xbc5c53b8	-0.0134476945
10	0x3e2fd340	0.17170429
11	0xbdcbb8c7	-0.09947353
12	0xbd0f1694	-0.03493364
13	0x3e7b2d47	0.2452899
14	0x3ddba7bb	0.107253514
15	0xbe2764fa	-0.16347113
16	0x3e6dd6fd	0.23226543
17	0x3e9b5229	0.3033612
18	0x3ccb8707	0.02484466
19	0xbc1daad3	-0.009623247
20	0xbd6e0ccf	-0.058117684
21	0x3d0461ce	0.032319836
22	0xbddb8a91	-0.10719789
23	0xbdc38982	-0.09547712
24	0xbc53a3ed	-0.012917501
25	0xbc99dda3	-0.018782442
26	0x3d193211	0.037401263
27	0xbd84a624	-0.06477001
28	0xbd9ac1a5	-0.07556466
29	0xbd7b01eb	-0.061281126
30	0x3cd0c8ae	0.025486317
31	0x3de312d9	0.11087579
32	0x3e8b1879	0.2716711
33	0xbda45e0c	-0.080257505
34	0xbe4d942e	-0.20076057
35	0xbdfbe358	-0.12299222
36	0xbd05674b	-0.03256921
37	0x3c904340	0.017610192
38	0x3e096e84	0.13421065
39	0xbdf52384	-0.11969665
40	0xbe9c8fd6	-0.30578488
41	0x3de7f71a	0.11326428
42	0xbd3fdf10	-0.04684359
43	0xbe8456a8	-0.25847363
44	0xbd5e490b	-0.054268878
45	0xbc8eb06a	-0.017418105
46	0xbd79580c	-0.060874984
47	0xbddc5c76	-0.10759823
48	0xbe1d35e4	-0.15352589
49	0x3b663bc2	0.0035130833
50	0x3c5d72f4	0.0135161765
51	0x3d20a05b	0.039215427
52	0xbdaeb58a	-0.085307196
53	0xbde5012a	-0.11181863
54	0x3d3f6597	0.046727743
55	0xbdadbf43	-0.08483746
56	0x3daf7a99	0.085683055
57	0x3e018867	0.1264969
58	0x3d255f53	0.04037411
59	0x3e5c2ec7	0.21502219
60	0x3e063bbb	0.13108723
61	0xbe333eb9	-0.17504396
62	0xbe50b759	-0.20382442
63	0xbc3d8067	-0.011566258
64	0xbd4b05cd	-0.04956608
65	0x3d80adc6	0.06283145
66	0xbd11619d	-0.035493482
67	0x3dd22b94	0.10262218
68	0x3e5f8db6	0.21831402
69	0xbdc2e25f	-0.09515833
70	0x3e06f43a	0.13179103
71	0x3dccfecd	0.10009537
72	0x3ca8f240	0.020623326
73	0x3e5edd2a	0.21764055
74	0x3e0949e9	0.134071
75	0xbd4d60c7	-0.050141122
76	0xbdebb937	-0.11509936
77	0x3d9b74d9	0.07590646
78	0xbd1bdf1e	-0.038054578
79	0x3e1e1ec5	0.15441425
80	0x3e3d37e7	0.18478356
81	0xbc9bff87	-0.019042743
82	0xbe77f8c1	-0.24215986
83	0x3d8239ad	0.06358657
84	0xbd9226db	-0.07136317
85	0xbe92811d	-0.2861413
86	0xbe3429d7	-0.17594086
87	0x3e5e8b33	0.21732788
88	0xbdcc2ec5	-0.09969858
89	0xbda6cf3e	-0.08144997
90	0xbd2cd22d	-0.042192627
91	0x3cefa25e	0.029252227
92	0x3dd2c71d	0.10291884
93	0xbc107e09	-0.008819112
94	0xbda39341	-0.07987071
95	0x3d4bf8d2	0.04979784
96	0x3def450e	0.11683093
97	0x3e6ec033	0.23315506
98	0xbd70c93c	-0.058785662
99	0xbce68f8c	-0.02814462
100	0x3e509869	0.2037064
101	0xbc973244	-0.018456586
102	0xbd7d9e16	-0.06191834
103	0x3de52a69	0.1118973
104	0x3d8d63f4	0.0690383
105	0xbd6e0f29	-0.058119927
106	0xbd4cadf6	-0.04997059
107	0xbd80f870	-0.06297386
108	0x3bc4da2d	0.006007454
109	0x3e1cdd53	0.15318803
110	0x3c39521e	0.011311082
111	0x3ba245ee	0.004952184
112	0xbd8b2399	-0.06793899
113	0xbdba1404	-0.09085849
114	0xbe490f13	-0.19634657
115	0xbdae5e60	-0.08514094
116	0x3d570cab	0.052502315
117	0xbcc8a853	-0.024494326
118	0xbc28353b	-0.010266597
119	0x3e504fb7	0.20342909
120	0xbdc1e2e7	-0.09467106
121	0xbb582a61	-0.0032984244
122	0x3e79ed3a	0.24406901
123	0xbdd07b3c	-0.10179755
124	0x3daeb892	0.08531298
125	0xbd56130d	-0.052264262
126	0x3d3c3a77	0.045954194
127	0xbd3ac088	-0.04559377
128	0x3e4081b9	0.18799485
129	0xbcaa44d8	-0.02078478
130	0xbec85e68	-0.39134526
131	0xbde1f8e8	-0.11033803
132	0x3dc868a0	0.09785581
133	0x3e6843aa	0.22682062
134	0x3e801596	0.2501647
135	0xbda7110f	-0.081575505
136	0x3dabb8da	0.08384867
137	0x3ae94cda	0.0017799393
138	0x3c1ae5ec	0.009454232
139	0x3bf856c8	0.0075787045
140	0xbe0d6884	-0.13809401
141	0x3daaa334	0.0833191
142	0xbd20eb88	-0.03928712
143	0xbd9726b1	-0.07380427
144	0xbdd15b93	-0.102225445
145	0xbe886098	-0.26636195
146	0x3caa2627	0.020770146
147	0x3e501dab	0.20323817
148	0xbd594bec	-0.05305092
149	0x3d0ade92	0.033903666
150	0xbe2764cf	-0.16347049
151	0xbe265edf	-0.16247128
152	0x3d70b38a	0.05876497
153	0x3ce536b7	0.027980192
154	0xbc79df14	-0.01525094
155	0xbda56d49	-0.08077485
156	0xbe0eb88a	-0.13937584
157	0xbdf1013d	-0.11767814
158	0xbd1c694d	-0.03818636
159	0xbe3c7ea9	-0.18407692
160	0xbe895b57	-0.268275
161	0xbd9278e2	-0.07151963
162	0xbd72891e	-0.059212796
163	0xbce01b67	-0.027356816
164	0x3b21e340	0.0024702102
165	0xbc47647c	-0.012169953
166	0xbdf076fe	-0.11741446
167	0xbd6b21e0	-0.057405353
168	0x3ce024f9	0.02736138
169	0x3e2817b1	0.16415288
170	0x3c9f6589	0.019457595
171	0x3b3b11c6	0.002854453
172	0xbd6dbe36	-0.058042727
173	0x3e910653	0.28325137
174	0x3e0498b0	0.1294887
175	0x3be239ad	0.006903848
176	0xbcacb6a8	-0.021083191
177	0xbda72e38	-0.081631124
178	0x3dc46fac	0.09591612
179	0x3e886ea1	0.26646903
180	0x3d8f20e6	0.06988697
181	0x3d891d31	0.06695021
182	0xbdd46e8a	-0.10372646
183	0xbe806e68	-0.25084233
184	0xbf2b62cc	-0.6694763
185	0xbf3c26d1	-0.7349673
186	0xbec14808	-0.37750268
187	0xbf27d5a0	-0.6556034
188	0xbf3b8005	-0.7324222
189	0xbcbba220	-0.022904456
190	0x3d9ef47a	0.07761474
191	0xbdc18516	-0.09449212
192	0x3de7a911	0.11311544
193	0xbe043fd0	-0.12914968
194	0x3d13290e	0.035927825
195	0xbde78aec	-0.11305794
196	0xbdabcb46	-0.08388381
197	0xbe4f4354	-0.20240527
198	0x3c43ed84	0.011958484
199	0xbd95f954	-0.07322946
200	0x3d61b4c0	0.055104017
201	0x3d8bedd0	0.068324685
202	0xbd5ec54f	-0.054387387
203	0xbe056271	-0.13025834
204	0xbdc07d70	-0.09398925
205	0xbe8a10c1	-0.26965907
206	0xbeb9379f	-0.36175248
207	0x3dfc0691	0.1230594
208	0x3e197098	0.14984357
209	0x3e9cf9cb	0.30659327
210	0x3e03caf0	0.12870383
211	0x3dcb946e	0.0994042
212	0x3ddc3fc9	0.107543536
213	0x3e7869b4	0.24259073
214	0xbb38fffa	-0.0028228746
215	0x3d90ddd7	0.070735626
216	0x3dc2b47d	0.09507082
217	0x3d9e4001	0.077270515
218	0x3da98be6	0.08278637
219	0xbe0b9ebd	-0.13634773
220	0x3dd08643	0.101818584
221	0x3c8ce225	0.017197678
222	0xbcd52584	-0.026018865
223	0x3e14d33e	0.14533707
224	0x3d5c24e9	0.053746138
225	0x3daaf717	0.0834791
226	0x3de012a8	0.109410584
227	0xbd2db65b	-0.042410236
228	0xbd69a888	-0.05704549
229	0xbd77118a	-0.06031946
230	0xbbb43e11	-0.005500563
231	0xbd0443bd	-0.032291163
232	0xbd792429	-0.0608255
233	0xbd4052bb	-0.046953898
234	0xbb9713fb	-0.004610536
235	0x3db4f0f4	0.08835021
236	0xbd334389	-0.04376558
237	0xbcf1c02e	-0.029510584
238	0x3d4e39dd	0.05034815
239	0x3d853cdd	0.065057494
240	0xbdb03c15	-0.0860521
241	0xbb79443a	-0.003803505
242	0x3e44a390	0.19203019
243	0x3e3f6bcf	0.1869347
244	0x3d874bde	0.066062674
245	0x3e13fd6c	0.14452142
246	0xbe9b85e5	-0.3037559
247	0xbe43a8fb	-0.1910743
248	0x3e4c2e66	0.19939575
249	0xbeb340c5	-0.35010353
250	0xbdae6cf2	-0.085168734
251	0x3e882dc0	0.26597404
252	0x3e4973c4	0.19673067
253	0x3e168bb3	0.14701729
254	0x3c853747	0.01626171
255	0x3c46e3e0	0.012139291

netdown2.COV1.0.conv_i.bias f4 [8]
0	0x3da99fb7	0.08282416
1	0x3dc6aba0	0.097007036
2	0xbd92233d	-0.071356274
3	0x3e399479	0.18123044
4	0x3df418be	0.11918782
5	0x3e719091	0.23590304
6	0xbcbe9485	-0.023264179
7	0x3e281494	0.164141

netdown3.COV1.0.conv_r.weight f4 [16, 8, 3, 3]
0	0x3d0ba030	0.034088314
1	0xbedf49c1	-0.43610957
2	0xbf082938	-0.53187895
3	0xbf17902a	-0.5920435
4	0xbfa37707	-1.2770699
5	0xbf8a70eb	-1.081571
6	0xbef437e3	-0.47698888
7	0xbf9cc303	-1.2247013
8	0xbf80f42e	-1.0074518
9	0xbe06bbe9	-0.1315762
10	0xbe9d3215	-0.30702272
11	0xbe131972	-0.14365175
12	0xbe3872bf	-0.18012522
13	0xbe5b1e7d	-0.21398349
14	0xbea4a891	-0.32159856
15	0x3da5655b	0.08075973
16	0xbe0837f6	-0.13302597
17	0xbd409666	-0.04701843
18	0x3d802b71	0.06258286
19	0x3d25499b	0.0403534
20	0x3e79254d	0.24330635
21	0x3dad859b	0.08472749
22	0x3d27c303	0.040957462
23	0x3db59979	0.08867163
24	0xbd541fe0	-0.05178821
25	0x3d0bd7c0	0.034141302
26	0xbdd89716	-0.10575692
27	0xbd7f181c	-0.062278852
28	0xbd690bf5	-0.05689617
29	0xbe663a9a	-0.22483292
30	0xbd889074	-0.06668177
31	0xbe6473f1	-0.22309853
32	0xbe9721df	-0.2951803
33	0xbd754cb0	-0.059887588
34	0xbe84a23e	-0.2590503
35	0xbeb8c7bb	-0.36089882
36	0xbe7dde43	-0.24791817
37	0xbe2cf0f8	-0.16888797
38	0xbe365490	-0.17805696
39	0xbe8800df	-0.26563165
40	0xbe96c541	-0.29447368
41	0xbddb8de9	-0.107204266
42	0xbe9ee772	-0.31035954
43	0xbe8d4cbd	-0.2759761
44	0xbe115d15	-0.14195664
45	0xbdfb26ad	-0.12263236
46	0xbe8b24d0	-0.27176523
47	0xbea25949	-0.31708744
48	0xbdc94101	-0.09826852
49	0xbe93a2fb	-0.28835282
50	0xbe5f5526	-0.21809825
51	0xbe8571ba	-0.2606333
52	0xbe58fba6	-0.21189746
53	0xbe11cfaa	-0.14239374
54	0xbdc93a67	-0.098255925
55	0xbde3c333	-0.11121216
56	0xbe099394	-0.13435203
57	0xbe475a86	-0.19468126
58	0xbe705afb	-0.23472206
59	0xbe3e5a86	-0.1858922
60	0xbdfdca30	-0.1239208
61	0xbe354370	-0.17701507
62	0x3baeac72	0.0053306157
63	0xbe24a01a	-0.16076699
64	0xbe8d87e6	-0.27642745
65	0xbe534075	-0.20630057
66	0xbd3cd3ae	-0.04610031
67	0xbe90a2a6	-0.2824909
68	0xbe6de5e2	-0.23232225
69	0xbd8fd26f	-0.07022559
70	0xbe80fa7c	-0.25191104
71	0xbe146c0f	-0.14494346
72	0xbdccf2bb	-0.10007235
73	0xbd8556ad	-0.06510673
74	0xbd239c5f	-0.03994405
75	0x3d9a51e0	0.07535148
76	0xbd94db2c	-0.07268366
77	0xbb61bab1	-0.0034443552
78	0xbda3a82c	-0.079910606
79	0x3d012c4c	0.031536385
80	0x3d7eb756	0.06218656
81	0xbd43781a	-0.04772196
82	0xbc369659	-0.011144244
83	0x3d6d2334	0.0578949
84	0xbdca5083	-0.09878638
85	0xbdb776ea	-0.08958228
86	0xbdef63a6	-0.11688928
87	0x3d479ddd	0.048734535
88	0xbb3609d3	-0.0027776852
89	0xbdf95683	-0.12174704
90	0xbd2fd17c	-0.04292439
91	0x3c8d3165	0.017235467
92	0x3dafedcd	0.08590279
93	0xbb12421e	-0.002231724
94	0x3ca9d966	0.020733546
95	0xbde69616	-0.11259095
96	0x3dcdfb5c	0.100577086
97	0x3a75bca7	0.00093741197
98	0xbde7c77f	-0.11317348
99	0x3ca864cb	0.020555874
100	0x3d7bab2b	0.061442535
101	0xbd1d83c2	-0.038455732
102	0xbde18f30	-0.11013639
103	0xbdc7bb5d	-0.097525336
104	0xbdb55fa4	-0.088561326
105	0x3ddea14a	0.10870607
106	0x3db1e50a	0.08686264
107	0xbddd4d28	-0.10805732
108	0xbda5cefe	-0.08096121
109	0xbdd19ccd	-0.102349855
110	0x3caee34e	0.021348622
111	0x3db7b500	0.0897007
112	0x3ca71ba3	0.02039892
113	0x3db9ca71	0.09071816
114	0xbd6224a9	-0.055210743
115	0xbde6d66e	-0.11271368
116	0x3d3fa0ab	0.046784084
117	0xbd85752b	-0.06516489
118	0xbdea3911	-0.11436666
119	0xbcaee988	-0.02135159
120	0xbd6b6c7e	-0.057476513
121	0xbe002945	-0.12515743
122	0x3d3a38a8	0.045464188
123	0x3d89c6d9	0.0672738
124	0x3db33332	0.08749999
125	0xbdc25701	-0.09489251
126	0xbdece32b	-0.11566766
127	0xbdb6971a	-0.08915539
128	0xbdf79fab	-0.12091001
129	0xbdb6e4a7	-0.08930331
130	0x3de08340	0.10962534
131	0x378a8bf9	1.6516062e-05
132	0xbd256630	-0.040380657
133	0x3d14ef96	0.0363613
134	0xbc94996e	-0.018139567
135	0x3cfa75c5	0.030573735
136	0x3d8c9c8d	0.06865797
137	0xbdd72897	-0.10505789
138	0x3d17cd1f	0.037060853
139	0xbda9fa95	-0.08299748
140	0xbe0ba94a	-0.13638797
141	0xbdf21e86	-0.11822228
142	0x3cd03307	0.025414957
143	0x3d5dcb32	0.05414886
144	0x3d485227	0.04890647
145	0xbd4f0e5c	-0.050550804
146	0x3c332d62	0.010936113
147	0xbded2a8e	-0.11580382
148	0x3dd858c1	0.105638035
149	0x3e50aa90	0.20377564
150	0xbd6e497b	-0.058175545
151	0x3b5343f5	0.003223655
152	0xbc8fb2d8	-0.017541334
153	0xbde51cbf	-0.111871235
154	0xbda3a72b	-0.07990869
155	0x3b16c138	0.002300335
156	0xbdd32aeb	-0.1031092
157	0x3df0fd82	0.11767103
158	0x3e3e1aad	0.18564864
159	0xbd0eddfb	-0.034879666
160	0xbd836844	-0.064163715
161	0xbc767860	-0.015043348
162	0x3dbdb158	0.09262341
163	0x3d7913d9	0.060809944
164	0xbcd55a06	-0.026043903
165	0x3ad2d05d	0.0016083826
166	0xbd928335	-0.07153932
167	0x3d37ec5f	0.044903155
168	0xbd0dad83	-0.0345893
169	0xbccc59ad	-0.024945104
170	0x3e288c11	0.16459681
171	0xbd260eca	-0.040541448
172	0xbd9d2a43	-0.076740764
173	0x3c9832a8	0.018578842
174	0x3dd6a019	0.10479755
175	0x3cc2aeb5	0.023764947
176	0x3d92a362	0.07160069
177	0xbd050d5b	-0.03248344
178	0x3d5e8b2e	0.05433195
179	0xbbe83c35	-0.0070872554
180	0xbd173d43	-0.036923658
181	0xbdf7c3da	-0.120979026
182	0x3cc02eec	0.023459874
183	0x3b5cadcb	0.0033672925
184	0xbc7128b4	-0.014719177
185	0x3e0211e2	0.12702134
186	0x3cc7e071	0.024399014
187	0x3d9c25f5	0.07624427
188	0x3e066df9	0.13127889
189	0xbd6a9e26	-0.05727973
190	0xbd016127	-0.031586792
191	0xbdaea764	-0.08528021
192	0xbd268e84	-0.040663257
193	0x3e92a3f5	0.28640714
194	0x3ecf928b	0.4054149
195	0x3d1a0323	0.037600648
196	0x3d3639ac	0.044488594
197	0x3d927993	0.07152095
198	0x3cf2b949	0.029629366
199	0xbd93d84d	-0.072189905
200	0xbe04c199	-0.12964477
201	0x3d3a79c2	0.045526274
202	0x3ce1e034	0.027572729
203	0x3dbc4a3a	0.09193845
204	0xbcc4752a	-0.02398165
205	0x3d02c599	0.031926725
206	0x3be6b382	0.007040442
207	0x3ca2de0e	0.019881275
208	0xbe0af2dc	-0.13569206
209	0xbe124aee	-0.14286396
210	0x3d4ed2d7	0.05049404
211	0x3e32dfb1	0.17468144
212	0x3e49bc66	0.19700775
213	0xbd3d0f89	-0.046157394
214	0x3dd635a2	0.104594484
215	0xbd02be22	-0.031919606
216	0xbc263b47	-0.010145969
217	0xbddda325	-0.10822133
218	0x3db8ea99	0.09029121
219	0xbe9bcaa9	-0.30428055
220	0xbeecbc1f	-0.46237275
221	0xbed83115	-0.42224947
222	0xbe50ec09	-0.2040254
223	0xbe8283bf	-0.2549114
224	0xbdbcbde3	-0.092159055
225	0x3e06f18a	0.13178077
226	0xbd633cf0	-0.055478036
227	0xbcf452cb	-0.029824635
228	0x3dc9cf59	0.098540016
229	0xbda063e9	-0.07831556
230	0xbcc158e4	-0.023601957
231	0xbde27720	-0.110578775
232	0x3d8d3d98	0.06896514
233	0xbd987143	-0.07443478
234	0xbd8ccaa8	-0.06874591
235	0x3db90d28	0.090357125
236	0x3dd89e7a	0.10577102
237	0xbe298df9	-0.16558065
238	0xbda22588	-0.07917315
239	0x3d172511	0.036900584
240	0xbdad0ef0	-0.08450115
241	0xbdc60924	-0.09669712
242	0x3d041612	0.03224761
243	0x3dd8eb43	0.105917476
244	0x3e2b7239	0.16742791
245	0x3d64df99	0.0558773
246	0x3d50b3cf	0.05095273
247	0x3e18a23f	0.14905642
248	0xbb3b5819	-0.0028586446
249	0x3d99d676	0.07511608
250	0xbcbfa605	-0.023394594
251	0xbca079d9	-0.019589351
252	0xbcaaa941	-0.02083266
253	0xbe34d83d	-0.17660613
254	0xbcc4e195	-0.024033347
255	0xbe129cb5	-0.14317591

netdown3.COV1.0.conv_r.bias f4 [16]
0	0xbdb67f28	-0.08910972
1	0xbe0fa135	-0.1402634
2	0x3d8ba4bb	0.06818529
3	0x3cebe681	0.028796436
4	0x3ccd1d71	0.025038453
5	0xbe133ac3	-0.14377885
6	0x3e004c09	0.12529005
7	0xbd21d61b	-0.039510828
8	0xbe3236d9	-0.17403735
9	0xbd53ff3e	-0.05175709
10	0x3d5c64e1	0.053807143
11	0xbe4e1f1f	-0.2012906
12	0xbc0d9083	-0.008640411
13	0x3df5201f	0.11969017
14	0xbdbc380b	-0.09190377
15	0x3ae6ae58	0.0017599566

netdown3.COV1.0.conv_i.weight f4 [16, 8, 3, 3]
0	0xbda6f936	-0.08153002
1	0xbe546cc4	-0.20744616
2	0xbe82bd61	-0.2553511
3	0xbdb2d007	-0.08731084
4	0xbe347199	-0.17621459
5	0xbe23ee39	-0.16008843
6	0x3d356771	0.044288103
7	0x3c022c62	0.007945152
8	0xbe06d962	-0.13168862
9	0xbd8e9b6b	-0.069632374
10	0x3c0cdb7c	0.008597251
11	0xbcd1746d	-0.025568211
12	0x3c97acad	0.018514955
13	0x3d62c75e	0.055365913
14	0xbbe42021	-0.006961838
15	0xbcc828ba	-0.024433482
16	0xbd1a2e2b	-0.037641685
17	0x3d3e662d	0.04648416
18	0xbe5f3856	-0.21798834
19	0xbbe78421	-0.0070653115
20	0xbe12d405	-0.14338692
21	0x3d6ea977	0.058267083
22	0x3e461977	0.19345652
23	0x3c48c816	0.012254735
24	0x3dae64cc	0.08515319
25	0x3e38f870	0.18063521
26	0x3e3d2995	0.18472894
27	0xbd03ab99	-0.03214607
28	0x3d93be8a	0.07214077
29	0xbc5a5921	-0.013326914
30	0xbd6a6e5e	-0.05723416
31	0xbd5b9146	-0.05360534
32	0xbd1c534b	-0.038165372
33	0x3d064589	0.032781158
34	0xbda1bbb3	-0.07897129
35	0x3dfe3020	0.12411523
36	0xbd447c1b	-0.04796992
37	0x3db38aff	0.08766746
38	0x3e3bd1b0	0.18341708
39	0x3e9dd1be	0.30824083
40	0x3ef8173a	0.4845522
41	0x3e96ff64	0.29491723
42	0x3e20c71a	0.15700951
43	0x3e838251	0.2568536
44	0x3da89cfb	0.08233067
45	0xbe0ded85	-0.13860138
46	0xbe2d6344	-0.16932398
47	0xbe98b356	-0.29824322
48	0xbe97d372	-0.29653507
49	0xbece5d63	-0.40305623
50	0xbe90eac7	-0.2830412
51	0xbe1c13e5	-0.15241964
52	0xbe858f00	-0.26085663
53	0xbe9d7faa	-0.30761462
54	0x3dcd9f61	0.10040165
55	0xbd0762bd	-0.03305315
56	0xbd91bcf5	-0.07116119
57	0x3d29b1c8	0.04142931
58	0x3dedc3cc	0.11609611
59	0xbbee3fad	-0.0072707743
60	0x3e397e3c	0.18114561
61	0x3dea6b3b	0.11446234
62	0x3d8ee8c6	0.06977992
63	0xbe838237	-0.25685284
64	0xbe6eae95	-0.23308785
65	0xbe587ad6	-0.21140608
66	0xbe896d2f	-0.26841113
67	0xbe7dc842	-0.24783424
68	0xbcc3cd60	-0.023901641
69	0xbe1a037a	-0.15040389
70	0xbe69f6ad	-0.22848006
71	0xbe13b9f7	-0.14426409
72	0x3d0162f1	0.0315885
73	0xbd0033a4	-0.03129925
74	0xbce09a6e	-0.027417388
75	0x3d43834c	0.047732636
76	0x3d000354	0.031253174
77	0x3e03b8c9	0.12863459
78	0x3af94691	0.0019018223
79	0x3d893d56	0.06701152
80	0x3e005473	0.12532215
81	0xbd967572	-0.0734662
82	0x3dd5509c	0.10415766
83	0xbd620203	-0.0551777
84	0x3deeaf9f	0.11654591
85	0xbd9803fa	-0.074226335
86	0xbd01e204	-0.031709686
87	0xbc9de120	-0.019272387
88	0xbcdabdef	-0.026701896
89	0xbda97765	-0.08274726
90	0x3dc4b213	0.096042775
91	0xbd207cb9	-0.039181445
92	0xbde2ba4f	-0.11070692
93	0xbc4e4f15	-0.012592097
94	0xbcd41b6f	-0.025891988
95	0xbd16ca9d	-0.03681432
96	0xbcd746f5	-0.026278952
97	0xbd23cf9a	-0.039992906
98	0xbda0a1a8	-0.078433335
99	0x3cb11c4d	0.02161994
100	0x3b8d6d95	0.0043160417
101	0x3d8fdfbc	0.07025096
102	0x3d4e8cc2	0.050427206
103	0x3d7d0659	0.06177363
104	0xbd764506	-0.06012442
105	0xbd4db36c	-0.05021994
106	0x3c504610	0.012712017
107	0xbd76e1cf	-0.06027394
108	0xbd072405	-0.032993335
109	0x3db8641e	0.09003471
110	0x3c16c8f0	0.009203181
111	0x3d3073a1	0.043079022
112	0x3de29c24	0.11064938
113	0xbd318f2d	-0.043349434
114	0xbd3fad28	-0.046795994
115	0xbd7bb1a8	-0.061448723
116	0x3e00a594	0.12563163
117	0xbc5ea121	-0.013588221
118	0xbdae153c	-0.08500144
119	0xbcac7c57	-0.021055384
120	0xbd802732	-0.06257476
121	0xbdd3d6a9	-0.103436776
122	0x3de7c13c	0.113161534
123	0x3daf9e1d	0.085750796
124	0xbc8b13fc	-0.016977303
125	0xbd9020ba	-0.07037492
126	0x3da2a6a5	0.07941941
127	0x3d94a9dc	0.072589606
128	0xbcf07c3c	-0.029356115
129	0x3ddd0eb6	0.107938215
130	0x3d93f571	0.072245486
131	0x3d3de566	0.04636135
132	0xbc8f84e0	-0.017519414
133	0xbdd1f003	-0.10250857
134	0xbc748b12	-0.014925735
135	0x3ddf7c64	0.109123975
136	0xbc4703dc	-0.012146916
137	0x3d1b9aab	0.0379893
138	0x3dba7e69	0.09106142
139	0xbd2643c3	-0.040591966
140	0xbd9301d3	-0.07178082
141	0xbde6bf35	-0.112669386
142	0x3d935d76	0.07195561
143	0x3d77b438	0.060474604
144	0x3e3a32d4	0.18183452
145	0x3e5e57ac	0.21713132
146	0x3e04bfdb	0.12963812
147	0x3d8b8d05	0.06814007
148	0xbe2ba470	-0.16761947
149	0xbdfec4ce	-0.12439881
150	0x3dd33db5	0.10314504
151	0x3d84f2d3	0.064916275
152	0xbcbde990	-0.02318266
153	0x3d86a621	0.06574655
154	0xbdd72f53	-0.10507073
155	0xbe59d276	-0.2127169
156	0xba0df2e8	-0.0005414919
157	0xbd6ccdc8	-0.057813436
158	0xbe70d1c2	-0.23517516
159	0xbe270010	-0.16308618
160	0x3ce2f938	0.027706727
161	0xbd731b15	-0.059352
162	0x3d45c67a	0.048284985
163	0xbd0bc23c	-0.034120783
164	0x3d8c9087	0.06863504
165	0xbdffc875	-0.12489406
166	0xbe9ca70b	-0.30596194
167	0xbe5988f6	-0.21243653
168	0xbc9fbcfe	-0.019499298
169	0xbe1ab361	-0.1510749
170	0xbe31d85f	-0.17367695
171	0xbc110919	-0.008852267
172	0xbd507aa7	-0.05089822
173	0x3da76aff	0.08174705
174	0xbcfb98bd	-0.03071248
175	0x3cda3605	0.026637087
176	0x3d8fdeae	0.07024895
177	0xbd154ea2	-0.036451943
178	0x3e1780db	0.14795248
179	0xbbdad1da	-0.0066778483
180	0x3d3d5f4e	0.046233468
181	0x3dec97a4	0.11552361
182	0x3cfebd9b	0.03109627
183	0xbd3e3f36	-0.046447
184	0xbd95399e	-0.0728638
185	0x3b1563c9	0.0022795072
186	0xbe10ae92	-0.14129093
187	0xbe1e7eec	-0.15478104
188	0x3d4b21b3	0.049592685
189	0x3e1162a6	0.14197788
190	0xbb8968b5	-0.0041933903
191	0xbd92a20b	-0.071598135
192	0x3ce3d03c	0.027809255
193	0xbce67905	-0.028133878
194	0xbebd4a5a	-0.36970788
195	0xbd1aae13	-0.037763666
196	0x3e3300bb	0.17480747
197	0xbe2ae8b7	-0.16690336
198	0xbcdba0f3	-0.026810145
199	0xbe1660be	-0.14685342
200	0xbd9b0b39	-0.075705
201	0xbc8670e6	-0.016411256
202	0xbdac8122	-0.08423068
203	0x3e1b0fc7	0.15142737
204	0xbcac78bc	-0.021053664
205	0x3d13f3e3	0.03612126
206	0x3dfe5405	0.12418369
207	0xbdefdf1f	-0.11712479
208	0x3e71ae63	0.2360168
209	0x3e021567	0.12703477
210	0x3da9eefc	0.08297536
211	0x3d90c240	0.070683
212	0xbe7f3483	-0.24922375
213	0xbcc72a76	-0.02431224
214	0xbd3c8eef	-0.04603475
215	0xbe5711a5	-0.21002825
216	0x3e3376a4	0.17525727
217	0x3e1de27e	0.15418431
218	0x3e0fafc0	0.14031887
219	0x3d5fdf91	0.05465657
220	0x3adbab74	0.0016759471
221	0x3dfe3767	0.12412911
222	0x3e0fc380	0.14039421
223	0x3d08d5fd	0.0334072
224	0x3e41a0d0	0.18909001
225	0xbe95166a	-0.29118663
226	0xbeb88229	-0.36036804
227	0xbeef4923	-0.46735486
228	0xbe33e50c	-0.17567843
229	0xbed5537f	-0.41665265
230	0xbeadb937	-0.3393037
231	0xbd6b6ab6	-0.057474814
232	0xbe36377f	-0.17794608
233	0xbe0ec008	-0.13940442
234	0xbc563f28	-0.013076581
235	0x3ddbe187	0.10736375
236	0x3d80b6aa	0.062848404
237	0x3dbc1c6a	0.09185107
238	0x3e49def0	0.1971395
239	0x3d9c7960	0.07640338
240	0xbcfe738c	-0.031060956
241	0xbb3aef41	-0.0028523954
242	0xbb15ca81	-0.0022856297
243	0x3d8279e0	0.06370902
244	0x3e09212c	0.1339156
245	0x3daa4000	0.08312988
246	0x3c1f17f6	0.009710303
247	0x3d8be7aa	0.06831296
248	0x3da8eb74	0.08248034
249	0x3d5bb538	0.05363962
250	0x3e097453	0.1342328
251	0x3db3310a	0.08749588
252	0xbd06c22c	-0.03290002
253	0x39fa6f38	0.0004776658
254	0xbd2b4195	-0.04181059
255	0x3d00e01c	0.031463727

netdown3.COV1.0.conv_i.bias f4 [16]
0	0xbda57f71	-0.08080948
1	0xbd19394e	-0.037408166
2	0x3dca5289	0.098790236
3	0x3e1a8708	0.15090573
4	0x3d10e0a8	0.0353705
5	0xbd9f34c0	-0.07773733
6	0xbcf8c143	-0.030365592
7	0xbdb99717	-0.09062021
8	0xbdc0f2e5	-0.094213285
9	0x3e27680d	0.16348286
10	0xbcf99d3b	-0.030470481
11	0x3e1d6b53	0.15372972
12	0x3e129b3b	0.14317028
13	0xbe346517	-0.17616688
14	0xbdb52f7c	-0.088469476
15	0xbceb37f5	-0.028713206

netup3.COV1.0.conv_tran_r.weight f4 [16, 8, 4, 4]
0	0xbc6ac393	-0.014328855
1	0xbd070a9a	-0.032969095
2	0xbe84d235	-0.25941625
3	0xbd0be7f6	-0.034156762
4	0xbe265dbe	-0.16246697
5	0xbe5b22ed	-0.21400042
6	0xbed440df	-0.41455743
7	0x3e11ec9e	0.14250419
8	0x3d9bc5bd	0.07606075
9	0x3e2df5e3	0.1698833
10	0xbd1e048f	-0.038578566
11	0x3d627c4f	0.05529433
12	0x3d1534c8	0.03642729
13	0xbceecc50	-0.029150158
14	0x3d4aca75	0.049509484
15	0x3de08269	0.10962374
16	0x3dc0fdf6	0.09423439
17	0x3e0f18ae	0.13974258
18	0x3e177354	0.14790088
19	0x3d58e2ac	0.052950546
20	0x3ea75296	0.32680196
21	0x3f0137fe	0.5047606
22	0x3ec9a215	0.3938147
23	0x3df0bb12	0.11754431
24	0x3e3732d5	0.17890485
25	0x3e6ea8d2	0.23306587
26	0x3e4b4f7c	0.1985454
27	0x3dc18740	0.09449625
28	0xbbcb730f	-0.0062087844
29	0x3d0c8307	0.034304645
30	0x3d4731e3	0.04863156
31	0x3d96cc46	0.07363181
32	0xbdf8b1bb	-0.121432744
33	0xbe479f22	-0.19494298
34	0xbda88103	-0.08227732
35	0xbd05907e	-0.0326085
36	0xbcf9e3f8	-0.030504212
37	0xbf0fa0c0	-0.5610466
38	0x3d9efabd	0.07762668
39	0xbe9a0845	-0.30084434
40	0xbe415b63	-0.18882518
41	0xbea374eb	-0.3192514
42	0xbe52878a	-0.20559517
43	0xbda1ff0a	-0.07909973
44	0xbe1b1e3b	-0.15148251
45	0xbdf04855	-0.11732546
46	0xbde279f2	-0.110584155
47	0xbdd069f5	-0.1017646
48	0x3ca069f8	0.01958178
49	0xbe21970d	-0.15780278
50	0x3e3e74d4	0.18599254
51	0xbdbfb45f	-0.09360575
52	0x3e032192	0.12805775
53	0xbb826169	-0.0039788974
54	0x3ed12461	0.40848067
55	0xbe334fef	-0.17510961
56	0x3de73f65	0.112913884
57	0xbdee587c	-0.11637971
58	0x3ea6ac43	0.325533
59	0xbcab3db5	-0.020903448
60	0x3cb6cb5a	0.022313762
61	0xbdf898df	-0.12138533
62	0x3e311712	0.17293957
63	0xbe1eeef0	-0.15520835
64	0xbbc4c216	-0.006004582
65	0xbe461bd9	-0.1934656
66	0xbd97b4dd	-0.07407544
67	0xbd7dda08	-0.06197551
68	0xbdc178a4	-0.094468385
69	0xbdde081e	-0.10841392
70	0xbd9ad15a	-0.07559462
71	0xbdc26b6e	-0.09493147
72	0xbb1448e6	-0.0022626459
73	0xbe87d023	-0.26525983
74	0xbdc5eb53	-0.09664025
75	0xbdfd27b8	-0.123610914
76	0xbdb1fc25	-0.08690671
77	0xbe28bc98	-0.16478193
78	0xbb72aaaa	-0.0037027993
79	0xbc6bd528	-0.014394082
80	0x3e91cc06	0.2847597
81	0x3e9e0e81	0.3087044
82	0x3efc1beb	0.4924005
83	0x3e2d3779	0.16915692
84	0x3eb1a124	0.34693253
85	0x3f0eebea	0.55828726
86	0x3f150ee3	0.5822584
87	0x3e90b79c	0.28265083
88	0x3a83bd4c	0.0010050922
89	0x3dafc2ea	0.08582099
90	0x3e0c1ff8	0.1368407
91	0x3d69cc5c	0.057079658
92	0xbe06db4a	-0.1316959
93	0xbdb6e9e4	-0.0893133
94	0x3c7bd9df	0.015371769
95	0xbd683f45	-0.056700964
96	0xbd397dbe	-0.045285933
97	0x3d82deb2	0.06390132
98	0x3eaaf0ea	0.33386928
99	0x3d6474e3	0.055775534
100	0xbdb2bdfb	-0.08727642
101	0xbe28723d	-0.16449828
102	0xbe43e860	-0.19131613
103	0x3d5937dd	0.05303179
104	0xbd85bc97	-0.06530111
105	0xbcd913e0	-0.026498735
106	0x3de1b5dc	0.11021015
107	0x3ceb8c65	0.028753469
108	0x3d7484ca	0.05969695
109	0x3df9d742	0.1219926
110	0x3cab54d0	0.020914465
111	0x3d8562b4	0.06512967
112	0x3d863582	0.065531746
113	0xbe137d77	-0.1440333
114	0x3e79c3fc	0.24391168
115	0xbe28d3b4	-0.16487008
116	0xbef2a389	-0.47390392
117	0xbea40485	-0.32034698
118	0xbe54f3be	-0.20796105
119	0xbe0ad1a8	-0.1355654
120	0x3d985c4d	0.0743948
121	0xbdb0d3d9	-0.08634157
122	0x3ec05123	0.37561902
123	0xbe099778	-0.13436687
124	0xbe4813f6	-0.19538864
125	0xbe2f8896	-0.17141947
126	0xbd70af16	-0.058760725
127	0xbdbcd1a0	-0.0921967
128	0xbd265aae	-0.040613823
129	0x3d309cfa	0.043118455
130	0xbd478bcd	-0.04871731
131	0x3cd07336	0.025445562
132	0xbd8b07b3	-0.06788578
133	0x3d109ced	0.035305906
134	0xbd36a1a8	-0.04458776
135	0xbaac765a	-0.001315783
136	0xbcbc923e	-0.023018952
137	0xbd968303	-0.07349207
138	0xbb87dcb6	-0.004146184
139	0x3d8e7bc7	0.069572024
140	0xbd63a867	-0.055580523
141	0x3d0e4a57	0.034738865
142	0xbd2114c9	-0.039326463
143	0x3d46ccfe	0.04853534
144	0x3c2800e9	0.010254123
145	0xbd07c7a9	-0.033149395
146	0x3cae3308	0.021264568
147	0x3d4e0c71	0.050304834
148	0xbdd4a235	-0.10382501
149	0xbdb5db05	-0.08879665
150	0x3d609e4e	0.05483847
151	0xbd536914	-0.051613882
152	0xbdabdd9b	-0.08391877
153	0x3c43f736	0.011960795
154	0x3d5154bc	0.0511062
155	0xbd7db0bf	-0.061936136
156	0x3d3ee13a	0.04660151
157	0x3d604697	0.05475482
158	0x3d459ef7	0.048247304
159	0xbdb9bcd6	-0.09069221
160	0x3d9655ac	0.07340559
161	0x3d8d55e0	0.06901145
162	0x3d215a65	0.039392848
163	0xbd72e4a0	-0.059300065
164	0xbd88fe85	-0.06689171
165	0xbd41bafa	-0.047297455
166	0x3cf05abc	0.02934014
167	0x3d92c291	0.07166017
168	0xbd317e26	-0.043333195
169	0xbd849c08	-0.06475073
170	0xbd0c204a	-0.03421048
171	0xbcc58ad7	-0.024114056
172	0x3d0853bf	0.03328299
173	0xbd988516	-0.07447259
174	0x3d1f67cf	0.03891736
175	0xbcc38bf9	-0.023870455
176	0xbcbc9182	-0.023018602
177	0x3cc81eef	0.024428813
178	0x3ce03947	0.027371062
179	0xbd0b4813	-0.034004282
180	0xbb874081	-0.0041275625
181	0x3d5963c1	0.05307365
182	0xbc49c965	-0.012316083
183	0xbd33357d	-0.043752182
184	0x3da12bdc	0.07869694
185	0x3d6491be	0.055803053
186	0x3d221368	0.03956929
187	0xbd25a068	-0.04043618
188	0x3c6cfbe6	0.014464354
189	0xbcbacb08	-0.022801891
190	0xbd2f77b3	-0.042838763
191	0xbca82fed	-0.020530665
192	0xbd7052bb	-0.058672648
193	0x3da8a604	0.0823479
194	0xbda0ee41	-0.07857943
195	0xbdad512d	-0.08462749
196	0xbd95d74d	-0.07316456
197	0xbda8dd71	-0.082453616
198	0xbd684d6b	-0.056714457
199	0x3d83e7c0	0.06440687
200	0x3d4b21fa	0.04959295
201	0x3d960fd5	0.073272385
202	0xbd85a386	-0.0652533
203	0x3db01611	0.08597959
204	0x3c115426	0.00887016
205	0x3c9bc0bd	0.019012803
206	0xbcd61b28	-0.026135996
207	0xbd2f65c8	-0.042821676
208	0xbd777d78	-0.06042239
209	0xbd458ab9	-0.048228
210	0xbc326a83	-0.010889652
211	0xbd719ff6	-0.05899044
212	0x3c9b1d34	0.018934824
213	0x3db1a385	0.08673767
214	0xbc55db24	-0.0130527355
215	0xbd4890e4	-0.048966303
216	0x3db0ca0c	0.086322874
217	0x3d7de4d1	0.061985794
218	0x3d5b06e9	0.053473387
219	0x3d981d6a	0.07427485
220	0x3d95a391	0.073065884
221	0xbd4124fd	-0.047154415
222	0xbd38352a	-0.044972576
223	0x3d3209e9	0.043466482
224	0x3d8300fa	0.06396671
225	0xbd06d90b	-0.032921832
226	0x3d488073	0.048950624
227	0x3d8daf14	0.06918159
228	0x3d251603	0.040304195
229	0xbd003481	-0.03130007
230	0xbd1dcbf2	-0.038524576
231	0x3d597a63	0.053095233
232	0x3d8738c3	0.06602623
233	0xbd2e73ad	-0.042590786
234	0xbce3a8c3	-0.027790433
235	0x38924a34	6.975644e-05
236	0x3c8affa2	0.016967598
237	0x3cc076a2	0.023494069
238	0xbd9e6050	-0.07733214
239	0xbd8953a9	-0.0670541
240	0xbbb6b083	-0.005575241
241	0x3d0dc171	0.03460831
242	0xbb8f8b40	-0.0043806136
243	0xbd35cc4d	-0.04438429
244	0x3ce8dbbd	0.028425092
245	0x3c25770d	0.010099185
246	0xbcf2d50b	-0.029642602
247	0xbd302170	-0.04300064
248	0xbdb0a168	-0.08624536
249	0xbd9b2635	-0.07575647
250	0x3cbe973a	0.02326547
251	0xbd71edae	-0.05906456
252	0x3c857827	0.016292645
253	0x3da00d33	0.078150176
254	0xbd912f71	-0.07089127
255	0x3d18b4e0	0.03728187

netup3.COV1.0.conv_tran_r.bias f4 [8]
0	0xbd59220c	-0.053010985
1	0xbce588e9	-0.028019385
2	0xbe51e334	-0.20496827
3	0xbdb47c03	-0.08812716
4	0xbd2cef6d	-0.04222052
5	0xbd8313f4	-0.0640029
6	0xbdcad7f5	-0.09904472
7	0xbe11cb97	-0.1423782

netup3.COV1.0.conv_tran_i.weight f4 [16, 8, 4, 4]
0	0x3de03d18	0.10949153
1	0x3e1c048a	0.15236107
2	0x3e7107d5	0.23538144
3	0x3d886f76	0.066618845
4	0x3e6421dd	0.22278543
5	0x3f192e3b	0.5983617
6	0x3f11df6e	0.5698155
7	0x3e269c37	0.16270529
8	0x3e08ae6c	0.13347787
9	0x3ed91a47	0.4240286
10	0x3e9655a9	0.2936223
11	0xba2c3eed	-0.0006570656
12	0xbd9dcbbc	-0.07704875
13	0x3e295f07	0.16540156
14	0xbcc62e17	-0.0241919
15	0xbd6a1866	-0.057152174
16	0xbce416be	-0.027842876
17	0x3e95c4db	0.2925175
18	0xbe4adf30	-0.19811702
19	0x3ddeb9f2	0.1087531
20	0x3d8f9e2a	0.07012589
21	0x3eb7e575	0.3591725
22	0x3e6c0ec0	0.23052502
23	0x3e1450a3	0.14483885
24	0xbe111a27	-0.14170133
25	0x3e5e1959	0.21689357
26	0xbe28dfd7	-0.16491638
27	0x3db58a45	0.088642634
28	0xbcdfc312	-0.027314696
29	0x3bedbb21	0.0072549735
30	0x3ce9ec07	0.02855493
31	0x3d0b8c8d	0.034069587
32	0xbd83ddab	-0.06438764
33	0xbe34036d	-0.17579432
34	0xbd85cd6e	-0.06533323
35	0x3d3b485a	0.045723297
36	0xbcdb43c9	-0.02676572
37	0x3b5d5903	0.003377498
38	0xbc345e36	-0.01100879
39	0xbafda79a	-0.0019352317
40	0x3e08e54f	0.13368724
41	0xbdf01944	-0.11723569
42	0x3dc58d6c	0.09646115
43	0x3e432190	0.19055772
44	0x3d68fb1c	0.0568801
45	0x3daffcdf	0.08593153
46	0x3db9d68c	0.09074125
47	0x3da1dc54	0.079033524
48	0x3d12cbda	0.03583894
49	0xbacdf95f	-0.0015714577
50	0xbb7e78b7	-0.0038829276
51	0x3d8a895e	0.06764482
52	0x3e2b373a	0.16720286
53	0x3e02ccd4	0.12773448
54	0x3f035f1c	0.51317
55	0x3e39d7e9	0.1814877
56	0xba6b85eb	-0.0008984494
57	0x3e3cafd3	0.18426447
58	0x3de89f37	0.11358493
59	0x3d1abcee	0.037777834
60	0x3da397a8	0.079879105
61	0x3d7f0368	0.062259108
62	0x3e7d8c38	0.2476052
63	0x3de5d051	0.11221374
64	0xbcd85d13	-0.026411569
65	0x3e190ee8	0.14947093
66	0x3d3c3733	0.04595108
67	0x3c76fbca	0.01507468
68	0x3d708c52	0.05872757
69	0x3e580980	0.21097374
70	0xbe7bdf4b	-0.24596898
71	0x3d8b6f39	0.068083234
72	0x3dc25732	0.094892874
73	0x3e639770	0.22225738
74	0x3e1b6c9f	0.15178154
75	0x3cf2458a	0.029574174
76	0x3da1169e	0.07865642
77	0xbddacb74	-0.10683337
78	0x3da69fbc	0.08135936
79	0xbd87997c	-0.06621072
80	0xbe24ed1d	-0.16106077
81	0xbecd4ea1	-0.40099052
82	0xbe06c9b4	-0.13162881
83	0xbded9759	-0.11601133
84	0xbe42b1b9	-0.19013108
85	0xbf0e556d	-0.555991
86	0xbe8ce594	-0.27518904
87	0xbdf4e563	-0.119578145
88	0xbe8d7887	-0.27631018
89	0xbe9b2311	-0.3030019
90	0xbe2d4eac	-0.16924542
91	0xbc0fb317	-0.008770726
92	0xbe2c246f	-0.16810773
93	0xbe49264e	-0.19643518
94	0xbda581c8	-0.080813944
95	0x3bf54e2a	0.0074861245
96	0x3d4fb94a	0.050713815
97	0xbd833cdc	-0.064080924
98	0x3b09410d	0.0020943314
99	0x3d85c4be	0.06531666
100	0xbc9ce1f2	-0.019150708
101	0x3dd37c0c	0.103263944
102	0xbd48c83a	-0.049019076
103	0xbe35d9d4	-0.17758876
104	0x3e231de8	0.15929377
105	0x3d8800f7	0.06640809
106	0x3d5eaec4	0.05436589
107	0xbd080d6c	-0.033215925
108	0x3cef77a5	0.029231856
109	0xbcf7e5c9	-0.030260937
110	0xbc56d5c8	-0.013112493
111	0xbc188ae0	-0.009310454
112	0x3d188b51	0.037242237
113	0x3e20321e	0.15644118
114	0xbdc3bfd8	-0.09558076
115	0x3d8ed7ad	0.06974731
116	0x3e0c8334	0.13721925
117	0x3e9ed516	0.31021947
118	0x3dcd8d9c	0.100367755
119	0x3e076781	0.13223077
120	0xbc922381	-0.017839195
121	0x3de6262d	0.1123775
122	0xbe47b5b8	-0.19502914
123	0x3d86618d	0.06561575
124	0xbc2b95b8	-0.010472707
125	0x3d8ad4a7	0.067788415
126	0x3e1625df	0.14662884
127	0xbc1755b1	-0.009236739
128	0x3d949929	0.072557755
129	0x3c883a53	0.016629374
130	0xbd0278c6	-0.03185346
131	0x3cece6fd	0.028918738
132	0xbd0bdce2	-0.034146197
133	0x3d8b6892	0.068070546
134	0xbd85c8d7	-0.06532448
135	0x3da9c1ba	0.082889035
136	0x3dadcf55	0.08486811
137	0x3d589489	0.05287603
138	0xbdc021e0	-0.09381461
139	0x3cd8134c	0.026376389
140	0xbc95cc63	-0.018285936
141	0x3d62bec7	0.05535772
142	0xbd954a3c	-0.0728955
143	0x3c0e764e	0.008695198
144	0xbbb4169e	-0.0054958602
145	0x3cc5d693	0.024150169
146	0x3dba8596	0.09107511
147	0x39226cbd	0.00015490032
148	0xbbf357e4	-0.007426249
149	0x3d4f968f	0.050680693
150	0x3cc4e32c	0.024034105
151	0xbb77e292	-0.0037824255
152	0x3d8958de	0.06706403
153	0xbcfdacc2	-0.030966166
154	0x3da96eab	0.08273061
155	0x3d86df82	0.065855995
156	0xbc364907	-0.0111258095
157	0x3d2d5fe7	0.042327788
158	0xbc82c3be	-0.015962478
159	0x3c7b8007	0.015350348
160	0x3c3a4044	0.011367861
161	0x3cf34e14	0.029700316
162	0xbd9f1b8f	-0.07768928
163	0x3ca69298	0.020333573
164	0x3db84955	0.08998362
165	0xbc9ef7e8	-0.01940532
166	0x3d64cd45	0.055859823
167	0x3d8ad79e	0.06779407
168	0x3d8da33a	0.069158986
169	0xbd2f54fd	-0.04280566
170	0xb909be84	-0.00013136311
171	0xbd3fa73e	-0.046790354
172	0xbd26dbb9	-0.040736888
173	0x3c3e91c6	0.011631435
174	0x3c4c5d13	0.0124733625
175	0xbdb23e06	-0.08703236
176	0xbcf5c5a7	-0.030001475
177	0x3da6aef8	0.081388414
178	0x3ccd50a6	0.02506287
179	0xbda14270	-0.07874
180	0xbd516bf6	-0.05112835
181	0x3da54261	0.080693014
182	0x3d9074a5	0.07053498
183	0xbc2309e7	-0.009951091
184	0xbcf0ce02	-0.029395107
185	0xbd4ef369	-0.050525103
186	0xbc62121c	-0.013798263
187	0x3d8061e1	0.06268669
188	0x3c9aa4f8	0.018877491
189	0x3cf08afd	0.02936315
190	0xbcbcfb92	-0.023069177
191	0x3c88e1f8	0.016709313
192	0xbd3f3f76	-0.04669138
193	0x3cdf9b2b	0.02729567
194	0x3d5d3883	0.054008972
195	0xbd31ed28	-0.04343906
196	0x3d746bca	0.05967311
197	0x3d654ae4	0.055979624
198	0xbd28cb5d	-0.041209567
199	0xbd4d725a	-0.050157882
200	0x3d04cafd	0.032420147
201	0xbd474bbf	-0.04865622
202	0xbc8c6f51	-0.017142924
203	0xbd38d65c	-0.045126304
204	0xbd51dcfb	-0.051236134
205	0xbd664456	-0.056217514
206	0x3ccd4cbe	0.025061008
207	0x3d86456f	0.06556212
208	0xbcd452be	-0.02591836
209	0xbd6ddc1f	-0.058071252
210	0x3d3646a3	0.04450096
211	0x3d2b7c43	0.041866552
212	0xbd8fc727	-0.07020407
213	0x3d8cc5f3	0.06873693
214	0x3d921bfc	0.07134244
215	0xbc7ce8e5	-0.015436386
216	0x3d8efdc0	0.06981993
217	0xbd977690	-0.07395661
218	0xbcf3235a	-0.029679943
219	0x3d55da64	0.052210227
220	0xbd6ff599	-0.05858383
221	0x3d8d904a	0.069122866
222	0x3cdb9a08	0.026806846
223	0xbda67a91	-0.081288464
224	0x3c85afec	0.016319238
225	0xbd2b03ff	-0.041751858
226	0xbca7cb99	-0.020482825
227	0x3cb17850	0.021663815
228	0xbd33012f	-0.0437023
229	0x3d485766	0.048911475
230	0xbcdaccbb	-0.026708951
231	0xbd08f6fd	-0.03343867
232	0xbd71e945	-0.059060354
233	0xbd9ea228	-0.077457726
234	0x3d073a5a	0.033014633
235	0x3bccfb00	0.0062555075
236	0xbd8637ef	-0.06553637
237	0xbd0c7451	-0.034290615
238	0x3d783c2d	0.060604263
239	0x3d08f8e0	0.03344047
240	0x3a9bdb69	0.0011890951
241	0xbd9cc97c	-0.076556176
242	0xbd580a6a	-0.052744307
243	0x3daa8735	0.0832657
244	0xbd714ca7	-0.058910992
245	0x3c72a7a7	0.014810479
246	0xbb86e2ea	-0.0041164057
247	0x3cdcb604	0.02694226
248	0xbbfcb2a2	-0.0077117244
249	0xbd2a3904	-0.04155828
250	0x3d849e49	0.06475503
251	0xbd75d0a2	-0.06001342
252	0x3db0f109	0.08639724
253	0x3ca19d1d	0.019728238
254	0xbd918413	-0.07105269
255	0x3dac13af	0.08402192

netup3.COV1.0.conv_tran_i.bias f4 [8]
0	0xbd5dbd8d	-0.054135848
1	0xbd596dd4	-0.053083256
2	0xbd18a987	-0.03727105
3	0x3d13a51d	0.036046136
4	0xbd5431ed	-0.051805425
5	0xbd32f147	-0.04368713
6	0x3d1464e3	0.036229026
7	0x3ca610b1	0.020271631
