CCNN-CGH/CCNN-CGH V1.5/proposedstate.pth (torch, 189629 bytes, 48 tensors)

net1.netdown1.COV1.0.conv_r.weight f4 [4, 1, 3, 3]
000000 ba 53 cd 3d 5f 5d ea 3d eb 30 46 be 71 d3 2f 3e
       0.10025735 0.114435904 -0.19354598 0.17170502
000010 01 e3 68 be f5 ce ea bd 4e ac bf 3c 2a e8 7b bd
       -0.22742845 -0.11465255 0.023397591 -0.061500706
000020 53 4f 0d 3e 5f 59 99 bd 0f 19 13 3d 42 33 06 be
       0.13799791 -0.07487749 0.03591257 -0.13105491
000030 3b 06 86 be 69 e0 80 3e 8b 52 92 bd cc bf 0b be
       -0.26176628 0.2517121 -0.0714465 -0.13647383
000040 5c 2b 1c 3d 48 59 41 bd ba 72 35 3d f2 76 8d be
       0.03812729 -0.047204286 0.044298865 -0.2762981
000050 17 6d 75 bc 00 6c 95 3d d9 6b c0 bc c5 01 7a 3e
       -0.014979622 0.0729599 -0.023488926 0.24414738
000060 7a db 51 3d 70 2f 3a 3e 4f 8f ec bd 93 de 1f be
       0.0512347 0.18182158 -0.115507714 -0.15612249
000070 60 67 1f be a6 9b 2a be 06 0c 8d be 1c e8 8d bd
       -0.15566778 -0.16660938 -0.27548236 -0.06929037
000080 f2 de 43 3e be 8e 46 be b4 64 e3 3d e6 84 3e be
       0.19128016 -0.1939039 0.11103192 -0.18605384

net1.netdown1.COV1.0.conv_r.bias f4 [4]
000000 d6 4b 93 be 37 c1 da 3e 9b a3 2e be 24 72 2f be
       -0.28768796 0.42725536 -0.17054598 -0.17133385

net1.netdown1.COV1.0.conv_i.weight f4 [4, 1, 3, 3]
000000 0d 34 a4 be 78 bf 95 be fe b3 81 3e 6f 85 89 bc
       -0.32070962 -0.29247642 0.25332636 -0.016787259
000010 f9 98 35 be 92 af 34 3e 9f 2f 1d 3e 39 04 39 be
       -0.17734136 0.176451 0.15350197 -0.18068017
000020 95 fb 9a bc 3b 24 a9 3d a1 3e 05 3e 1b a5 99 3e
       -0.018918792 0.082588635 0.13012172 0.30008778
000030 3f 50 ef bd d5 ed 4a 3e dd ef 4c 3e 15 cf ab be
       -0.116852276 0.19817288 0.20013376 -0.3355643
000040 61 4c b9 3b 58 a6 40 3d b6 f8 ab 3e 38 57 3f 3e
       0.005654857 0.047033638 0.3358819 0.18685615
000050 8a 69 30 3d cb 5e 43 3e f3 df ee 3e a3 2b 8b ba
       0.0430694 0.1907913 0.46655235 -0.0010617863
000060 55 7d 66 3c 43 98 08 3e 83 94 8b 3e c1 da 3e 3e
       0.014067967 0.13339333 0.27261743 0.18638135
000070 dd d3 bd 3c e2 8f a4 3e 1b d1 24 3e e5 a2 01 3d
       0.023172313 0.32141024 0.16095392 0.03164949
000080 ef 23 c6 3e 67 38 cf 3e e3 17 9a 3e c5 83 7a be
       0.3869929 0.4047272 0.3009635 -0.24464329

net1.netdown1.COV1.0.conv_i.bias f4 [4]
000000 2a a1 dc bc 4d 00 fd 3d f9 83 0b 3e 5b 37 44 3e
       -0.026932318 0.12353573 0.13624562 0.19161741

net1.netdown2.COV1.0.conv_r.weight f4 [8, 4, 3, 3]
000000 c4 0b 1a be 50 f4 02 be bc 8a 01 be b0 58 24 bd
       -0.1504355 -0.1278851 -0.12650579 -0.04012364
000010 a0 45 1f 3d 62 ed e8 bd 22 b5 e7 3d e0 49 1f be
       0.03888476 -0.11373402 0.11313845 -0.15555525
000020 46 f5 00 3e d0 ea 1e be 47 50 c7 3d 52 72 01 be
       0.12593564 -0.15519261 0.097321086 -0.12641266
000030 a0 bb cc bd ff cf 81 bc b1 58 29 3d 30 1e 17 3c
       -0.09996724 -0.01584625 0.04134435 0.009223506
000040 b1 d3 51 bd d0 7c 00 be b8 0f cd bd b9 d6 b6 bd
       -0.051227275 -0.12547612 -0.10012764 -0.08927674
000050 97 31 9b 3d 13 f7 fb bd 11 98 87 bd 8a 4d 9c bd
       0.07577818 -0.12302985 -0.06620801 -0.07631977
000060 60 ed 87 bc ab 2e 88 3c 63 bd 83 bd 0f b7 18 be
       -0.016592681 0.016623816 -0.06432607 -0.14913581
000070 c0 99 e5 3c c5 f2 8d 3d 73 20 24 3e 6b 3c a5 3d
       0.028027415 0.0693107 0.16028003 0.080681644
000080 25 33 c0 3d 1b 8c b9 bd d6 8b 20 be ff ed 1c be
       0.09384755 -0.09059926 -0.15678343 -0.15325163
000090 3a 1a dc 3c 4b be ab bd 05 e9 dc bc 41 dd fd 3d
       0.026867975 -0.08385905 -0.026966581 0.123957165
0000a0 f4 42 a2 3c 3b cd 6d 3d eb 38 82 3d 80 46 d4 3c
       0.019807316 0.05805705 0.063585125 0.025912523
0000b0 03 55 b4 3d 33 8b a0 be f0 aa 2e 3d b7 d5 b8 bd
       0.08805277 -0.313562 0.042643487 -0.09025138
0000c0 a7 1a 1b be 97 ca 2f 3e 24 f2 db 3d 11 ef 54 be
       -0.15146886 0.17167126 0.10739544 -0.20794322
0000d0 3a 66 98 3e 61 33 80 bd f3 76 56 3c f4 5e 32 be
       0.29765493 -0.062598 0.013089883 -0.17419034
0000e0 8d 6a 22 bd 53 6f 15 3e 97 9c 29 3c 03 99 7b bd
       -0.039652396 0.14593248 0.010352275 -0.06142522
0000f0 81 c3 37 bd 52 91 5a be 01 23 af bd ed d6 19 bf
       -0.04486418 -0.21344498 -0.08551598 -0.60093576
000100 d7 f2 19 bd 43 ec b6 3d 4c 85 ff be a4 76 0a 3b
       -0.037585106 0.08931782 -0.49906385 0.0021127844
000110 ff b8 44 3d dc e2 0a bf 60 19 b6 bd 34 f0 24 bd
       0.04802799 -0.5425241 -0.08891559 -0.040268138
000120 8e 0f e2 ba 48 c1 7c 3d bd df fd 3d a2 10 f1 bd
       -0.0017247067 0.061707765 0.1239619 -0.117707506
000130 27 4c 87 bd 45 3f a7 3d 0c a0 36 be 2a 61 0b be
       -0.06606322 0.081663646 -0.1783449 -0.13611284
000140 45 a0 b7 3b aa 1e 92 bd 08 78 92 3c 28 55 07 3c
       0.0056038224 -0.07134755 0.017879501 0.008260049
000150 af ab e3 bd e9 5a b6 3d 4b 9a 69 3d e7 66 d2 bd
       -0.111167304 0.089040585 0.05703191 -0.10273533
000160 18 c9 11 be a1 ec 1e bd f6 45 b3 bd 54 a5 21 bd
       -0.14236867 -0.038799886 -0.08753578 -0.03946431
000170 e1 e2 e6 3c 14 14 61 bd db 57 0c 3e 6b 73 77 3d
       0.028184356 -0.05495079 0.13705389 0.060412806
000180 1e b4 1b be 01 4f 18 be 81 25 32 be 6f 01 a8 3d
       -0.15205428 -0.14873888 -0.17397119 0.082033984
000190 2b 71 4f bd 4a 3e 5e be e6 42 d6 3d 4b e5 ef bd
       -0.050645035 -0.21703449 0.104619786 -0.11713656
0001a0 72 c1 17 be 79 3d 5d be 56 17 51 3c 04 db d4 bd
       -0.14819887 -0.21605481 0.012761911 -0.103933364
0001b0 e0 08 78 bd 52 19 83 3d 99 50 2d bd ce 5b bd bd
       -0.06055534 0.06401314 -0.042313192 -0.09246026
0001c0 cc ed b4 3c 5f a9 03 be 35 ad 5f bd 4d e0 7c 3d
       0.022086047 -0.12857579 -0.054608542 0.061737347
0001d0 26 d5 26 3d 16 01 a7 3d a8 7b 54 3e cf e0 87 3d
       0.040730618 0.08154504 0.20750296 0.06634676
0001e0 18 75 ae 3d 6f 4a f9 bb 6f 14 1d 3d 63 a3 a4 3d
       0.085184276 -0.00760775 0.038349565 0.08038976
0001f0 5d 6a 1a be 56 b5 e5 bd 99 3c 59 be 0b a9 49 be
       -0.15079637 -0.11216228 -0.21214522 -0.19693391
000200 4f 34 fc be 78 48 43 be fe c0 28 be 37 5d 38 be
       -0.49258658 -0.19070613 -0.1647987 -0.18004309
000210 ce 92 28 be e4 b7 92 bd f9 84 b8 be f1 53 86 be
       -0.16462252 -0.071639806 -0.3603895 -0.26235917
000220 86 b3 7e be 13 05 e5 bd 5f 17 c7 bd d9 00 3d be
       -0.2487317 -0.111826085 -0.097212546 -0.18457355
000230 4d f7 04 be d9 7b 26 be 3f a6 bd bd e2 2c 8c be
       -0.12984963 -0.16258182 -0.092602246 -0.27377993
000240 c1 f0 da 3d 12 e6 76 3e 63 7d e3 3d 36 f2 04 3d
       0.106904514 0.24111202 0.111079 0.032457553
000250 47 16 4a 3e b6 61 1b 3e 7b e9 69 3e c7 fe e5 bc
       0.1973506 0.15173993 0.22842972 -0.028075589
000260 d4 e7 40 3e 38 38 5e 3d 17 1d 53 bd 4b 16 be 3d
       0.18838435 0.054252833 -0.051541414 0.09281596
000270 35 97 1e be e1 34 21 be 29 03 3b 3d c0 0a bb bd
       -0.15487368 -0.15742828 0.04565731 -0.0913291
000280 9d ee ce bd cf 5e 3f be 7e 3b d7 bb 67 6a 7c 3b
       -0.101041056 -0.1868851 -0.0065683713 0.003851557
000290 b9 89 3d bc ca a8 17 bd d9 68 92 3d 94 23 50 3e
       -0.01156848 -0.037026204 0.07148904 0.20326072
0002a0 22 c0 3e 3e f2 dd 31 3e 39 01 3e 3e e5 58 c5 3d
       0.1862798 0.17369822 0.18555154 0.09636096
0002b0 43 7f 51 3e 78 08 e2 ba 55 01 18 3e 38 9d 4c 3e
       0.20458703 -0.0017244956 0.14844258 0.19981849
0002c0 dd f1 4b 3d 60 a8 1f 3e b4 f7 c1 3d 00 ec a9 bd
       0.049791206 0.15591574 0.09471074 -0.082969666
0002d0 51 7c cd bd ce e2 14 be 1c ab 30 3d 19 28 50 3d
       -0.10033477 -0.14539644 0.043131933 0.05081949
0002e0 13 70 ff bb ea e3 9f 3e 9d 5f 24 3e 75 7c 12 3d
       -0.0077953427 0.31228572 0.16052099 0.035763223
0002f0 d3 23 10 3e 82 a0 1e 3e a5 f4 2d 3e 20 9b 9c 3d
       0.14076166 0.15490916 0.16987856 0.07646775
000300 93 6d fc 3d df 93 04 3e 54 47 c5 3c 99 e4 ae bd
       0.12325587 0.12947033 0.024081863 -0.08539695
000310 be b7 3b 3d d5 29 3f be 72 1c fc bd 0c 87 4c be
       0.045829527 -0.18668301 -0.12310113 -0.19973391
000320 98 96 c8 bd ad c6 ba 3c 5f b8 53 be 8a 6c 69 be
       -0.097943485 0.022799814 -0.206758 -0.2279531
000330 a0 dc 88 bc 0b eb 69 be c2 e2 be bd fe 16 c4 bd
       -0.016706765 -0.22843568 -0.09320594 -0.09574698
000340 89 48 7c be 1c 35 c4 bd 78 a0 7f bd 22 6e 25 3d
       -0.24637045 -0.09580442 -0.062408894 0.040388234
000350 7d d3 14 bc f1 b7 3b be 59 04 08 be 0a a9 2b bd
       -0.009083626 -0.18331887 -0.13282908 -0.041909255
000360 df fb b8 bd ec 77 2f 3e c4 8c 63 3d 02 8b ff 3d
       -0.090324156 0.1713559 0.055554166 0.124776855
000370 9c 96 6d bc cc f2 26 3e d4 61 d4 3d cb 81 51 bd
       -0.01450124 0.16303557 0.10370222 -0.05114917
000380 ea b7 18 3d b1 23 09 be d1 75 10 bd 5d 94 0c bd
       0.03728477 -0.13392521 -0.03526861 -0.034321178
000390 d9 51 5b be fd f1 9d bd a7 7d 04 be c5 a2 e6 bd
       -0.21417941 -0.07712171 -0.12938558 -0.112615146
0003a0 03 ee a8 bd 14 3f 14 bd ab 42 1f bd 07 e3 4f bd
       -0.08248522 -0.03619297 -0.03888194 -0.05075362
0003b0 b3 0d 4d bd d3 56 1d 3e 04 28 3b 3e c9 21 d7 bd
       -0.050061893 0.15365152 0.18276983 -0.10504491
0003c0 1c ea 33 3b 28 17 9d 3d a1 b0 0c be 85 a8 bf 3d
       0.0027452772 0.07670432 -0.13739254 0.093583144
0003d0 ce e4 3b bd 04 cd 4a bd e0 d0 aa bc 2c d2 d5 bd
       -0.045872502 -0.049511924 -0.020851552 -0.10440478
0003e0 76 0e da bd 20 7c 0b 3e aa 55 95 3d 68 5f 28 be
       -0.106472895 0.13621569 0.0729173 -0.16442645
0003f0 ea e1 d6 bd 5d 82 c8 3d 2b 80 27 be b1 e4 1a 3e
       -0.104923084 0.0979049 -0.16357486 0.15126301

net1.netdown2.COV1.0.conv_r.bias f4 [8]
000000 ba 5a b4 bd 16 dc 52 3d e6 da 93 bb fa f3 1a 3e
       -0.08806367 0.05147942 -0.0045121787 0.15132132
000010 72 ad a8 be 7c a5 82 3b fd 50 47 3c 91 ef 90 bd
       -0.32944828 0.0039870124 0.012165305 -0.07076944

net1.netdown2.COV1.0.conv_i.weight f4 [8, 4, 3, 3]
000000 a8 90 91 3d a5 ec 04 3e 34 42 99 bd e0 f0 b9 bb
       0.07107669 0.12980898 -0.0748333 -0.0056744665
000010 51 9a 1b 3e e2 f6 ce 3d ba a7 90 3d 4c 17 48 3d
       0.15195586 0.10105683 0.07063241 0.048850343
000020 dc 96 0d be e2 6a 0c be d5 1b 6d bd 19 70 33 3d
       -0.1382708 -0.13712648 -0.05788787 0.043808077
000030 28 4c a8 3c 9d dc 39 3d 1f d1 25 3e 38 17 92 3d
       0.020544127 0.04537641 0.16193055 0.07133335
000040 8f fd 5b bd 01 b7 9e 3d ca b4 c7 3d 10 f3 42 3d
       -0.05370861 0.07749749 0.0975128 0.047595084
000050 8f 36 17 be f0 99 2f bc 2e 26 97 bd f2 b1 cf 3d
       -0.14766906 -0.010717854 -0.07380329 0.10141362
000060 20 50 19 be 2e 3d 8f bd d7 81 75 3d 08 99 c3 3c
       -0.14971972 -0.06994091 0.059938278 0.023876682
000070 2f 85 1f 3e 31 db ac 3d ea 6c 8a 3d 2f d2 c2 bd
       0.1557815 0.08440245 0.06759055 -0.095127456
000080 ef 74 09 be 3b 75 1e 3e 04 40 1a 3e 99 67 dc bd
       -0.13423513 0.15474407 0.15063483 -0.10761947
000090 9a 38 2d bd 51 23 4a 3d e4 3b 07 be 8f c4 26 be
       -0.042290308 0.049350087 -0.1320644 -0.16285919
0000a0 54 23 0b be 14 b4 a7 3a 68 86 d5 3d 62 25 9a bd
       -0.13587695 0.0012794756 0.104260266 -0.075266615
0000b0 18 97 48 be 01 b8 55 3e 75 8c 0a 3e 7b 2a 93 3c
       -0.19588888 0.20870973 0.13530143 0.017964592
0000c0 e3 df 94 3d 7c d0 25 be fe ef 8c bd b1 ca ed 3d
       0.072692655 -0.16192812 -0.068817124 0.11610926
0000d0 6e 24 ce bd ef 75 15 be c8 ec e7 3e 26 3e 96 bd
       -0.10065542 -0.1459577 0.45297837 -0.073360726
0000e0 68 6e c2 3c 96 89 1a bd e5 68 10 3e ee af 1e 3e
       0.023734286 -0.03772887 0.14102514 0.154968
0000f0 d4 29 3d 3d ae f9 56 be 0e b5 84 3d 0c ee 28 3e
       0.04618247 -0.20993683 0.06479846 0.16497058
000100 92 80 65 3e 21 97 54 3c 87 7d 31 3e 80 65 c1 bc
       0.22412327 0.012975485 0.17333041 -0.02360797
000110 db e4 e5 bc 21 ae b8 bc 14 2b 0e 3d 91 ac 4c be
       -0.028063228 -0.022543969 0.03470905 -0.19987704
000120 6f 19 89 3d e5 e5 55 3d 2e 8c 91 3c ba ab f8 bd
       0.06694304 0.052221198 0.017767038 -0.12142129
000130 5d 2c 00 3e de 5e 43 bc df 30 91 bd a8 49 35 be
       0.12516923 -0.011924474 -0.070893995 -0.17703879
000140 b3 65 2b be 68 e3 16 3e 1c 53 cf bd 73 59 c5 bc
       -0.16738014 0.14735186 -0.10123274 -0.024090504
000150 fb 12 37 be 32 87 16 be f4 d9 e7 3d fc 8e 7c 3d
       -0.17878334 -0.1470001 0.11320868 0.061659798
000160 e1 80 05 be 24 77 cb 3d b8 7a fd 3d 36 19 5e 3e
       -0.13037445 0.09934834 0.12376922 0.21689305
000170 08 8c b3 bc 4f cc b6 bd c0 34 b2 bd 37 c1 9b 3d
       -0.021917358 -0.089256875 -0.087014675 0.07605212
000180 b4 40 21 3e 5b a1 74 3e 7a d9 b5 3d 7d 03 ad 3d
       0.15747339 0.23889677 0.08879371 0.08447931
000190 4c de 3c 3d ab 4c 4d bc 4b a8 10 be fd af b6 3d
       0.046110436 -0.012530486 -0.14126699 0.08920286
0001a0 5e e6 06 be f1 94 95 bd 12 04 05 be 17 54 38 3e
       -0.13173816 -0.07303799 -0.12989834 0.18000828
0001b0 29 48 e8 bd a7 bb fa bd 1a b2 24 be 45 e2 a6 bd
       -0.113418885 -0.12242823 -0.16083565 -0.08148626
0001c0 4a 96 58 3d d8 07 82 3d fe 85 a6 3d 0b ca 36 be
       0.0528777 0.06349152 0.08131026 -0.17850511
0001d0 b8 9e b3 3c ff bb 30 bd 42 66 70 bd 6f 0d ea 3d
       0.021926269 -0.043148037 -0.05869127 0.114283435
0001e0 ca 25 2a 3e cd 82 44 3e 07 d3 45 3e 63 96 9b 3c
       0.16615978 0.19190522 0.19318782 0.018992608
0001f0 74 f0 82 bd 1d 65 33 3e a7 78 ea 3d ab 56 58 bd
       -0.06393519 0.1751904 0.11448794 -0.052817028
000200 53 18 b8 3d 40 a1 8c bd 3a c0 cf bd 0f 37 0e bc
       0.089890145 -0.068666935 -0.10144086 -0.008680119
000210 1e a3 c3 3d 59 a3 f6 3d bc 1d 93 3d 52 9f 3d bc
       0.095525965 0.12042875 0.07183406 -0.011573629
000220 9f ba c5 bd 13 78 ae 3b 2f 33 64 3d e3 f8 13 be
       -0.09654736 0.0053243726 0.055712875 -0.14450411
000230 94 02 32 3e 1a 96 13 3d 8f 16 00 be 02 c7 b6 3d
       0.17383796 0.03603182 -0.12508605 0.089246765
000240 1d 63 1a 3e be 72 d6 3d b3 83 bb 3c de e4 23 3e
       0.15076871 0.10471104 0.022889948 0.16005275
000250 43 9b 27 3e 46 de 6d 3c d7 e5 26 3e de c6 e1 bd
       0.16367821 0.014518326 0.16298614 -0.11024259
000260 f6 b0 2a bd d7 c2 a9 bc 43 0d 9e bd 42 be 06 be
       -0.04167267 -0.02072279 -0.07717373 -0.13158515
000270 b0 ef 93 bd 2a 7d 36 3d 67 e7 83 bd 1d d8 58 be
       -0.07223451 0.04455296 -0.06440621 -0.2117619
000280 d3 36 14 3e 96 bf 93 3d e3 ab f4 3d 45 98 26 3e
       0.14474039 0.072142765 0.11946847 0.16269024
000290 b7 9d 74 3e 55 f0 76 3c 91 37 bb 3d 7b 9c 96 3d
       0.23888288 0.015071948 0.09141458 0.07354065
0002a0 60 1a 74 3e e4 dc 95 3e cb c1 22 3e 6d de 80 3d
       0.23838186 0.2927009 0.15894239 0.06292424
0002b0 cc 48 ea 3d d3 30 60 3e 24 20 f0 bd e2 93 3e 3d
       0.11439666 0.21893625 -0.1172488 0.04652775
0002c0 51 0b 36 3e 58 6e da bd ab d7 f9 3d 19 db 36 3e
       0.17777754 -0.10665578 0.121993385 0.17857017
0002d0 ca 3e 81 bd b0 62 99 3d 3c 80 c0 bd 40 f8 0c be
       -0.06310804 0.07489526 -0.09399459 -0.13766575
0002e0 da 4e fd 3b a2 4a a3 bd d6 31 de bc 2d 25 83 3d
       0.007730347 -0.079732195 -0.027123373 0.06403575
0002f0 95 4b 00 3e 1e 1e 1e 3e 72 03 a7 3d 30 b7 32 bd
       0.12528832 0.15441176 0.08154954 -0.043631732
000300 2f df e9 3d 7d b2 0d be 99 8d 03 bc ce 8e 0e bd
       0.11419522 -0.13837619 -0.008029365 -0.034804158
000310 26 52 08 be ba b1 d7 3d ee 7d 28 3e 37 ce 0d 3c
       -0.13312587 0.105319455 0.16454288 0.0086551225
000320 03 1b 95 bc 75 0b 29 3e bd f4 9d bd e4 97 f2 3d
       -0.018201357 0.16508277 -0.07712696 0.11845377
000330 0c 6f e9 bd ce cf 66 be ff 1c 9b 3d b6 03 0e 3e
       -0.11398134 -0.22540209 0.0757389 0.13868603
000340 79 3e 94 3e 98 5d 08 3e 89 9e 80 3e 19 58 ee 3d
       0.28953913 0.13316953 0.25120953 0.11637897
000350 69 91 2c be 89 85 2d 3e b6 1d 2d be af 32 be bc
       -0.16852345 0.16945471 -0.16905865 -0.023217527
000360 09 b9 b3 bd 5e a1 a0 3d 24 8b 22 bd 6a 7f 03 3d
       -0.08775527 0.07843278 -0.039683476 0.032103933
000370 0e ed 04 be e8 3a de 3c 10 0f be 3d 6a 2e e2 3d
       -0.12981054 0.027127698 0.09280217 0.11044009
000380 6a 88 ec 3d df 9a 98 3d 81 cc 04 be bf 20 9f 3d
       0.115494564 0.07451414 -0.12968637 0.07769918
000390 7f 61 c6 bc c3 7a b9 3d 8a 6e 5a 3e ae ff 38 bd
       -0.024216412 0.09056618 0.2133123 -0.04516571
0003a0 22 39 e8 bd 4d 13 2f 3c f0 70 02 3d f0 d6 62 be
       -0.11339022 0.010685754 0.031845987 -0.22152305
0003b0 b0 a1 ec 3d 58 5a 31 bd a6 35 f8 bd 4d 0e fc 3d
       0.11554277 -0.04329905 -0.121196076 0.12307415
0003c0 74 4a ec 3d 11 5e 21 be 45 3e ae 3d bd 31 88 bd
       0.11537638 -0.1575854 0.08507971 -0.06650112
0003d0 a0 0f c4 3d d3 7f fb 3d fd 87 00 3e bb 2a 2f be
       0.09573293 0.1228024 0.12551875 -0.17106144
0003e0 0d 24 d3 3b d1 1b a5 3d 57 d1 11 3e ee e9 03 3a
       0.0064435066 0.08061946 0.14240013 0.00050321117
0003f0 d1 e0 db bd 78 82 96 bd 4d 31 c0 bc 62 7f cc bd
       -0.1073624 -0.07349104 -0.023461008 -0.09985234

net1.netdown2.COV1.0.conv_i.bias f4 [8]
000000 31 17 9b b9 5f 60 ef 3b 03 89 a5 3d 90 57 ce bc
       -0.00029581183 0.0073051895 0.080827735 -0.025188237
000010 50 ce 92 be 8f 50 12 3d 67 a0 11 3d 81 9c 17 3c
       -0.2867303 0.035721358 0.035553362 0.009253622

net1.netdown3.COV1.0.conv_r.weight f4 [16, 8, 3, 3]
000000 ef 60 db 3d ca 4a 13 bd fc 9e 9b bd 54 c8 98 3c
       0.10711848 -0.035959996 -0.07598683 0.018650211
000010 18 1a 1e bd a8 22 a4 bd 49 22 8f 3d 3e 26 d5 3c
       -0.038599104 -0.08014423 0.06988961 0.026019212
000020 6d f2 dc 3d 41 58 0e 3e 71 a4 95 3e 77 25 08 3e
       0.107884265 0.13900854 0.2922702 0.13295542
000030 08 6e 12 be 43 43 30 3e 70 7d e8 bd 66 8d 70 3e
       -0.14299786 0.17213158 -0.1135205 0.23491439
000040 b4 17 17 3e 0d 68 15 3e 37 2f 9e bd 9a 54 1c bd
       0.14755136 0.14590473 -0.07723849 -0.03816662
000050 bb 1f 75 3c 70 87 87 be bd b5 76 3d 77 7c 1b 3e
       0.014961178 -0.26470518 0.060231913 0.15184198
000060 ed cd 12 be 0f ed e5 3d 9a a3 2d bd 84 ee 8d bd
       -0.14336367 0.11226856 -0.04239235 -0.06930259
000070 c5 12 a4 bc b8 c7 75 bb f5 97 34 be b7 9a 1b bb
       -0.020028481 -0.0037503075 -0.17636092 -0.002374334
000080 5f c1 e6 bc c4 6f 29 be 0d 4d e8 bd 2b 64 b7 bc
       -0.028168378 -0.16546541 -0.11342821 -0.022386631
000090 0e 30 22 be a3 51 5c be d8 81 10 be f9 1a 77 be
       -0.15838644 -0.21515517 -0.14112031 -0.24131383
0000a0 75 c1 73 be 11 ab a0 bd 6c ec e2 bd df df 53 be
       -0.23804267 -0.07845128 -0.1108025 -0.20690869
0000b0 ae aa 78 bd 48 68 56 be 2b 52 8b bc 9b aa f3 bd
       -0.060709648 -0.20938218 -0.017006954 -0.11897775
0000c0 26 6a 85 be f6 f0 b1 3d 31 b6 65 bd ce 8e 71 bd
       -0.26057547 0.08688538 -0.056081954 -0.05897408
0000d0 4a f0 6a 3b 3d 71 70 be be 75 d4 bd ef 8d a0 3e
       0.003584879 -0.23480697 -0.1037402 0.31358287
0000e0 4c 87 4f 3e cb 6b 9e be 67 2d 9d 3e b9 11 22 3e
       0.20266455 -0.30941615 0.30698702 0.15827073
0000f0 0b 61 8b be 53 b0 0e 3e 6d 9a 30 3e a3 cc 0c bd
       -0.27222475 0.1393445 0.17246409 -0.034374844
000100 83 0c 6d bb a6 55 43 be 2f ec ea 3d 8d 25 44 3d
       -0.0036170788 -0.19075641 0.1147083 0.047887374
000110 bd 0d 0d be 44 a8 31 3e 3d 7b c7 3d 9d ec f9 3d
       -0.13774772 0.17349344 0.09740303 0.122033335
000120 68 c0 23 bc 50 c1 20 bd cf 2d 8d 3d cb aa c6 3d
       -0.009994604 -0.039246857 0.06893503 0.09700545
000130 d7 f5 ad bd a4 51 d2 3c 16 8d 5b bd f9 13 86 bd
       -0.08494156 0.025673695 -0.053601347 -0.06546778
000140 93 05 e5 3d 8b db be 3d 4e 37 02 3e d1 4b 97 3d
       0.11182704 0.09319218 0.1271641 0.07387508
000150 06 75 01 3e 94 64 c4 3d dd ef 20 3e 93 c6 ea 3c
       0.12642297 0.09589496 0.157165 0.02865914
000160 de 48 1f 3d 9d 1d ef ba 29 75 02 be ed 88 27 be
       0.03888785 -0.0018243078 -0.12740006 -0.16360827
000170 3f 42 8d bd 1d 8e 14 3d 37 a9 a5 bd 6d 8c eb bc
       -0.06897401 0.036268342 -0.08088916 -0.028753484
000180 14 e2 a3 3c 74 d2 18 be 6f b4 04 be b0 c9 ea ba
       0.020005263 -0.14924031 -0.12959455 -0.0017912891
000190 a2 85 cd bc ce 7d ce 3d 12 e9 2b 3c 5a ef bd bb
       -0.025088135 0.10082589 0.01049258 -0.005796355
0001a0 be a0 54 3c 13 b7 91 3b e3 5b 29 3d 5a b5 21 3d
       0.012977777 0.004446873 0.041347396 0.03947959
0001b0 09 41 07 bc 7c 75 b0 bc 79 4c aa 3d 14 95 08 bd
       -0.008255252 -0.021540396 0.08315367 -0.033345297
0001c0 a7 4b 21 3e 93 66 1b 3e 0c b9 ab bb 6d fd 2a 3e
       0.15751515 0.15175848 -0.005240565 0.16698237
0001d0 05 9d a9 3e 39 c8 22 3d 75 07 75 bb 3e fb 25 bc
       0.3312761 0.03974173 -0.0037388478 -0.010130702
0001e0 0a 44 b3 3d 3a 9c a3 3d 2d e4 54 3d 7b 77 25 be
       0.08753212 0.07988782 0.051975418 -0.1615886
0001f0 a6 80 0e be 8d e1 2d be 6c 16 e3 bc cf 98 80 3c
       -0.13916263 -0.16980572 -0.027720653 0.015697865
000200 43 6f 42 bd 50 47 1e bc cd a3 b6 bd 2e 61 2a be
       -0.04746939 -0.009660557 -0.08917961 -0.16638634
000210 37 59 dc bd e2 0b dd bd 4d 97 81 bc 3b bb 80 3d
       -0.10759204 -0.10793282 -0.015819216 0.062857114
000220 03 48 25 bb 2b bc 6b 3d 84 88 35 3d ac c5 d7 3d
       -0.0025219924 0.057552498 0.044319645 0.1053575
000230 8a dd a9 3d 8e 7d 1d 3e ad 5d 07 3e 3a 02 c3 3d
       0.08294208 0.15379927 0.13219328 0.09521909
000240 30 1b 32 bd 96 19 dc 3c 49 7f ef bd 70 c6 7d bc
       -0.04348296 0.02686767 -0.116941996 -0.015489206
000250 09 01 41 3d a0 1a e8 bd 8a e8 57 3d 41 52 0a 3c
       0.047120128 -0.11333203 0.052712 0.008442462
000260 96 59 3e 3d 87 c7 e8 bd 09 a7 0a 3e 50 ac 42 3d
       0.046472155 -0.11366182 0.13540281 0.04752761
000270 c2 42 e2 bc 94 1a 0c 3e 42 f3 e7 3c 22 ac 87 bd
       -0.027619723 0.13682014 0.028314237 -0.066246286
000280 91 cc 2d 3e d0 1b 79 3e c6 1a 7f bd 0b 5e 9f bd
       0.16972567 0.24327016 -0.062281393 -0.07781609
000290 e0 02 d4 bd c2 ab 07 3d 43 79 7c 3d 96 2f ca 3c
       -0.10352111 0.033122785 0.06163908 0.024680894
0002a0 56 60 b1 bd d4 99 c7 bd 1a bd 11 be 46 8f 72 3e
       -0.08660953 -0.09746137 -0.14232293 0.23687467
0002b0 3c ad a1 3e 01 a6 ee 3e d5 f7 5b 3e 36 99 4d 3e
       0.3157748 0.46611026 0.21481259 0.20077977
0002c0 21 d4 cf 3e af 9d 96 3e 01 9f b0 3e 8f 25 97 3e
       0.4059153 0.29417178 0.3449631 0.29520842
0002d0 5c 3e 43 be 4a 45 e6 be c1 31 e1 be 93 60 7b be
       -0.19066757 -0.44974738 -0.43983272 -0.24548559
0002e0 d1 d2 f5 be 7b 02 be be d8 0b 95 bc e4 5d ff bd
       -0.48012403 -0.37111267 -0.018194124 -0.1246908
0002f0 89 d8 ab bb 7c 48 01 bd e6 96 07 3e c6 e1 49 3c
       -0.005244319 -0.031563267 0.13241157 0.012321895
000300 99 05 81 3c 72 c5 f2 3d 09 db 51 bd 64 c8 4a 3e
       0.01574974 0.11854066 -0.05123428 0.19803005
000310 ab d1 5d bb 15 35 5f 3e 2b b4 80 be 5d 6f 7c be
       -0.0033846896 0.21797593 -0.25137457 -0.24651857
000320 e3 8c 6f be 58 27 e1 bd 5c be 37 be c6 c3 11 be
       -0.23393588 -0.10993832 -0.1794371 -0.14234838
000330 b8 38 54 bd cf 13 d8 bd 6e 8b 7a bd 1a ca b5 3d
       -0.051811904 -0.10550653 -0.061168127 0.088764384
000340 cf 30 9d 3d f3 bd 6e bd 63 6f 05 3e 0a c4 0c 3d
       0.07675325 -0.05828662 0.13030772 0.034366645
000350 d7 52 a9 3d 4a eb 46 3c 60 a3 cc 3c e7 7a f8 bb
       0.082677536 0.012141058 0.024980247 -0.0075830105
000360 d9 b7 af 3d 00 58 a7 bd c8 61 d1 bd 6a 66 16 3d
       0.08579988 -0.081710815 -0.102237284 0.036718763
000370 e0 5f 4a 3c a2 0b 75 3d 4d 00 ed 3d a4 14 b0 bc
       0.01235196 0.059825547 0.11572323 -0.021494217
000380 a4 f0 fb 3c 2e 0f e0 bc d4 78 f4 3c 34 01 a3 bd
       0.030754395 -0.027350988 0.029842772 -0.07959214
000390 9b 5a 81 bd 07 62 4b 3d 0f 90 18 bd 77 a0 de bd
       -0.0631611 0.049654033 -0.03724676 -0.1087045
0003a0 d1 fc a3 bd 82 d4 82 be 79 58 5a bd 96 15 82 3d
       -0.08007205 -0.25552756 -0.05330703 0.063517734
0003b0 3e 24 03 bd 27 19 9c 3b 9d 59 10 3d fd b1 1d 3e
       -0.032016985 0.0047637406 0.035241712 0.15399928
0003c0 77 df 57 3e aa 43 77 3e d9 dd 53 3e be 4f 04 3e
       0.21081339 0.24146906 0.20690097 0.12921044
0003d0 53 c0 d5 bd e2 27 e5 bd 9d 30 f4 3d d5 f1 49 3d
       -0.104370736 -0.11189248 0.11923335 0.049302895
0003e0 4e 1e a2 bd 03 d6 fc bd 56 0f 13 bc 11 92 a5 3d
       -0.079159364 -0.12345507 -0.008975824 0.080845006
0003f0 ab 4f 8e 3c 13 c9 97 bd 43 3d bb 3c 82 37 3d be
       0.017371973 -0.07411399 0.02285636 -0.18478206

net1.netdown3.COV1.0.conv_r.bias f4 [16]
000000 20 26 78 bc 21 23 b3 be 4c f4 8f bd 9c d4 f9 bd
       -0.015145808 -0.3498774 -0.07029018 -0.12198755
000010 b3 9b 80 bd 8c 2b 27 bd ca 53 09 be cc 52 cc bd
       -0.06279697 -0.040813014 -0.13410869 -0.0997673
000020 c8 68 bb bd 48 b3 d9 be 5f 35 65 be db b5 80 bd
       -0.09150845 -0.42519593 -0.2238364 -0.06284686
000030 d3 03 62 3d 4b 4c e5 bc 62 9e 19 bd 81 7c ef bc
       0.05517943 -0.02799048 -0.03750456 -0.029234173

net1.netdown3.COV1.0.conv_i.weight f4 [16, 8, 3, 3]
000000 a0 08 bc 3b 41 10 bd bc c8 93 dd bd b3 ab 9c 3d
       0.005738333 -0.02307904 -0.10819203 0.076499365
000010 ab 3a cc 3d 7b 7a ee 3d 92 f1 25 3d 51 d5 e6 3c
       0.099721275 0.11644455 0.040513583 0.028177889
000020 6c 83 ad 3c 01 e1 2b be 6e 81 4d 3e 4e d6 74 bc
       0.02118083 -0.16785051 0.20068905 -0.014943672
000030 58 4d 04 3c 17 66 4a 3d ff be 53 bd d2 33 82 be
       0.008075081 0.049413767 -0.05169582 -0.2543016
000040 66 8d cb 3d dd 7a 01 be ab 44 44 bc 85 d7 83 3c
       0.09939079 -0.12644525 -0.011979262 0.016093979
000050 a2 79 ed 3b 84 78 bd bd 89 6f 1e 3d 27 97 20 bd
       0.007247166 -0.09251502 0.038680587 -0.03920665
000060 62 7b 32 be 96 e5 82 3d 0e 52 1d be 0a c7 33 3e
       -0.1742988 0.06391446 -0.15363333 0.17556396
000070 79 a6 13 3d 6f 33 04 3d da f4 d0 3d 47 b4 f6 3c
       0.036047433 0.032275613 0.10202952 0.03011526
000080 5b 55 d4 3c 16 1a 98 bc 32 a6 0a 3d 5d 5f 7b bd
       0.025919607 -0.018567126 0.033849902 -0.061370242
000090 27 c4 8c 3e 35 c9 04 bc c0 58 d4 bd 81 85 c6 3e
       0.27493402 -0.008104612 -0.1036849 0.3877373
0000a0 68 bd c1 3d a6 8d 08 be ad e9 6a 3e 17 b3 3b 3d
       0.094599545 -0.13335285 0.22940703 0.04582509
0000b0 23 13 98 be 3f 5a 15 3e b0 8e e6 3c 5f 36 b6 3d
       -0.297021 0.14585207 0.02814421 0.08897089
0000c0 7f e2 a4 3c 22 09 05 3d 63 f8 a3 3b 5d d0 22 bd
       0.020127533 0.032479413 0.0050039752 -0.039749492
0000d0 f3 02 bb bd 0c 5a 8d bd 52 bd db 3c 79 29 26 3e
       -0.09131422 -0.06901941 0.026823673 0.16226758
0000e0 85 76 80 3c 2f ad 0a be c5 f3 db bd 79 a1 b0 38
       0.015681515 -0.13542627 -0.10739855 8.4224106e-05
0000f0 d5 21 1c be 3f ff 9a bd 16 24 2c be 39 f8 40 bd
       -0.15247281 -0.075682156 -0.1681064 -0.047111724
000100 ed 2d 12 3e 7f a9 20 3e d8 e5 83 3e 44 cb 4b 3e
       0.14275332 0.15689658 0.25761294 0.19901758
000110 e0 ef 4c 3e 4b a3 4f be ca 46 a2 bd 24 ca ff bd
       0.2001338 -0.20277135 -0.07923658 -0.12489727
000120 20 39 88 bc 15 b3 21 bc b9 77 c8 3d a7 6c c2 3d
       -0.016628802 -0.009869357 0.0978846 0.0949338
000130 8e 8e 97 3c dd 5d 89 3d 79 a3 95 3d 79 db d4 bd
       0.018500593 0.06707356 0.073065706 -0.103934236
000140 6c da 3a bd 6b 48 85 bd 41 43 17 be 32 28 13 be
       -0.04561846 -0.06507953 -0.14771749 -0.14370802
000150 cf bf 07 3e ea b8 7c 3d 74 51 a6 3d f2 0e e8 3d
       0.13256763 0.061699785 0.08121005 0.113309756
000160 c4 e0 85 3d d9 76 b3 3d ef 41 87 bd 64 92 b8 bd
       0.06537011 0.08762903 -0.06604373 -0.09012297
000170 57 f0 82 bd ff c4 31 be 7b 32 e6 bd d6 b2 46 b9
       -0.063934974 -0.17360304 -0.11240097 -0.00018949373
000180 57 2d 27 bd 40 9a 57 3d 6d 6a 90 3c a5 68 11 bd
       -0.040814724 0.05263734 0.017628873 -0.035500187
000190 6f 4d d0 bd 8e 67 a5 3d 93 ac 47 3d a3 a1 31 3d
       -0.10171019 0.08076392 0.048748564 0.04336704
0001a0 79 ba 50 3d 1e 52 25 be 55 85 01 be 4c 31 3c be
       0.050959084 -0.16144606 -0.12648518 -0.1837818
0001b0 d6 af 81 3e b1 1d eb 3c 23 33 dd bc ed ee 02 bd
       0.25329465 0.028700681 -0.027001923 -0.03196614
0001c0 a1 41 28 3c bf 5e d9 3c ab 27 b4 3d e9 ed 3c 3d
       0.010269553 0.026534436 0.087966286 0.046125326
0001d0 65 72 30 3e da 35 47 bd a8 b2 df bd b0 44 07 bd
       0.17231138 -0.04863534 -0.10922748 -0.03302449
0001e0 01 6d 00 bd e0 3b dd bc a9 32 12 3e e9 8a c5 3d
       -0.031353954 -0.02700609 0.14277138 0.09645636
0001f0 fb 34 c9 3d 00 06 31 3c 39 bf e0 bd 28 14 ee bd
       0.09824558 0.010804653 -0.10973973 -0.11624938
000200 ba 11 c5 bd 69 df 0e 3d 53 fb 98 3b f9 a8 87 bd
       -0.09622522 0.03488103 0.004668632 -0.06624026
000210 a3 28 96 bd ce 8d a3 bd a0 d7 2d 3e 6d 2c 37 3d
       -0.073319696 -0.079860315 0.16976786 0.044720102
000220 c2 4e ac bc a3 14 fd bc dc 55 2b bd 18 ed a5 bd
       -0.021033648 -0.03089363 -0.04182993 -0.08101863
000230 08 5d cc bb a3 e6 4c be d0 0c 8b be 8f 35 14 be
       -0.006236676 -0.20009856 -0.27158213 -0.14473556
000240 85 da 9d bd 32 d5 a4 3d cc 1a db 3c 52 bb 1c 3d
       -0.07707695 0.08048476 0.026746176 0.03826458
000250 0b 36 cd bd de 46 18 bd f0 07 85 bc b4 28 57 bc
       -0.100200735 -0.03717696 -0.016239136 -0.013132263
000260 da 8f 2a 3d ee 4d c6 3d 6e d5 2f 3c a1 71 9f bd
       0.041641094 0.09682833 0.010732038 -0.07785345
000270 f6 75 77 3d 83 2b ee bc f2 de 8b 3d aa fb 93 bd
       0.06041523 -0.029073482 0.06829633 -0.072257355
000280 5c d6 38 be c8 ce b2 bd b3 c4 70 bd d0 01 e4 bc
       -0.18050522 -0.08730847 -0.058781337 -0.027832896
000290 a8 b6 7d bd 0e c5 bc bc 1b e0 0c bc 6e cc e9 bc
       -0.061941773 -0.023043182 -0.008598353 -0.028539862
0002a0 b5 16 91 3d f7 7c 19 3e 5b 00 6c 3e e5 5f 0b be
       0.07084409 0.14989077 0.2304701 -0.136108
0002b0 d8 ef 88 3d 83 26 f4 3d 83 e5 1e be 70 20 f0 bd
       0.066863716 0.11921408 -0.1551724 -0.11724937
0002c0 8d 77 79 bc fc fb b3 bc 88 2c 56 3d 8e 60 21 3e
       -0.015226257 -0.021970741 0.052288562 0.15759489
0002d0 b5 2f 89 bb d1 c9 1d 3d 48 06 6f 3d 3f e3 18 3e
       -0.0041865953 0.038522545 0.0583556 0.14930438
0002e0 5f f6 e3 bc 13 bd 5c bd 08 e9 c8 3d ba 3d 71 bd
       -0.02782744 -0.053891253 0.09810072 -0.058896758
0002f0 c7 7c dc 3d 25 ea 30 be d3 39 91 3d a5 0c f0 bc
       0.10765987 -0.17276819 0.07091107 -0.029302904
000300 83 67 0d be ee 57 9d 3d 6e 3a 59 3e 31 c9 99 be
       -0.13809018 0.07682787 0.21213695 -0.3003631
000310 50 94 49 3e 54 ed f2 3d df c4 6a be 79 22 0d be
       0.19685483 0.11861673 -0.22926663 -0.13782682
000320 6b 91 3b be 8e ed 27 be 0e 5b 49 be 01 b6 7e be
       -0.18317191 -0.16399214 -0.19663641 -0.24874116
000330 93 9a ab bd 55 7c a7 bd 2b d2 65 bd 2b 95 b9 3c
       -0.08379092 -0.08178011 -0.056108635 0.022654137
000340 6d e3 0a be 82 98 f1 bd 7d f4 b4 bd 46 e0 87 bd
       -0.13563319 -0.11796667 -0.08835695 -0.06634574
000350 55 dd 1c 3d 01 36 ab 3c 8e 8d b8 bd 9d f0 b7 3d
       0.038297016 0.020899775 -0.090113744 0.0898144
000360 72 6f 89 bd e9 74 d5 bd 3a fc 24 bd 5c 5f df 3c
       -0.0671071 -0.104226895 -0.040279604 0.02726715
000370 27 8b cd 3d c2 d1 02 bd 00 48 eb bc 42 e7 08 bd
       0.10036307 -0.031938322 -0.028720856 -0.03342367
000380 44 7c db 3c b5 09 ac bd e1 45 a3 bd 70 82 e4 bd
       0.026792653 -0.08400289 -0.07972313 -0.111576915
000390 ad cd 8f bc 2e 68 c0 bc 4a a6 dc 3a f5 9b ad 3d
       -0.017554129 -0.023487177 0.0016834226 0.08477012
0003a0 1d 46 43 bd bd b1 a3 3c 2e ec eb bd 6e dc 55 bd
       -0.047674287 0.019982213 -0.11519657 -0.05221217
0003b0 c7 1d a7 3c 1a 90 1a be 54 a1 59 bb f8 ba 9a bd
       0.020399941 -0.15094033 -0.0033207731 -0.07555193
0003c0 73 2b 5b 3d dc 5a 91 bd 0f f4 94 3c f7 59 da bd
       0.053508233 -0.07097408 0.018182782 -0.10661691
0003d0 7a c2 6a 3c 6a 7b b8 bd eb 5d d0 3b da e3 c9 bc
       0.014328593 -0.09007914 0.006358852 -0.02464478
0003e0 8f fd 63 be e9 ba 65 be 5f 04 41 bd 4d bc b2 be
       -0.22264694 -0.22434582 -0.04712331 -0.34909287
0003f0 53 e0 15 3e 47 32 da 3d 39 3a 83 3d e3 f5 be 3d
       0.14636354 0.10654121 0.064075895 0.09324243

net1.netdown3.COV1.0.conv_i.bias f4 [16]
000000 c2 bd 00 be e0 53 9a be fa b5 92 3c 7d 08 cb bb
       -0.12572387 -0.30142117 0.017909039 -0.0061960802
000010 51 6c e7 3b 31 50 0b 3e e3 c6 e6 bb 43 7f 0a bd
       0.007062473 0.1360481 -0.007042752 -0.033812772
000020 7a 95 1c 3e da 05 55 3e 5a f0 4c 3e 31 b4 67 ba
       0.15291396 0.20803013 0.20013562 -0.00088388013
000030 37 39 26 ba 9c f1 d4 3c 33 91 54 bc 91 75 be bd
       -0.0006340923 0.025994115 -0.012974071 -0.09299768

net1.netdown4.COV1.0.conv_r.weight f4 [32, 16, 3, 3]
000000 a7 77 d8 bd 3d 89 f8 bd e7 9e 15 be 56 fa c5 bc
       -0.10569697 -0.12135551 -0.14611398 -0.024167221
000010 8f 08 97 bc b8 eb c3 bd 78 ff d0 3b 95 a0 96 bd
       -0.018436698 -0.09566444 0.0063781105 -0.07354847
000020 72 dd 62 bd fe ec 23 3c ff 7d b0 3c 62 99 b3 bc
       -0.055386968 0.010005234 0.021544455 -0.021923725
000030 9b e9 1b be 70 3f 63 be aa 97 89 be 85 f8 82 bd
       -0.15225832 -0.22192168 -0.26873523 -0.063950576
000040 bf 46 de bd 2b 4e 6c be 88 94 5c 3e 82 22 d9 3d
       -0.108533375 -0.23076694 0.21541035 0.10602285
000050 dd c9 10 3e 03 2d 44 3e fe c7 2d 3e 11 6c bf 3e
       0.14139505 0.19157796 0.16970822 0.37387136
000060 93 42 20 3e e7 04 84 3e d0 0e 02 3f 85 0e 58 3e
       0.15650396 0.2578499 0.5080385 0.21099289
000070 be 22 54 3c b9 27 1c 3d 70 e1 8a 3e 22 86 13 3e
       0.012947736 0.03812382 0.2712512 0.14406636
000080 20 5f 76 3e 77 8a c2 3d 5f 9d a7 3d fb 8f 50 3d
       0.24059725 0.09499066 0.08184313 0.05091856
000090 07 83 f0 bd 8a f6 ba bd 85 bf 5f be f8 3f 3c be
       -0.117437415 -0.09129055 -0.21850403 -0.18383777
0000a0 c2 11 c5 bd 25 3e 7b be 60 86 63 be 5c 23 61 be
       -0.09622528 -0.24535425 -0.22219229 -0.21986145
0000b0 e2 d9 82 be 5d a9 d4 bd 21 3f 62 bd 8b b0 13 be
       -0.25556856 -0.10383866 -0.055235986 -0.14422815
0000c0 bd ea f8 3c d5 fb f6 3c 45 bb a4 3c 9f dd 51 bd
       0.03038537 0.03014938 0.020108828 -0.051236745
0000d0 0a 3a 86 3d 0a 59 3e bb 32 6b a1 bd 63 44 9b 3c
       0.06554039 -0.002904477 -0.07881774 0.018953508
0000e0 44 2d f6 3c 27 f7 b7 3d 56 e0 3a 3a 69 58 25 3b
       0.030050881 0.089826874 0.00071287656 0.0025229699
0000f0 04 6e 74 bd e1 3c 7d 3b 16 32 41 bd 8b 34 6a 3d
       -0.05967523 0.0038641023 -0.047166906 0.057179015
000100 06 d2 08 3d a3 18 e7 bc 61 9d a4 bd 24 fb c9 bd
       0.03340342 -0.02820999 -0.0803783 -0.098623544
000110 59 91 10 3d 26 c7 91 3c aa 6b 99 bc 10 c4 be bd
       0.035294864 0.017795157 -0.018728096 -0.0931474
000120 69 32 f1 3d d0 7d 28 3d 34 27 fc 3c 7c 89 b8 bd
       0.11777193 0.04113561 0.030780412 -0.09010598
000130 40 bd 82 be dc e2 45 3c fc ba 2f be f6 33 2a be
       -0.2553501 0.012078013 -0.17161173 -0.16621384
000140 24 f4 b1 3c cd 9c 39 bd d3 9b 5c bd 18 0b 50 bd
       0.02172286 -0.045315553 -0.053859543 -0.05079183
000150 c6 b0 0c 3d b0 a1 13 3d c1 94 65 3b 1f 1a 2c bd
       0.03434827 0.03604287 0.0035031291 -0.0420171
000160 48 b4 2f 3d 66 08 36 3d 1d a2 28 bd 83 38 bc bd
       0.04289654 0.044441603 -0.04117023 -0.09190466
000170 04 41 f1 bd 37 44 0a be d2 57 ef bd 94 18 19 be
       -0.11779979 -0.13502584 -0.11686672 -0.14950782
000180 bc 33 24 be 6d 20 48 be 21 7a e2 bd dc d9 54 bd
       -0.1603536 -0.1954362 -0.110584505 -0.05196558
000190 48 42 ac 3d ce db 3e bd b7 9b 30 be f4 dd 54 bd
       0.0841108 -0.04659634 -0.172469 -0.051969483
0001a0 2f 3e 34 3c dd bc ff bb e1 9d 2b 3d db 87 2e bd
       0.011001154 -0.0078044967 0.041898612 -0.04261003
0001b0 3b 4e bd bd 46 a6 90 bd 65 e1 47 bc c5 d7 fd bc
       -0.09243437 -0.07062964 -0.012199734 -0.030986676
0001c0 f9 8a 9c bd 1b 0b e5 bd 47 5a c7 bd 24 63 0a be
       -0.076436944 -0.11183759 -0.09734016 -0.13514382
0001d0 1c d2 4c bd d7 f0 e8 bd ee 10 09 bd 32 7e 3f bd
       -0.050005063 -0.113740616 -0.03346341 -0.04675121
0001e0 0e 47 35 bd 90 f6 e8 3c 7c b0 b7 bb 0b fc e9 bd
       -0.044257216 0.028437883 -0.0056057554 -0.114250265
0001f0 29 d7 6e bd 43 24 eb 3c 5b 29 0a 3e 92 13 ea 3d
       -0.05831066 0.028703814 0.13492338 0.11429514
000200 9d 75 d7 3d 1f e4 22 3e 7c e2 0e 3c a9 63 28 3e
       0.1052048 0.15907334 0.00872099 0.16444267
000210 28 a9 73 bb 88 95 e4 bc 9a ed 82 3d 95 38 dd 3d
       -0.0037179682 -0.027903333 0.06392975 0.10801808
000220 2d 2e 8a 3d 52 8d 6e bd 2e c8 9a 3d f1 21 02 3e
       0.067470886 -0.058240242 0.075577125 0.1270826
000230 e4 8b 91 bc 71 ca 9c bd 36 3a 09 3d 14 b2 9d bb
       -0.0177669 -0.076558 0.03350278 -0.0048124883
000240 07 15 6e 3d 40 0c 0c be 52 de 2d be be 22 ac 3d
       0.058125522 -0.13676548 -0.1697934 0.08405064
000250 6e b1 77 bd 72 26 8a be 26 79 47 3e 9d c5 87 3d
       -0.060471945 -0.26982456 0.19479808 0.066294886
000260 91 23 8a be 50 c8 34 bc 62 92 06 be d4 64 83 be
       -0.2698026 -0.011034086 -0.13141778 -0.25662863
000270 c0 17 c2 bb 59 10 8a bc c2 cd 0e be 94 6f 3a 3e
       -0.0059232414 -0.016853498 -0.13945678 0.18206626
000280 38 cc e2 3d cd dc 1e 3e 3c da 79 3e db 46 d2 3e
       0.11074108 0.15513916 0.24399656 0.41069683
000290 49 a8 8f 3e 32 ae 2c be c6 aa 0a be 56 01 b4 be
       0.2805808 -0.16863325 -0.13541707 -0.3515727
0002a0 3e d9 2b be ee 74 33 bd 6b ce 9f be a9 bc c0 3d
       -0.1678209 -0.043812685 -0.31212172 0.09410984
0002b0 a6 3d 7c 3c 2a 08 90 3d a6 86 85 3c 8d 27 99 bd
       0.0153955575 0.07032807 0.016299557 -0.07478247
0002c0 c6 a4 7e 3d 06 b2 3f 3b cd cc 0d 3e 06 00 ce 3d
       0.06216886 0.0029250397 0.13847657 0.10058598
0002d0 30 61 1e bd 2c a4 61 bd ff 0f 5f be 6c 34 c9 3d
       -0.038666904 -0.055088207 -0.21783446 0.09824452
0002e0 16 d3 2b 3d 94 e0 c5 bd bd 8a 9b 3d 06 57 f1 3d
       0.041949354 -0.096619755 0.075948216 0.117841765
0002f0 4e 3d 8d bd 66 16 54 3d 96 0c 81 3c 89 49 70 39
       -0.068964586 0.051779173 0.015753072 0.00022915578
000300 bd 54 13 3d 4c ec 43 3c cd d6 a9 3d ad 5c ac ba
       0.035969485 0.011958193 0.08292923 -0.0013150178
000310 a1 a6 8b 3d 67 f3 02 bd fa 28 f5 3c b9 88 1b bd
       0.06818891 -0.031970408 0.029926766 -0.037972186
000320 09 3f 6b bd ce 67 4c bd cd 93 30 3c a3 74 6e bd
       -0.057433162 -0.049903683 0.010777426 -0.058216702
000330 30 ea de 3c ee e4 72 bc 74 44 41 bd 6c 46 7e 3d
       0.027211279 -0.014825089 -0.047184423 0.06207888
000340 12 d6 80 3d 13 36 0e 3c e8 de 3a bd 99 10 c8 3b
       0.06290831 0.0086798845 -0.045622736 0.006105494
000350 cc 0d 4b 3d 27 20 82 bd c0 8f 80 3d 7b 54 5f bd
       0.049573705 -0.06353789 0.06277418 -0.054523926
000360 fc 4e 18 3e 58 76 49 3e dd 1e 8d 3e 32 14 07 3e
       0.1487388 0.19674051 0.2756261 0.13191298
000370 02 fb 66 3d 85 c4 33 3d 61 4c 41 3d 4f 59 9c 3c
       0.056391723 0.043888588 0.04719198 0.019085554
000380 82 b2 a1 3d 9a 25 b4 bd 2c a5 dd bd 77 af 0a bd
       0.07895376 -0.087962344 -0.1082252 -0.033858743
000390 04 45 28 bd 79 64 07 be ee ac 11 be ac 52 62 3b
       -0.041081443 -0.13221921 -0.14226124 0.003453414
0003a0 9a 9b 04 bd ed 21 bb bd 88 87 9f bd f0 ec c7 bb
       -0.032374956 -0.0913733 -0.077895224 -0.006101243
0003b0 d3 c5 5f bd 96 08 03 be 5c 60 c4 bd cc 99 03 be
       -0.05463202 -0.12796244 -0.095886916 -0.12851638
0003c0 00 b6 76 be e5 78 2b be 11 8e 4c be 80 29 56 bd
       -0.24092865 -0.16745336 -0.19976069 -0.05228567
0003d0 18 e4 21 bd 9b eb ce bc 7a 56 36 3d 20 dc 18 bd
       -0.039524168 -0.02525883 0.044516064 -0.037319303
0003e0 5c 2f dd bd 30 a7 65 bd 41 3a 52 ba 22 03 91 bd
       -0.10800049 -0.056067646 -0.0008019545 -0.07080676
0003f0 c7 8e 9b bd 19 46 1e 3d 49 db 8d 3d e3 76 03 be
       -0.07595592 0.03864107 0.06926591 -0.1283832

net1.netdown4.COV1.0.conv_r.bias f4 [32]
000000 b5 0e 0b be 94 a2 02 3e 01 e3 6a 3c 3a b0 59 3d
       -0.13579829 0.12757331 0.0143363485 0.05314658
000010 3d d1 c8 be 44 12 c6 bd 49 d1 2e be b8 0d 15 3d
       -0.39222136 -0.09671453 -0.17072023 0.036390036
000020 4d b7 49 be 40 dc 44 be 27 73 22 be bd 15 76 be
       -0.1969883 -0.19224644 -0.1586424 -0.2403173
000030 01 9d 3b bd d7 1f d1 3d 75 53 55 3d 6a bd 9d be
       -0.045804027 0.10211151 0.052081544 -0.30808574
000040 61 96 88 3d 89 06 37 3d 09 d5 7a be b5 d9 78 be
       0.066693075 0.044683967 -0.24495329 -0.24301799
000050 61 fc 05 be 4b 1b 36 be fd ae b2 be 70 dc 9d bd
       -0.13084556 -0.17783849 -0.3489913 -0.07708061
000060 7c e1 91 bd 10 d1 bf bd 48 b0 c6 bd e3 e1 82 3d
       -0.07123086 -0.093660474 -0.09701592 0.06390741
000070 e5 26 02 3e 23 e0 f2 be a1 b7 3b bd 91 64 c6 be
       0.1271015 -0.47436628 -0.04582942 -0.387486

net1.netdown4.COV1.0.conv_i.weight f4 [32, 16, 3, 3]
000000 b3 f0 6c bd ed c8 30 bc f8 66 bc 3c 2b c1 7c bd
       -0.057846736 -0.010790092 0.022998318 -0.061707657
000010 0b 5e 5d bd 72 41 c6 3b 48 28 98 bd 38 d4 e4 bd
       -0.054044764 0.006050282 -0.07429558 -0.1117329
000020 c1 0b e6 bc 1b 1f 41 3d b1 e3 e6 bc e7 20 74 3d
       -0.028081777 0.047148805 -0.028184744 0.05960169
000030 13 dd ca 3d 6c 0a 68 3c 79 c1 c4 3d 12 53 43 3e
       0.09905448 0.014162641 0.096072145 0.19074658
000040 0c 72 fb 3d 05 1e 55 3e 5f 3a 8a be fc 0e fe bd
       0.12277612 0.20812233 -0.2699766 -0.12405202
000050 0a 7d 17 be 31 9b b5 bc be 0a af 3d 01 01 a9 3d
       -0.14793792 -0.022168728 0.08546971 0.082521446
000060 e9 11 80 bb d8 45 1a bd 91 d4 94 3b 37 e5 09 3d
       -0.003908385 -0.037664264 0.0045419415 0.033665862
000070 b7 f8 89 3d 7b bd 5e 3e 0c 78 67 3c 42 05 16 3e
       0.06736892 0.21751969 0.0141277425 0.14650443
000080 2f 12 5b 3e 5f 20 8a 3d 0a 97 c7 3d 0b 07 5d 3e
       0.21393655 0.067444555 0.09745605 0.21584718
000090 91 2b 5c 3e e5 5a 9f 3e 97 c5 93 3e aa 36 5e 3e
       0.21500994 0.31124035 0.28861687 0.2170054
0000a0 b9 9c f5 3d 58 a5 90 3e 69 16 80 3e fb 25 9b 3e
       0.11992783 0.28251147 0.25017098 0.30302414
0000b0 f1 dd 3a 3e 72 2e 06 3e cd de da 3d 8f aa 51 3d
       0.18248726 0.13103655 0.10687027 0.051188048
0000c0 db bf 43 3d 6d a7 b5 3c d7 9b dc 3d b6 a1 17 3d
       0.04779039 0.022174561 0.107719116 0.037019454
0000d0 b3 00 41 3d 97 e3 75 3d e4 8a f8 bc 5f ff 36 bd
       0.047119807 0.0600315 -0.030339666 -0.044677135
0000e0 82 be 87 3d 62 20 07 bd 98 23 f1 bd ab dc a3 bd
       0.06628133 -0.032989867 -0.11774367 -0.080010734
0000f0 82 20 3d 3b 83 f6 2d 3b ec b3 84 bb 56 b1 04 bd
       0.0028858487 0.0026544638 -0.0040497687 -0.032395683
000100 1d 64 ed bc 62 82 a3 3d 67 91 0d bd e2 cb ab 3c
       -0.028978402 0.07983853 -0.034562495 0.020971242
000110 f5 98 d3 3d 95 60 1d bd a7 39 41 bd da d4 f8 3c
       0.103319086 -0.038422186 -0.047174122 0.030374933
000120 41 8d a6 be 70 25 5f be 3f 6c 14 be 67 3c a0 3d
       -0.32529643 -0.21791625 -0.14494418 0.07824021
000130 f8 84 42 3e 6a 0e 60 3d d1 95 df 3d d1 58 8b 3d
       0.18996036 0.054701246 0.10917247 0.0680405
000140 92 df 16 3e 09 b8 3a be 34 6f d1 bd ec f7 e2 3c
       0.14733723 -0.18234266 -0.102262884 0.027706109
000150 2b 9d 0a bd b3 f9 63 bd 2e d5 03 bb 1d 1c d8 3c
       -0.033841293 -0.055658054 -0.0020116079 0.026380593
000160 32 91 cc bd 2f e5 4e bd ac 7d e3 3d 26 47 51 bd
       -0.09988631 -0.050511535 0.111079544 -0.051093243
000170 74 dc 9a be 57 98 ec bd 6b 7a 2c be 5d 17 80 be
       -0.30246317 -0.11552494 -0.16843574 -0.25017825
000180 a6 97 36 3e 55 24 7a 3c 09 ef 24 bd 48 08 ac b9
       0.17831287 0.015267451 -0.040267024 -0.00032812566
000190 94 10 11 3d 89 84 25 bd 24 1e 34 3b ed 10 82 3d
       0.0354162 -0.0404096 0.0027483786 0.063508846
0001a0 ed 73 2f bd dc 91 b1 bd a6 7c 95 bc 1e 11 ea bd
       -0.042835165 -0.086703986 -0.018247914 -0.11429046
0001b0 eb 01 c9 bd 2d 67 10 3b f2 ab 87 bd 31 bb 5c bd
       -0.09814819 0.0022034154 -0.06624593 -0.053889457
0001c0 01 bf 50 bd 3e 6f 4e 3c f2 19 a7 bd 56 6d 13 3d
       -0.050963406 0.012599764 -0.081592456 0.035992943
0001d0 c7 84 7b bd b7 56 45 be 65 5f c1 bc c0 a6 35 be
       -0.061405923 -0.1927136 -0.023605058 -0.17739391
0001e0 79 c4 d6 bd a5 d2 64 bd b8 8d c5 bd ba 8d 93 bd
       -0.10486693 -0.05586495 -0.09646171 -0.072047666
0001f0 66 9b b8 bd 17 68 47 bd 49 cc 31 bd e4 e6 8c bd
       -0.09014015 -0.048683252 -0.043407712 -0.068799764
000200 2f 67 e5 bd 6d 04 14 3b d7 45 c8 bd 13 4b f6 bc
       -0.11201321 0.0022585646 -0.09778946 -0.030065095
000210 b7 ca 10 be 04 98 d3 bd 1c ae e0 bc 73 8b 11 bd
       -0.1413983 -0.10331729 -0.027426772 -0.03553338
000220 93 76 90 bd 4e 34 af 3d e5 fb 0e bd 3f b8 7c 3d
       -0.07053866 0.08554898 -0.034908194 0.06169915
000230 27 55 97 3d 95 dc cc 3c f6 79 63 3d 96 6d 5c bd
       0.073892884 0.025007525 0.055536233 -0.053815447
000240 98 c1 09 bd 5c de 29 3e b1 0a c2 3d 6f 20 9f bd
       -0.03363189 0.1658873 0.094746955 -0.07769858
000250 2f 6a cb 3d 89 01 9b bb 29 2b f0 bd 30 ca 03 3e
       0.09932362 -0.0047304076 -0.11726982 0.12870097
000260 e1 1b 25 3d 8d 70 a5 3d 92 1e f2 3c 77 b6 7a 3d
       0.04030979 0.08078108 0.029555593 0.06120917
000270 67 f1 cb 3c 2d 24 91 bd 47 24 85 bc 78 cd 87 bd
       0.024895383 -0.07086978 -0.01625265 -0.06630987
000280 18 5e 21 bd 03 7b 0e be b2 de 68 bd 22 6c 45 bd
       -0.039396375 -0.13914113 -0.056853004 -0.048198827
000290 ff 3e 7b bd c2 1a ca bd 37 a2 c1 3d 99 d6 d1 3d
       -0.061339375 -0.09868385 0.09454768 0.102460094
0002a0 2a 9c 5c bd 96 77 f6 bc 8f 9f 43 bc 13 d1 ad bc
       -0.053859867 -0.03008632 -0.011939897 -0.021217858
0002b0 38 81 b2 3d 6b e5 53 bd ae 2a 19 be bf 8d 39 be
       0.08716053 -0.051732462 -0.14957687 -0.18120478
0002c0 41 37 09 be 73 ff 4a be e9 dd 15 be 2a 6d a6 be
       -0.13399984 -0.19824009 -0.14635433 -0.3250516
0002d0 04 98 99 3d 9c 2e 00 be ba 0b 1a be 4b 06 98 3d
       0.07499698 -0.1251778 -0.15043536 0.07423075
0002e0 c2 12 94 bc 4b 05 a9 ba 82 18 74 3e c5 be 51 3e
       -0.01807535 -0.0012895254 0.23837474 0.20482929
0002f0 04 d7 77 3e 8b 95 19 3e 65 77 18 bd 53 fe 8a bc
       0.24203116 0.14998452 -0.03722324 -0.016966974
000300 6b 17 be 3d be e7 14 bc 56 2a 5c 3d 03 87 a5 ba
       0.092818104 -0.009088455 0.053751312 -0.0012628738
000310 af b6 60 3c a0 dd ef 3d e1 fd 99 bc e3 b7 9e 3d
       0.01371543 0.117121935 -0.018797817 0.07749917
000320 16 ce 83 3b 65 fa 01 3d d0 18 4f bd 3a b6 73 bd
       0.00402237 0.031732935 -0.050560772 -0.059499957
000330 4b 35 39 bc 13 a0 88 bd b0 e6 91 bc d9 a6 8e 3d
       -0.01130421 -0.06671157 -0.017810196 0.069654174
000340 c4 c6 26 bd 7c 93 83 3d 38 59 ec 3c 5a 2d 5c 3d
       -0.0407169 0.06424615 0.028851137 0.053754188
000350 e6 13 75 3d e0 15 a1 3d de 78 65 3d 4f ab 1b 3d
       0.05983343 0.078655005 0.05602347 0.03800517
000360 48 f2 11 be f8 3d 5d 3c fc bb 98 3d 61 d4 59 bb
       -0.14252579 0.013503544 0.0745773 -0.003323816
000370 28 8c 23 3e 4a 32 88 3d a4 cd c1 3c be ab 10 3e
       0.15971434 0.06650217 0.023657627 0.14128014
000380 8a cf a7 3d 8c a8 b7 3d cf e3 28 bd 5e a2 a6 bd
       0.08193882 0.08967695 -0.04123288 -0.08136438
000390 5f b3 cb 3d 71 5b f1 3d 8b 9b a2 3d be 79 23 3e
       0.09946322 0.11785019 0.07939824 0.1596441
0003a0 16 93 87 3e 2d 7e 07 3e 52 a3 a9 3c 9d 43 2b be
       0.26479405 0.13231726 0.02070776 -0.16725011
0003b0 8a b0 8a be 6a 67 04 3d 39 ce 88 bd d5 3d 5f bd
       -0.27087814 0.032325186 -0.06679959 -0.054502327
0003c0 e3 27 12 3e ba fb 5f 3e a9 f5 32 3e cf 48 02 3e
       0.14273028 0.2187337 0.17476524 0.12723087
0003d0 a5 7b 92 bd 10 44 ea 3d cf 68 b5 3d 27 9a ed bc
       -0.071524896 0.11438763 0.08857881 -0.02900417
0003e0 c1 23 de 3d ee e5 97 bb 15 da 25 be 73 e1 98 3d
       0.10846663 -0.004635564 -0.16196473 0.07464876
0003f0 ff cf 2d bd ad 80 a5 3d 8f 16 67 bd d3 2a a8 3c
       -0.04243469 0.080811836 -0.056417998 0.020528233

net1.netdown4.COV1.0.conv_i.bias f4 [32]
000000 48 92 08 be 87 8f 36 bb 3d ad 24 bc b5 1e 20 be
       -0.13337052 -0.0027856545 -0.010051069 -0.15636714
000010 6c 4d 7d 3e 39 ed fc bc d2 10 1f bd a0 37 6c 3d
       0.24736565 -0.030874835 -0.0388344 0.057670236
000020 c7 73 8e 3d 66 41 bd 3d 04 7c 43 bd e1 d6 fb bd
       0.069556765 0.092409894 -0.047725692 -0.12296844
000030 cd 83 e4 bc f5 4f 1d be 64 19 f9 bd dc 52 36 3e
       -0.027894879 -0.15362532 -0.12163046 0.17805046
000040 a7 40 29 bd 9f fc 44 3e 2f 3f 42 3e 04 e0 4f be
       -0.041321423 0.19236992 0.18969415 -0.20300299
000050 fb 4c 8c 3d 9e ae 8d bd fc 24 23 3e c7 5a d1 3c
       0.0685062 -0.06918071 0.15932077 0.025555981
000060 9f 93 9c 3d 1b 42 2b bd 86 97 41 3c f6 62 18 3d
       0.07645344 -0.04181109 0.011815911 0.03720375
000070 36 63 75 3e 9d 7f c9 3e e8 13 10 3e ea a5 95 3e
       0.23963627 0.39355174 0.14070094 0.29228145
