CCNN-CGH/1920/4init1920padding/proposedstate.pth (torch, 189629 bytes, 52 tensors)

net1.netdown1.COV1.0.conv_r.weight f4 [4, 1, 3, 3]
0	0x3dc6556d	0.096842624
1	0x3d736052	0.05941803
2	0xbbbb9430	-0.0057244524
3	0x3e3fa4f2	0.18715265
4	0x3f0db2ad	0.5535076
5	0x3d85bb86	0.06529908
6	0x3e55f0d9	0.20892657
7	0x3e9c05b9	0.30473116
8	0xbda58a86	-0.08083062
9	0xbe1d6578	-0.15370739
10	0xbf08cf63	-0.53441447
11	0xbe5f55a7	-0.21810018
12	0xbefec2cf	-0.49758002
13	0x3cfcae69	0.030844884
14	0xbef7607d	-0.48315802
15	0xbeafc324	-0.34328568
16	0xbdbbcdb6	-0.091700956
17	0xbe8f51fd	-0.2799224
18	0xbe09b20e	-0.13446829
19	0x3d9e2bff	0.07723235
20	0xbdc06441	-0.09394122
21	0xbee1083c	-0.43951595
22	0x3d8b0c0b	0.067894064
23	0x3e29015b	0.16504423
24	0xbe8035c4	-0.2504102
25	0xbd1f4618	-0.038885206
26	0x3eaa0867	0.33209535
27	0xbe61ad3e	-0.22038743
28	0xbe21e6e6	-0.15810737
29	0xbe39116b	-0.1807305
30	0xbe11edb0	-0.14250827
31	0x3d65c480	0.0560956
32	0xbe94b877	-0.29046986
33	0xbe1332b8	-0.14374816
34	0x3e8c7a89	0.27437237
35	0xbe267f63	-0.16259532

net1.netdown1.COV1.0.conv_r.bias f4 [4]
0	0xbd8989f0	-0.067157626
1	0xbcde0d37	-0.02710591
2	0x3dd39a74	0.10332194
3	0xbe89dddd	-0.2692708

net1.netdown1.COV1.0.conv_i.weight f4 [4, 1, 3, 3]
0	0x3ebac877	0.36481068
1	0x3e95e55e	0.29276556
2	0xbe2d5a9a	-0.16929093
3	0x3d796743	0.060889494
4	0x3c23f960	0.010008186
5	0x3e95ac24	0.29232895
6	0xbe6336b8	-0.22188842
7	0xbe9e10dc	-0.30872238
8	0x3e5122b8	0.204234
9	0xbe8c02f4	-0.27346003
10	0xbe4508ab	-0.19241588
11	0x3d57d9f8	0.052698106
12	0xbe6bfa06	-0.23044595
13	0xbd76ff20	-0.0603019
14	0xbdea22f0	-0.11432445
15	0xbe8e2d9f	-0.2776918
16	0x3e7ff9aa	0.24997583
17	0xbdaa623c	-0.08319518
18	0x3df0b8cd	0.11753998
19	0xbbb37447	-0.005476508
20	0xbe94f8cd	-0.2909607
21	0xbec234ae	-0.37930816
22	0x3e65550e	0.22395727
23	0xbdf67f82	-0.12036039
24	0xbe9c63cd	-0.30544892
25	0xbe2aab7a	-0.16666976
26	0x3e2781b9	0.16358079
27	0xbdd6a7a4	-0.10481194
28	0x3e6c96a4	0.2310434
29	0xbd9bdd40	-0.076105595
30	0xbe895b5b	-0.2682751
31	0xbeaf78fc	-0.3427199
32	0xbea88e70	-0.3292117
33	0xbe5d2031	-0.21594311
34	0x3a4fff87	0.00079345
35	0xbcd2de9c	-0.025740914

net1.netdown1.COV1.0.conv_i.bias f4 [4]
0	0x3d7220a9	0.05911318
1	0xbe6a8fba	-0.2290639
2	0xbe667aa3	-0.2250772
3	0x3e5410eb	0.20709579

net1.netdown2.COV1.0.conv_r.weight f4 [8, 4, 3, 3]
0	0xbe027ac1	-0.1274214
1	0xbd40d7e0	-0.047080874
2	0x3cc6e359	0.02427833
3	0xbcc242b2	-0.023713443
4	0xbd933fb7	-0.07189887
5	0xbe734c73	-0.23759632
6	0x3d14e1a4	0.036348
7	0x3e30f645	0.17281444
8	0xbda1359b	-0.078715526
9	0x3d6e5c58	0.058193535
10	0x3e474e76	0.19463524
11	0x3e9d1eb8	0.306875
12	0x3cffe317	0.031236215
13	0x3da1e514	0.07905021
14	0x3e5874a8	0.21138251
15	0xbe665a22	-0.2249532
16	0x3c0801f8	0.008301251
17	0x3cee3157	0.029076261
18	0x3cb39f9f	0.0219267
19	0x3e774a28	0.24149382
20	0xbdf83d74	-0.12121096
21	0x3d2496b8	0.0401828
22	0x3df2962a	0.11845048
23	0xbdbd967b	-0.092572175
24	0x3df3bc38	0.11901134
25	0x3d30816a	0.04309217
26	0xbd71830d	-0.05896287
27	0xbe0f9da8	-0.14024985
28	0x3da7fbb2	0.08202304
29	0x3e19f705	0.15035637
30	0xbde5bdfc	-0.11217877
31	0xbcc8eb67	-0.024526311
32	0x3d76800f	0.06018072
33	0x3dffbb81	0.124869354
34	0x3cffdd3b	0.03123342
35	0xbe0041a0	-0.12525034
36	0x3e1ef577	0.15523325
37	0x3db87990	0.09007561
38	0x3e47601a	0.19470254
39	0xbcfe0317	-0.031007333
40	0xbe05e4a8	-0.13075507
41	0xbd74abb8	-0.059734076
42	0x3d8e275a	0.069410995
43	0x3ce4dd69	0.027937608
44	0xbed4f1a8	-0.4159062
45	0x3b602a7d	0.0034205012
46	0xbe4b29c8	-0.19840157
47	0xbe98d757	-0.2985179
48	0xbe8694ca	-0.26285392
49	0xbeb781ce	-0.3584122
50	0xbeb2c7f2	-0.3491817
51	0x3d743f19	0.059630487
52	0x3e26dd3d	0.16295333
53	0xbe348f24	-0.17632729
54	0x3c85e36b	0.016343793
55	0x3e650b51	0.22367598
56	0x3db68aeb	0.08913215
57	0x3dd390ef	0.10330378
58	0x3d3499e6	0.04409208
59	0xbecb1002	-0.3966065
60	0x3e263066	0.162294
61	0x3dc5873f	0.09644937
62	0x3dc1a2d8	0.09454888
63	0xbd9fb190	-0.07797539
64	0xbdf09fff	-0.11749267
65	0xbdfeb7d1	-0.12437404
66	0x3dfb614f	0.122744195
67	0xbe340e92	-0.17583683
68	0xbdfa5ff3	-0.12225332
69	0xbcc303a4	-0.023805447
70	0x3d863835	0.065536894
71	0xbdaf184b	-0.085495554
72	0x3df5d57b	0.12003609
73	0xbddb45f7	-0.10706704
74	0x3dc8ccc6	0.098046824
75	0x3d51e9da	0.05124841
76	0x3d435121	0.047684792
77	0x3e3302a8	0.17481482
78	0x3cb6e318	0.022325084
79	0x3e8be2ce	0.27321476
80	0x3e0925e2	0.13393357
81	0x3f237afb	0.6385953
82	0x3e60b960	0.21945715
83	0x3de6b4bf	0.11264943
84	0x3caae1ac	0.020859562
85	0xbe30f824	-0.17282158
86	0xbd9de80c	-0.07710275
87	0x3e8d3d28	0.2758572
88	0x3e5250c9	0.2053863
89	0xbd920c3e	-0.07131241
90	0x3d679cf8	0.05654618
91	0x3c83bfb9	0.016082631
92	0x3e605fef	0.21911596
93	0x3e0c2147	0.1368457
94	0xbd93a373	-0.0720891
95	0xbd7025ca	-0.05862979
96	0x3ca43bf9	0.020048128
97	0xbe63dfc3	-0.22253327
98	0xbe039b26	-0.12852153
99	0xbe1dc771	-0.15408112
100	0x3d1d4b7b	0.038402062
101	0xbdf13e91	-0.11779512
102	0x3d719ce7	0.058987524
103	0xbd96fccc	-0.07372436
104	0xbcbef0d5	-0.023308197
105	0xbe41e765	-0.18935926
106	0xbdeee968	-0.116656125
107	0xbc9b69a3	-0.01897127
108	0x3b14ba22	0.0022693952
109	0x3bae5b9a	0.0053209784
110	0xbe20214d	-0.15637703
111	0xbd460509	-0.048344646
112	0xbdfa45cd	-0.12220345
113	0xbdbfba54	-0.09361711
114	0x3d16dcb5	0.036831576
115	0x3e230a67	0.15921937
116	0xbe2f4f9f	-0.17120217
117	0xbd770dac	-0.060315773
118	0xbdcd41e8	-0.10022336
119	0x3dbf9081	0.09353734
120	0x3e008a95	0.12552865
121	0x3d8c2d82	0.068446174
122	0xbdf13114	-0.11776939
123	0xbe206076	-0.15661797
124	0x3e279ce3	0.16368441
125	0x3d2bd9f0	0.04195589
126	0xbd86edfd	-0.065883614
127	0x3d60f489	0.054920707
128	0x3cadd2ad	0.021218622
129	0x3d4c65a5	0.049901623
130	0xbd130461	-0.035892848
131	0xbc6cd3b2	-0.014454769
132	0x3d906623	0.07050731
133	0x3e643930	0.2228744
134	0xbe399323	-0.18122534
135	0x3d273a6f	0.04082721
136	0xbdc1adbe	-0.09456967
137	0x3d6be7e5	0.0575942
138	0x3c836b25	0.016042301
139	0x3d942c80	0.0723505
140	0xbc9d6dc2	-0.019217376
141	0x3db11f2a	0.08648522
142	0xbe1a4a51	-0.15067412
143	0x3d69ecdd	0.057110656
144	0xbdbf4bc0	-0.0934062
145	0x3d860b70	0.0654515
146	0x3df5fced	0.120111324
147	0x3e67a42d	0.22621222
148	0x3d97cb28	0.07411796
149	0xbc27ae2c	-0.010234397
150	0x3d4b5758	0.049643844
151	0xbe14fd63	-0.14549784
152	0xbe9d9c62	-0.30783373
153	0xbe7ad52e	-0.24495384
154	0xbded63b5	-0.11591283
155	0xbd2e97d1	-0.042625252
156	0x3da6554b	0.08121737
157	0x3d1b220a	0.03787426
158	0x3d837dfb	0.06420513
159	0x3e2f91bb	0.17145436
160	0x3e893c69	0.26803902
161	0x3ec0bec9	0.37645558
162	0x3e6d5cf1	0.23179986
163	0xbd563a2f	-0.052301582
164	0x3d409aa9	0.047022495
165	0x3e35dbe8	0.17759669
166	0xbdd1004f	-0.10205137
167	0x3e0a1aa8	0.13486731
168	0x3de622ec	0.112371296
169	0xbdcd7e82	-0.10033895
170	0x3e71824d	0.23584862
171	0xbe090468	-0.13380587
172	0xbd6d1ce6	-0.057888888
173	0x3c79bea5	0.015243207
174	0x3e005e9b	0.12536089
175	0x3e35be84	0.17748457
176	0x3cd828fc	0.02638673
177	0xbcee3af4	-0.029080845
178	0x3e0a88a9	0.13528694
179	0xba9d48c4	-0.0011999835
180	0xbdf06ed7	-0.11739891
181	0xbd9de736	-0.077101156
182	0x3d80083c	0.062515706
183	0x3d7f1da8	0.06228414
184	0xbdf27e1d	-0.118404604
185	0x3d43c9d4	0.0477999
186	0x3d6aaa27	0.057291176
187	0xbe15366a	-0.14571539
188	0xbdf08523	-0.11744144
189	0xbde97dbb	-0.11400934
190	0xbe27bad7	-0.16379867
191	0xbea1db3f	-0.31612584
192	0x3d4e2918	0.05033216
193	0x3d438fbf	0.04774451
194	0xbe8b125f	-0.27162454
195	0x3daae3ef	0.08344256
196	0xbe2f7d3b	-0.17137615
197	0xbeaaba48	-0.33345246
198	0x3df6d922	0.120531335
199	0x3e4fefc9	0.20306315
200	0xbe1c4b6a	-0.15263143
201	0xbd501f04	-0.05081083
202	0x3e00f746	0.12594327
203	0xbc1844a1	-0.009293706
204	0x3cd0f7b8	0.025508747
205	0xbe46eda5	-0.19426592
206	0x3db7afe4	0.08969095
207	0x3e08c8bf	0.13357829
208	0x3d4d05d1	0.050054375
209	0xbc8e929d	-0.017403895
210	0xbe0a6e26	-0.13518581
211	0x3d881102	0.06643869
212	0x3e28537a	0.16438094
213	0xbcd71370	-0.026254386
214	0x3e06e49e	0.13173148
215	0x3c14cd02	0.009082081
216	0x3e029fd9	0.1275629
217	0x3e344f0f	0.17608283
218	0x3e0781d4	0.13233119
219	0x3ddb3c77	0.10704892
220	0xbe4dc73b	-0.20095532
221	0x3e078065	0.13232572
222	0xbe7031ac	-0.23456448
223	0xbe791b54	-0.24326831
224	0x3de93c77	0.11388486
225	0xbdbbaa62	-0.09163357
226	0xbeb4a32d	-0.35280743
227	0xbd8fcfaa	-0.07022031
228	0xbc7a5c28	-0.015280761
229	0xbeaef925	-0.34174457
230	0xbdb895e1	-0.09012962
231	0x3d9b477b	0.07581993
232	0x3da8e6d6	0.082471535
233	0x3e316839	0.17324914
234	0x3da38b37	0.079855375
235	0xbe568283	-0.20948224
236	0xbe0aac90	-0.1354239
237	0xbe30c63e	-0.17263123
238	0x3e2adef2	0.1668661
239	0xbdd1324e	-0.10214673
240	0xbc3acaa2	-0.0114008505
241	0x3f09f453	0.53888434
242	0xbd23b55e	-0.039967887
243	0x3e17666b	0.14785163
244	0xbd5b09d2	-0.053476162
245	0xbd64d82c	-0.05587022
246	0x3da2848f	0.0793544
247	0xbc290499	-0.010316038
248	0xbd1e54de	-0.038655154
249	0xbd41bbde	-0.047298305
250	0x3d28b0df	0.041184302
251	0x3df7fdd1	0.121089585
252	0xbe350965	-0.17679365
253	0xbe974495	-0.2954451
254	0xbdc684b6	-0.09693281
255	0x3d9dc629	0.07703812

net1.netdown2.COV1.0.conv_r.bias f4 [8]
0	0x3d9cb54e	0.076517686
1	0x3daa5e51	0.08318771
2	0xbd6265c5	-0.055272836
3	0xbe255e49	-0.16149248
4	0x3d11b509	0.03557304
5	0x3db5fdd6	0.08886306
6	0xbddc9c97	-0.10772055
7	0xbc91e371	-0.017808648

net1.netdown2.COV1.0.conv_i.weight f4 [8, 4, 3, 3]
0	0xbc53ce80	-0.012927651
1	0x3e0810f1	0.13287713
2	0xbdb52267	-0.08844452
3	0xbe108b35	-0.14115603
4	0x3d36e091	0.044647757
5	0xbe8ae739	-0.27129534
6	0x3d6cae58	0.057783455
7	0x3e995cc7	0.29953596
8	0x3df2b29b	0.118504725
9	0x3e760506	0.24025354
10	0x3da4238a	0.08014591
11	0xbd117004	-0.035507217
12	0xbea9a18e	-0.3313107
13	0xbecd9176	-0.4015004
14	0xbf6e3eb0	-0.93064404
15	0xbdeab601	-0.11460496
16	0xbdcd5d2c	-0.10027537
17	0xbdc8e550	-0.09809363
18	0x3d9ba557	0.075998954
19	0x3e7a3cf1	0.2443731
20	0x3d6a2b59	0.057170246
21	0x3e0ba529	0.13637222
22	0xbdc14cf2	-0.09438504
23	0xbe8b09bd	-0.27155867
24	0x3e972309	0.29518917
25	0x3e5a08e5	0.21292455
26	0xbe978c88	-0.29599404
27	0x3dc25fbe	0.094909176
28	0x3d1ef6b8	0.038809508
29	0x3cda5802	0.026653294
30	0xbe0870b5	-0.13324244
31	0xbe0306e2	-0.12795594
32	0x3da27aba	0.079335645
33	0xbe11e854	-0.14248782
34	0x3dbbac77	0.091637544
35	0xbe2c0f15	-0.16802628
36	0x3c8e6ea2	0.017386738
37	0x3e1bf1bf	0.15228938
38	0xbc621a42	-0.013800206
39	0xbdc9c347	-0.09851699
40	0xbd3fc266	-0.046816252
41	0xbea3343d	-0.31875792
42	0x3df2ab58	0.118490875
43	0x3e4f8f98	0.2026962
44	0xbc3db0d7	-0.011577806
45	0xbe003425	-0.12519892
46	0xbcea8f22	-0.028632704
47	0x3d3fefc3	0.046859514
48	0xbcd1d13c	-0.025612466
49	0xbde60ba5	-0.1123269
50	0xbdded326	-0.10880117
51	0x3ece3f52	0.40282685
52	0x3eb581d3	0.3545061
53	0x3e5f8f96	0.21832117
54	0xbd4203ad	-0.047366787
55	0x3e0058e9	0.12533917
56	0xbe98e445	-0.29861656
57	0xbe82dbc1	-0.25558284
58	0x3dc4bef8	0.09606737
59	0x3e899e85	0.26878753
60	0x3c6e3a19	0.014540219
61	0x3db0aa2e	0.08626209
62	0xbe9dd543	-0.30826768
63	0x3e1bc914	0.15213424
64	0x3dd26136	0.10272448
65	0xbde9751d	-0.11399291
66	0xbc5facf6	-0.013652077
67	0xbd39a946	-0.045327447
68	0xbb0e1d82	-0.0021685068
69	0x3db67d11	0.08910573
70	0xbc9a70b9	-0.018852578
71	0xbdbf28a4	-0.093339235
72	0x3d3971b5	0.045274455
73	0xbcd324d4	-0.025774397
74	0xbdb98977	-0.090594225
75	0x3da3aa62	0.07991482
76	0x3d827a80	0.06371021
77	0xbe13d9b9	-0.14438523
78	0xbdd3d76a	-0.10343821
79	0x3ded434e	0.11585103
80	0xbe65bc28	-0.22435057
81	0xbd46d3e3	-0.048541915
82	0xbeb722b9	-0.3576868
83	0xbef1a3a4	-0.4719516
84	0x3e8ee72f	0.27910754
85	0x3dd10fdf	0.10208105
86	0xbdb6d3f2	-0.08927144
87	0xbd1c737a	-0.038196065
88	0xbf42d035	-0.7609895
89	0xbf84b470	-1.0367565
90	0x3e2eeb2b	0.17081897
91	0xbe163209	-0.14667524
92	0x3db17ea5	0.08666734
93	0x3dec5ae7	0.11540776
94	0xbdd1b5ee	-0.102397785
95	0xbe5584dd	-0.20851465
96	0xbc681b70	-0.014166698
97	0x3de57f2f	0.11205899
98	0x3d1ac620	0.037786603
99	0xbe29c02a	-0.16577211
100	0xbe1b7e14	-0.15184814
101	0xbccdf96a	-0.025143344
102	0xbdf52553	-0.1197001
103	0x3e101305	0.14069755
104	0x3d3f5cd0	0.046719372
105	0x3c724b3e	0.014788447
106	0xbe0dadce	-0.13835832
107	0xbe01119c	-0.12604374
108	0xbe2247d4	-0.15847713
109	0xbdeb69b8	-0.114947736
110	0xbd3977d3	-0.04528029
111	0xbcb5199c	-0.022106938
112	0xbe33cff6	-0.175598
113	0x3d1966cc	0.03745155
114	0x3e3612a6	0.17780551
115	0x3e3e0e7d	0.18560214
116	0x3cf34e1d	0.029700333
117	0x3e731202	0.23737338
118	0x3e3b3ab1	0.18284108
119	0xbc457876	-0.012052646
120	0xbdecff1e	-0.11572097
121	0xbe433720	-0.19063997
122	0xbe9e0118	-0.3086021
123	0x3cef4cee	0.029211488
124	0xbe0349e2	-0.12821153
125	0xbe5233e9	-0.20527615
126	0x3d8dbcfc	0.069208115
127	0x3e18c19f	0.1491761
128	0x3dc8d8b9	0.098069616
129	0x3e27b696	0.16378245
130	0x3d9b8b61	0.07594944
131	0x3d1d8d53	0.038464855
132	0x3e266940	0.16251087
133	0xbee90814	-0.45513976
134	0xbe035219	-0.12824287
135	0x3e20189b	0.15634386
136	0x3d8a3172	0.06747712
137	0xbdbc9c4b	-0.09209498
138	0x3de864f2	0.11347379
139	0xbdab458e	-0.08362876
140	0x3cec45c8	0.028841868
141	0x3d21ef50	0.039534867
142	0x3d85a1fe	0.06525038
143	0xbd5f2a30	-0.054483593
144	0x3dc20455	0.094734825
145	0xbbcbb0cb	-0.0062161437
146	0x3dbc6489	0.09198863
147	0x3d5fe1d5	0.05465873
148	0x3c867e87	0.016417755
149	0xbe3a09c7	-0.18167792
150	0xbd421390	-0.047381938
151	0xbd28bd15	-0.041195948
152	0xbe5cfc3f	-0.21580599
153	0xbe80683f	-0.25079533
154	0x3bc7a9a1	0.0060932194
155	0xbdfec441	-0.12439776
156	0xbd58f395	-0.052966673
157	0xbe174ca3	-0.14775328
158	0x3d512752	0.05106289
159	0xbe284a87	-0.1643468
160	0xbddd3d7c	-0.10802743
161	0x3aa46bf7	0.0012544383
162	0x3d88f2ce	0.06686936
163	0x3e39e494	0.18153602
164	0x3de65185	0.11246017
165	0xbd48990d	-0.048974086
166	0x3d6ed139	0.058305
167	0x3e495f80	0.19665337
168	0x3d97748a	0.07395275
169	0x3da2150c	0.079141706
170	0x3eb071ab	0.34461722
171	0xbe1348c7	-0.14383231
172	0x3d1367b0	0.035987556
173	0xbabef9d7	-0.0014570308
174	0xbd489849	-0.048973355
175	0xbdc072eb	-0.09396919
176	0x3e274afa	0.16337195
177	0x3dc5f0d4	0.09665075
178	0xbdb72258	-0.089420974
179	0xbde7fedf	-0.1132791
180	0x3c4b2857	0.0123997545
181	0x3dc41632	0.09574546
182	0x3d977c3b	0.07396742
183	0xbcdb18de	-0.026745256
184	0xbda7ee33	-0.0819973
185	0xbe51ad9b	-0.20476381
186	0x3e09df9b	0.13464205
187	0xbe1e0efd	-0.15435405
188	0xbe5e8461	-0.21730186
189	0xbdfeb593	-0.12436976
190	0xbdf8c653	-0.12147202
191	0x3d66b01d	0.0563203
192	0x3e5411bc	0.2070989
193	0x3e363929	0.17795242
194	0x3e370f2d	0.17876883
195	0x3de9e0e3	0.11419847
196	0x3e0864c3	0.13319688
197	0x3ea4b9ef	0.32173106
198	0x3bd59026	0.006517428
199	0xbc7f8456	-0.015595516
200	0xbd2e3bdb	-0.04253755
201	0x3e48eca0	0.19621515
202	0x3dc2a56b	0.09504207
203	0x3e45f817	0.1933292
204	0x3cfac7a9	0.030612784
205	0x3e60fbac	0.21971005
206	0x3bb1a65f	0.0054214443
207	0x3d22c82c	0.03974168
208	0x3e395dd9	0.18102206
209	0xbd5e6073	-0.0542912
210	0x3e2740b5	0.16333278
211	0xbd9206aa	-0.07130177
212	0x3dd9b05f	0.10629343
213	0x3e086759	0.13320674
214	0x3e358331	0.17725827
215	0xbdd23cd8	-0.10265511
216	0x3e1a537d	0.15070911
217	0x3e9b3eb6	0.30321282
218	0x3e23f320	0.16010714
219	0xbdf1382d	-0.11778293
220	0xbec13b73	-0.3774067
221	0xbd940e9a	-0.072293475
222	0x3d4cd450	0.050007164
223	0x3daf3222	0.08554484
224	0xbd97c4f6	-0.07410614
225	0xbf009c01	-0.50238043
226	0xbf1d1122	-0.6135427
227	0xbe655b22	-0.22398046
228	0x3dcf289d	0.10115168
229	0x3ead8dc3	0.33897218
230	0x3e9756e3	0.29558477
231	0x3cf5c26a	0.02999993
232	0x3e856ba5	0.2605869
233	0x3e877cbf	0.2646236
234	0xbe08474a	-0.13308445
235	0xbe04edf8	-0.12981403
236	0x3ddfbaea	0.10924323
237	0x3dea5cd9	0.114434905
238	0x3e92d35f	0.28676888
239	0x3e53bf5f	0.20678471
240	0x3db859b3	0.09001484
241	0x3e8a0090	0.26953554
242	0x3cb5b749	0.022182124
243	0x3e2a285a	0.16616955
244	0x3e18eccb	0.1493408
245	0xbdafaaef	-0.08577525
246	0x3defcb27	0.1170867
247	0x3dc8bea0	0.09801984
248	0x3d38589d	0.045006383
249	0xbde598d3	-0.112107895
250	0xbdfafc56	-0.122551605
251	0xbcc57c5b	-0.024107149
252	0xbd480fbf	-0.04884314
253	0xbc4c8659	-0.012483203
254	0x3b4a8dd5	0.0030907292
255	0x3e04289d	0.12906118

net1.netdown2.COV1.0.conv_i.bias f4 [8]
0	0x3c7d625b	0.015465344
1	0x3e4a8f20	0.1978116
2	0x3df810ce	0.1211258
3	0x3dfb3956	0.12266795
4	0x3e7f80ce	0.24951479
5	0xbe22e74d	-0.15908547
6	0xbe2240a8	-0.15844977
7	0xbd0f9633	-0.03505535

net1.netdown3.COV1.0.conv_r.weight f4 [16, 8, 3, 3]
0	0xbeabe603	-0.33573923
1	0xbe1dbd89	-0.15404333
2	0xbdb69160	-0.08914447
3	0xbe83c0ec	-0.25733125
4	0xbafb3754	-0.0019166269
5	0x3dbcba1b	0.09215184
6	0xbecac0a5	-0.396001
7	0xbe928c58	-0.286227
8	0x3d88bae8	0.066762745
9	0x3d7fbab6	0.06243392
10	0xbd9675c2	-0.07346679
11	0xbdcb53ef	-0.099281184
12	0x3df35d9a	0.118830875
13	0x3e328c1c	0.1743626
14	0x3da9ecc4	0.082971126
15	0xbda45fda	-0.08026095
16	0xbc2cf2c0	-0.010555923
17	0x3d34895f	0.04407632
18	0xbdc57655	-0.09641711
19	0xbd8d4077	-0.06897061
20	0xbe1bcd72	-0.1521509
21	0x3d47eb2f	0.048808273
22	0xbd6158fb	-0.0550165
23	0xbe74ac32	-0.23893812
24	0x3de99c04	0.11406711
25	0x3cc4f8d4	0.024044432
26	0xbdb9180f	-0.09037792
27	0x3dd58b56	0.10426967
28	0x3e132c29	0.14372315
29	0x3e957461	0.29190353
30	0x3e61293c	0.21988386
31	0x3e21efe9	0.15814175
32	0x3e92fd39	0.2870882
33	0xbe2b0031	-0.16699292
34	0x3e11f76d	0.14254542
35	0x3a8f8e1c	0.0010952386
36	0xbd4819ce	-0.048852734
37	0xbeac382f	-0.33636615
38	0xbefcd659	-0.49382284
39	0x3e503a49	0.20334734
40	0x3dbf0708	0.09327513
41	0x3d9f981e	0.07792686
42	0x3d43a845	0.047767896
43	0xbddbac14	-0.10726181
44	0xbe4fce5c	-0.20293564
45	0xbd557efe	-0.052123062
46	0x3ddee363	0.10883214
47	0x3e39a56d	0.18129511
48	0xbd59ec83	-0.05320407
49	0x3d23535d	0.039874423
50	0x3d980230	0.07422292
51	0x3d9f0d62	0.077662244
52	0x3d876028	0.06610137
53	0x3e17d7c4	0.14828402
54	0x3cb66a97	0.022267623
55	0x3cdd80a7	0.027038885
56	0x3c8ee5f6	0.017443638
57	0x3d34b22b	0.044115227
58	0xbd3ad7a5	-0.04561581
59	0xbd80cb16	-0.062887356
60	0x3da73d30	0.081659675
61	0xbd5d072f	-0.05396193
62	0xbd6201f8	-0.05517766
63	0xbe79bc9f	-0.2438836
64	0xbea9dc7e	-0.33176035
65	0xbeab26bd	-0.33427992
66	0xbdf124e0	-0.117746115
67	0xbb8e0124	-0.004333632
68	0xbe284a7b	-0.16434662
69	0x3d784068	0.060608298
70	0x3cf3a550	0.029741913
71	0x3c995cdb	0.018721035
72	0x3d0b270e	0.033972792
73	0x3d8d263a	0.06892057
74	0xbce27671	-0.027644368
75	0xbddda817	-0.10823076
76	0xbebbb0ac	-0.36658227
77	0xbe7d68e0	-0.24747038
78	0xbd853190	-0.06503594
79	0xbea8bf3b	-0.32958397
80	0xbea6c5ae	-0.32572693
81	0xbc8b3233	-0.01699171
82	0x3e38ee88	0.18059742
83	0x3d8a2128	0.06744605
84	0x3c72d01f	0.014820128
85	0xbdb07a90	-0.08617127
86	0xbba5a953	-0.0050555854
87	0xbd713024	-0.0588838
88	0xbacae659	-0.0015480026
89	0x3e3ed8b9	0.1863736
90	0xbde894c5	-0.113565005
91	0x3dcb9780	0.09941006
92	0xbd862961	-0.06550861
93	0xbda14c72	-0.07875909
94	0x3e1e9ac3	0.15488724
95	0x3dadb657	0.08482044
96	0x3d255e47	0.040373113
97	0xbdaa868d	-0.08326445
98	0xbe57fe0f	-0.2109301
99	0x3e242b56	0.16032156
100	0x3e06e280	0.1317234
101	0x3e42f958	0.1904043
102	0x3ddf14b4	0.10892621
103	0x3cd9de99	0.0265954
104	0xbd38b0fc	-0.04509066
105	0xbe4debdd	-0.20109506
106	0xbda99050	-0.082794785
107	0xbd58107a	-0.05275009
108	0x3e578824	0.21048027
109	0x3e71da62	0.23618463
110	0x3d14961a	0.03627596
111	0x3e31e496	0.17372355
112	0xbcf12889	-0.029438274
113	0xbe122502	-0.1427193
114	0x3e09b24e	0.13446924
115	0x3da020b7	0.0781874
116	0xbe003260	-0.12519217
117	0x3d0ed38f	0.034869727
118	0xbc14ffae	-0.009094162
119	0xbd4822fb	-0.048861485
120	0x3ca126a4	0.019671746
121	0xbd7721fc	-0.060335144
122	0xbdfbd279	-0.12296004
123	0x3ddfce2d	0.10927997
124	0xbb176b36	-0.0023104674
125	0xbdc0b643	-0.09409764
126	0x3dbfb353	0.09360375
127	0x3e21d7b7	0.15804945
128	0xbd4689b8	-0.048471183
129	0x3d574d8f	0.0525642
130	0x3e382df4	0.1798628
131	0xbde5c36e	-0.11218916
132	0x3d7cf2ef	0.061755117
133	0xbd472c28	-0.048626095
134	0xbda79aba	-0.081838086
135	0x3e5dac89	0.21647848
136	0x3da8efea	0.08248885
137	0x3c28db42	0.010306181
138	0x3d15f838	0.036613673
139	0x3dacbd6f	0.08434569
140	0xbe2adb7d	-0.1668529
141	0xbe8ed420	-0.27896214
142	0xbe659e2d	-0.2242362
143	0xbe9423f0	-0.28933668
144	0x3c31c2d1	0.0108496705
145	0x3d0c4107	0.034241702
146	0xbcc764ad	-0.024339998
147	0x3d65aad2	0.05607111
148	0xbdeda6c3	-0.11604073
149	0xbe18d83b	-0.14926235
150	0x3a77d003	0.00094532984
151	0xbdf40873	-0.11915674
152	0xbd7d9c93	-0.0619169
153	0x3d2b4a54	0.04181893
154	0x3da109cb	0.07863196
155	0x3d161f1b	0.03665076
156	0x3da28177	0.0793485
157	0x3bfaf10c	0.0076581296
158	0xbc9b5a42	-0.018963937
159	0xbd1ffac2	-0.0390575
160	0xbce01285	-0.02735258
161	0xbd7c6f0d	-0.061629344
162	0xbe11395c	-0.14182037
163	0xbdd06ff1	-0.10177601
164	0xbdf3ed8b	-0.11910542
165	0x3c2bc18a	0.010483155
166	0xbd1ba81e	-0.038002126
167	0x3c8ec4d9	0.017427849
168	0x3db3f787	0.087874465
169	0xbad53683	-0.0016266856
170	0x3c81aae5	0.01582856
171	0xbb87ae1c	-0.0041406285
172	0xbd1b588f	-0.037926253
173	0x3c0dcccb	0.0086547835
174	0xbd56ae08	-0.052412063
175	0xbd2bbfe5	-0.04193105
176	0xbd23df19	-0.040007684
177	0xbdf43d68	-0.11925775
178	0xbd9d92b7	-0.07693999
179	0xbe0b83e8	-0.13624537
180	0x3dea3906	0.114366576
181	0x3db4ad9e	0.08822177
182	0xbd833f05	-0.064085044
183	0xbcc598de	-0.024120744
184	0x3da0f815	0.07859818
185	0xbe6a93b7	-0.22907911
186	0x3e7ae747	0.24502288
187	0x3ca259b2	0.01981816
188	0xbd167802	-0.036735542
189	0xbdc87217	-0.09787386
190	0xbe9dbe19	-0.30809096
191	0xbe6a6a93	-0.22892217
192	0x3dbe0bc1	0.09279586
193	0xbc6c9c04	-0.014441494
194	0xbec8b1cf	-0.39198157
195	0x3e1079cb	0.1410896
196	0x3c88e528	0.016710833
197	0xbeaf1494	-0.34195387
198	0x3aa5e79c	0.0012657526
199	0xbf005f69	-0.50145584
200	0xbedcc6ac	-0.43120325
201	0xbd1fd86d	-0.03902476
202	0xbe89a665	-0.2688476
203	0xbf061fdf	-0.5239238
204	0xbdea5cc5	-0.11443476
205	0xbe365135	-0.17804416
206	0xbe912ebc	-0.28355968
207	0x3d193b09	0.037409816
208	0xbd9d8ce7	-0.076928906
209	0x3deb14b2	0.11478557
210	0xbdf99b96	-0.12187879
211	0x3e326167	0.17419969
212	0x3d47b35d	0.04875504
213	0xbdbd5136	-0.092440054
214	0xbd8600b8	-0.06543106
215	0x3dcfe35f	0.101507895
216	0x3e0d289a	0.1378502
217	0x3d96ee38	0.07369655
218	0x3c855651	0.01627651
219	0x3e285c79	0.16441526
220	0x3e34a1f2	0.17639902
221	0x3ce39709	0.02778198
222	0x3e5bc444	0.21461588
223	0xbc3c7630	-0.0115027875
224	0xbe007106	-0.12543115
225	0xbd1f2758	-0.03885588
226	0x3db17a03	0.0866585
227	0xbd7a95b0	-0.06117791
228	0x3b5f950c	0.0034115938
229	0x3d7ee194	0.062226847
230	0xbd776402	-0.06039811
231	0xbe107232	-0.14106062
232	0x3c7d37da	0.015455211
233	0xbb98474b	-0.0046471707
234	0xbdd84d21	-0.10561586
235	0x3c328c45	0.010897701
236	0x3b6f68b2	0.003653091
237	0x3d4f2b3a	0.050578333
238	0xbdb0d88f	-0.08635055
239	0xbda045e0	-0.078258276
240	0xbe04d930	-0.12973475
241	0xbd6910b5	-0.0569007
242	0x3db65b53	0.089041375
243	0x3ce0f741	0.02746165
244	0x3e4a2c57	0.19743477
245	0x3e90b7b6	0.2826516
246	0xbcc582c5	-0.024110207
247	0x3ebd6583	0.3699151
248	0x3ec732ae	0.38905853
249	0x3d4f4de7	0.050611403
250	0x3d9c46cc	0.07630691
251	0x3e417c40	0.18895054
252	0x3ea0b883	0.3139077
253	0x3e01ef79	0.12689008
254	0x3d33be19	0.043882463
255	0x3b7706dc	0.0037693297

net1.netdown3.COV1.0.conv_r.bias f4 [16]
0	0x3e6f04c0	0.23341656
1	0xbd746b11	-0.05967242
2	0xbd2540db	-0.040345054
3	0x3d833bfe	0.06407927
4	0xbdf3bd24	-0.1190131
5	0x3e69b6da	0.22823659
6	0xbd90b8e5	-0.07066516
7	0x3db0794a	0.08616884
8	0xbd018a66	-0.031626128
9	0x3dc386a0	0.09547162
10	0x3dd6742f	0.10471379
11	0x3cdf4a6a	0.027257163
12	0xbe4e71a5	-0.2016054
13	0x3e4c4f1f	0.19952057
14	0x3d99d057	0.07510441
15	0x3e3275e7	0.17427789

net1.netdown3.COV1.0.conv_i.weight f4 [16, 8, 3, 3]
0	0x3d37df34	0.044890597
1	0xbd8be400	-0.06830597
2	0xbd231028	-0.03981033
3	0x3e0c422c	0.13697118
4	0xbd5ef525	-0.054433007
5	0xbd7e802e	-0.06213396
6	0x3e110ce1	0.14165069
7	0x3de4f8d8	0.11180276
8	0xbba7c799	-0.0051202294
9	0xbdb89488	-0.09012705
10	0x3bcb13e3	0.006197439
11	0xbd204abe	-0.03913378
12	0xbda4e088	-0.080506384
13	0xbe15e3f2	-0.14637735
14	0xbe986a6e	-0.297687
15	0x3cbd996e	0.02314445
16	0xbd3cfab5	-0.04613753
17	0xbdf352ed	-0.11881051
18	0x3d8e6a64	0.06953886
19	0x3d113d7d	0.03545903
20	0xbd8771ea	-0.06613524
21	0x3c2f0c6e	0.010684116
22	0xbe22af69	-0.15887226
23	0xbd96e6be	-0.07368229
24	0xbde28c2a	-0.110618904
25	0x3ad9affb	0.0016608232
26	0x3d984b5e	0.0743625
27	0xbde47ad5	-0.11156241
28	0xbe46c044	-0.19409281
29	0xbe644416	-0.22291598
30	0xbd804d28	-0.062647164
31	0x3d757456	0.0599254
32	0x3b26a595	0.0025428284
33	0xbdaca719	-0.08430309
34	0xb7b8ed9c	-2.2045155e-05
35	0xbcfdbe30	-0.030974478
36	0x3d3296ea	0.043600954
37	0xbda381b7	-0.079837255
38	0xbd799c18	-0.06093988
39	0x3d96912d	0.07351909
40	0xbdb30767	-0.08741646
41	0xbea3abcc	-0.31967008
42	0x3dfd05ef	0.12354647
43	0x3e1da339	0.15394296
44	0x3dfe77a4	0.124251634
45	0x3df8a91e	0.121416315
46	0xbd0620b3	-0.03274603
47	0xbe14e508	-0.14540493
48	0x3eb1e14d	0.34742203
49	0x3d75e0f7	0.060028996
50	0xbd81b70d	-0.06333742
51	0x3e3f3585	0.1867276
52	0x3d4d380d	0.050102282
53	0xbc1054f8	-0.008809321
54	0x3e68ffee	0.2275388
55	0x3d2b35d9	0.0417994
56	0xbe96b925	-0.2943813
57	0x3e777b92	0.24168232
58	0x3eff4cc2	0.4986325
59	0x3d8fd316	0.07022683
60	0xbde46fda	-0.111541465
61	0x3eb022ec	0.34401643
62	0x3eb1024f	0.34572074
63	0xbdae632c	-0.08515009
64	0x3e092344	0.13392359
65	0x3d32c9fe	0.043649666
66	0xbda48817	-0.080337696
67	0x3d170916	0.0368739
68	0x3e371c89	0.17881979
69	0xbd980b6f	-0.07424056
70	0x3c426abd	0.011866269
71	0x3dfdaba2	0.12386252
72	0xbe4388db	-0.19095175
73	0xbe7093e5	-0.23493917
74	0xbe129dc8	-0.14318001
75	0x39ec8dfd	0.00045119217
76	0x3c729b6d	0.014807564
77	0x3e4830ba	0.19549838
78	0xbd6ab2e6	-0.057299517
79	0xbd89cdcb	-0.06728705
80	0xbc988abb	-0.01862084
81	0xbc9c4919	-0.019077824
82	0x3cca843d	0.02472126
83	0xbdcb512a	-0.0992759
84	0x3d9512d5	0.072789825
85	0x3e13aaff	0.14420699
86	0xbe339b98	-0.17539823
87	0x370a1155	8.229476e-06
88	0xbe36eee6	-0.1786457
89	0xbe8f44d3	-0.27982196
90	0x3d8cd1e2	0.068759695
91	0x3d926806	0.07148747
92	0xbd853d00	-0.065057755
93	0x3d813444	0.06308797
94	0xbd86e219	-0.065860935
95	0xbe35d705	-0.17757805
96	0x3c0aab4f	0.008463695
97	0x3e1f5162	0.15558389
98	0x3c96b3c1	0.01839626
99	0xbe1499d4	-0.14511806
100	0xbe20978a	-0.15682808
101	0xbca9cde2	-0.020728055
102	0x3cf00d48	0.029303208
103	0x3e6850ce	0.22687075
104	0x3e5a7416	0.21333346
105	0xbcf24d94	-0.029578008
106	0xbdd27a94	-0.10277286
107	0x3d88c568	0.06678277
108	0xbdc0cbcf	-0.094138734
109	0x3d0f1369	0.03493062
110	0x3c194d0b	0.009356747
111	0x3d3f6383	0.04672576
112	0x3db46483	0.088082336
113	0xbd482a5d	-0.048868526
114	0x3cce6227	0.025193287
115	0x3cdf0b6a	0.027227122
116	0xbdabd404	-0.08390048
117	0xbbfde8a6	-0.007748681
118	0x3e93f0bd	0.28894606
119	0xbe427ee3	-0.18993716
120	0xbdcdfd65	-0.10058097
121	0x3e80b88d	0.251408
122	0xbbc6bd25	-0.0060650283
123	0xbd8fca17	-0.070209675
124	0x3e0570b0	0.13031268
125	0x3d8c2af8	0.06844133
126	0x3dffe4a4	0.124947816
127	0x3ea49274	0.32142985
128	0x3e8b03d5	0.2715136
129	0xbe6c68a8	-0.23086798
130	0x3e59c798	0.21267545
131	0x3d62f055	0.05540498
132	0xbea3d21f	-0.31996247
133	0xbec641db	-0.3872212
134	0xbecda04b	-0.40161356
135	0x3d889b6b	0.066702686
136	0x3cde897b	0.027165165
137	0xbdb614bf	-0.08890676
138	0xbc75846d	-0.014985186
139	0xbe0a614a	-0.13513675
140	0xbd9ed4b4	-0.07755414
141	0x3d2508c5	0.040291566
142	0xbd51217c	-0.051057324
143	0x3d9bfd9b	0.07616731
144	0x3dcbab07	0.0994473
145	0xbd9154ff	-0.0709629
146	0x3db0e483	0.08637335
147	0x3df3b479	0.11899657
148	0xbe374063	-0.17895655
149	0xbe09ed4c	-0.13469428
150	0x3e07c1a2	0.13257459
151	0x3de8ddef	0.113704555
152	0xbe1c5f6a	-0.15270773
153	0x3d093728	0.033499867
154	0x3cbf2ceb	0.023336848
155	0x3db6dd58	0.08928937
156	0x3cf3f45f	0.029779611
157	0x3d1007c3	0.035163652
158	0xbd7d541d	-0.061847795
159	0xbc91a7c8	-0.0177802
160	0xbd240c75	-0.040050942
161	0xbd5cef38	-0.053939074
162	0xbd8a07d0	-0.06739771
163	0x3cbdc416	0.02316479
164	0x3d36ca49	0.044626508
165	0xbd945b0c	-0.07243928
166	0x3e12bda7	0.14330159
167	0x3e317de7	0.17333184
168	0xbe59452c	-0.21217793
169	0x3db24b76	0.08705799
170	0x3e53322a	0.20624605
171	0x3dabd70d	0.08390627
172	0xbd217ec2	-0.039427526
173	0xbce8dcb5	-0.028425554
174	0x3d4bd1d8	0.04976067
175	0x3e0fb283	0.1403294
176	0xbe0243fc	-0.12721246
177	0x3e12d5c4	0.14339358
178	0x3e1b648d	0.15175076
179	0x3d75f48c	0.06004767
180	0x3e59f5ab	0.21285121
181	0xbbaf71ef	-0.005354158
182	0xbe4fc4f6	-0.20289978
183	0x3d095fae	0.033538513
184	0x3c2b22ca	0.010445306
185	0xbee7ea10	-0.45295763
186	0x3dd316a6	0.10307054
187	0xbde95a46	-0.113941714
188	0xbe37650a	-0.17909637
189	0x3e10ae71	0.14129044
190	0x3d9e9d44	0.0774484
191	0x3dd17f48	0.10229355
192	0x3e3d5095	0.18487771
193	0x3d9f419a	0.077761844
194	0x3a04373f	0.00050436327
195	0x3e06735c	0.13129944
196	0x3d9725e0	0.07380271
197	0xbc5afaf3	-0.013365495
198	0x3d772d82	0.060346134
199	0x3d1c532f	0.038165268
200	0x3bda8b8e	0.0066694682
201	0x3d2b3e26	0.041807316
202	0xbd67f53f	-0.05663037
203	0xbc427e1d	-0.011870888
204	0xbaaffd58	-0.0013426943
205	0x3b7cca3c	0.003857269
206	0x3e3fc65c	0.18728012
207	0xbe14f96f	-0.14548276
208	0x3e3fc2be	0.18726632
209	0x3c18937f	0.00931251
210	0x3eed0425	0.46292225
211	0x3f0d959e	0.5530642
212	0x3f19871a	0.59971774
213	0x3dd98cbe	0.106225476
214	0x3dc00a31	0.09376944
215	0x3e542ea4	0.20720917
216	0x3db7d475	0.0897607
217	0x3e5563e9	0.20838894
218	0x3d5bbb10	0.053645194
219	0x3e4bfc8f	0.19920562
220	0x3de417e5	0.1113737
221	0x3d236f64	0.039901152
222	0xbd15acd6	-0.036541782
223	0xbe581362	-0.21101144
224	0xbe1ee16c	-0.15515679
225	0xbe3ea9c7	-0.18619452
226	0xbd3de954	-0.046365097
227	0xbe0777d4	-0.13229305
228	0xbe339abb	-0.17539494
229	0xbde09152	-0.10965218
230	0x37562f60	1.2766424e-05
231	0x3db6b2c3	0.08920815
232	0x3e10d30d	0.1414301
233	0x3e61c767	0.22048722
234	0xbe59e310	-0.21278024
235	0xbde98d38	-0.114038885
236	0xbda93d9e	-0.08263706
237	0xbe0c7486	-0.13716325
238	0x3c24bd11	0.010054843
239	0x3dceb7e8	0.10093671
240	0xbd82845a	-0.063729
241	0x3e54c552	0.20778397
242	0x3e07ef54	0.1327489
243	0x3db0e5ff	0.08637618
244	0x3dceb13f	0.10092401
245	0x3cd86847	0.02641691
246	0xbd6c35da	-0.057668544
247	0x3e0a8dfa	0.13530722
248	0xbe33462f	-0.17507242
249	0x3cd5607f	0.02604699
250	0xbeb1be87	-0.34715673
251	0xbebae001	-0.36499026
252	0x3dcea591	0.10090173
253	0x3e0301f4	0.12793714
254	0x3e58e509	0.2118112
255	0xbd8280e1	-0.06372238

net1.netdown3.COV1.0.conv_i.bias f4 [16]
0	0xbe39d2ea	-0.18146864
1	0xbe0627ff	-0.13101195
2	0xbdaff328	-0.085913
3	0xbb9a2892	-0.0047045434
4	0x3d9b6baf	0.075888984
5	0x3e803be6	0.250457
6	0xbe0dd9e2	-0.13852647
7	0xbe0f8960	-0.14017248
8	0xbd3eb622	-0.046560414
9	0x3de4886e	0.111588344
10	0xbe44c5cc	-0.19216079
11	0x3d42a4c1	0.047520403
12	0x3e2dc23d	0.16968627
13	0x3d26686b	0.040626924
14	0x3d117a39	0.03551695
15	0xbe1c3fa4	-0.15258652

net1.netdown4.COV1.0.conv_r.weight f4 [32, 16, 3, 3]
0	0xbe18c740	-0.14919758
1	0xbe7a45dd	-0.24440713
2	0xbda783cd	-0.08179436
3	0xbd1dbfcd	-0.038512994
4	0xbd4332b8	-0.04765579
5	0x3d2a3ed8	0.04156384
6	0xbce045a0	-0.02737695
7	0xbcbb4818	-0.022861525
8	0x3e255bbf	0.1614828
9	0x3d306805	0.04306795
10	0x3c421881	0.0118466625
11	0x3d3222ef	0.043490347
12	0x3d1c81ed	0.038209844
13	0xbd416fd2	-0.04722578
14	0x3e0c7d6d	0.13719721
15	0xbe3703d0	-0.17872548
16	0xbd0f8fc5	-0.03504922
17	0xbdcb9727	-0.099409394
18	0x3e7edabd	0.2488813
19	0xbc4483d5	-0.011994322
20	0xbd53ae02	-0.05167962
21	0x3e8e7081	0.2782021
22	0x3de4f06f	0.111786716
23	0xbce60f0a	-0.028083343
24	0x3db3e2d5	0.08783499
25	0xbe0f907a	-0.14019957
26	0xbe224ccd	-0.1584961
27	0xbd294862	-0.041328795
28	0x3dca4648	0.09876686
29	0x3de6edcb	0.11275824
30	0xbdebc9f9	-0.115131326
31	0xbdbaf975	-0.091296114
32	0xbdf8cd7e	-0.121485695
33	0xbe388d9a	-0.18022767
34	0xbe780738	-0.24221504
35	0x3d733235	0.059374053
36	0x3e15a811	0.14614893
37	0x3dfa2a24	0.12215069
38	0x3c39cf0f	0.0113408705
39	0x3d7c5961	0.061608676
40	0xbc647650	-0.0139442235
41	0xbd5ce353	-0.05392773
42	0x3e2714c9	0.16316523
43	0x3d47716d	0.048692156
44	0x3ca07b89	0.019590156
45	0xbe24ccf2	-0.16093805
46	0xbd674563	-0.056462657
47	0x3e6bc4d5	0.23024304
48	0xbe9d57f0	-0.30731153
49	0xbe2085ee	-0.1567609
50	0x3e44cf6d	0.19219752
51	0xbdb84cd5	-0.089990295
52	0x3e022400	0.12709045
53	0x3eda15a9	0.4259465
54	0x3d96eeb7	0.0736975
55	0x3dbc7a73	0.09203043
56	0x3de57730	0.11204374
57	0x3ba526f9	0.0050400463
58	0x3c392e31	0.011302517
59	0x3e04d9c8	0.12973702
60	0x3e2426ab	0.16030376
61	0x3d38f35a	0.045153953
62	0x3e85e9c0	0.261549
63	0xbe88c13d	-0.2670993
64	0xbe3bb76c	-0.18331689
65	0xbe25c064	-0.16186672
66	0xbd1fefb8	-0.039046973
67	0x3e31dcf7	0.17369448
68	0x3d940782	0.072279945
69	0xbe7f8bf4	-0.24955732
70	0x3d6cc943	0.057809126
71	0xbe879ae7	-0.2648537
72	0x3eb3dee9	0.35131004
73	0xbb43edf9	-0.0029896481
74	0xbdb2e4b0	-0.08735025
75	0x3eda0bee	0.42587227
76	0x3dcc5607	0.09977346
77	0xbdf110de	-0.11770795
78	0x3d13ddff	0.036100384
79	0xbdfaccf7	-0.12246125
80	0xbe2ce1cc	-0.1688301
81	0xbd5f2d1f	-0.05448639
82	0xbe59fcc7	-0.21287833
83	0xbdca2db3	-0.09871998
84	0xbca70e96	-0.020392697
85	0xbd34dfec	-0.04415886
86	0xbd8d3c15	-0.06896225
87	0xbd3ffc13	-0.046871256
88	0xbd05a170	-0.032624662
89	0xbe31a987	-0.17349826
90	0xbda802c8	-0.082036555
91	0xbdf1da47	-0.11809211
92	0xbdf43c0a	-0.11925514
93	0x3dfb3847	0.122665934
94	0xbd3f002c	-0.046631023
95	0x3cf4c3cd	0.029878521
96	0xbcaae336	-0.020860296
97	0x3d830bd2	0.06398739
98	0x3c349e28	0.0110240355
99	0x3dd5ab2e	0.104330406
100	0x3e03cc21	0.12870838
101	0xbbf78852	-0.0075540924
102	0x3e0b184b	0.13583486
103	0x3e6686aa	0.22512308
104	0x3905af11	0.00012749086
105	0xbdb7c79e	-0.08973621
106	0x3d522ba8	0.051311165
107	0x3ce7cb36	0.02829514
108	0x3e356b77	0.17716776
109	0x3eaaf0a3	0.33386716
110	0xbd277ca5	-0.040890355
111	0x3c387637	0.011258653
112	0x3e889b84	0.2668115
113	0xbd4d3032	-0.05009479
114	0x3a30906d	0.00067353883
115	0xbdd3bf01	-0.103391655
116	0xbdd4b22c	-0.10385546
117	0xbdf30100	-0.11865425
118	0xbebfbad6	-0.37447232
119	0xbe2f3269	-0.17109074
120	0xbd73ad45	-0.059491415
121	0xbe478e2e	-0.19487831
122	0xbc93f42e	-0.01806077
123	0x3d1a5d4b	0.037686627
124	0xbde45433	-0.11148872
125	0x3d44b257	0.04802164
126	0x3da4a781	0.08039761
127	0xbe6e957a	-0.23299208
128	0x3e2fc0a5	0.17163332
129	0x3de9607c	0.11395356
130	0xbe993e6e	-0.29930443
131	0x3c8f2766	0.017474841
132	0xbdc35620	-0.095379114
133	0xbea216d5	-0.31658044
134	0x3e1d31e3	0.15351062
135	0xbe77aa9b	-0.24186175
136	0xbe15472d	-0.14577933
137	0xbe49d6ea	-0.1971089
138	0xbd5550a5	-0.05207886
139	0x3dd171c6	0.10226779
140	0xbba489d4	-0.005021313
141	0x3dd4677a	0.10371299
142	0x3dae1a69	0.08501131
143	0x3d659a86	0.05605557
144	0xbc92b324	-0.017907687
145	0xbd7fc7e0	-0.062446475
146	0x3d14d7c5	0.036338586
147	0xbe4f2afc	-0.20231241
148	0xbe6effe3	-0.233398
149	0xbe32cbf2	-0.17460611
150	0x3e27442a	0.16334596
151	0x3de33312	0.11093725
152	0xbdc89954	-0.0979487
153	0xbe34a6c4	-0.17641741
154	0xbde14de1	-0.11001182
155	0xbe32fd19	-0.17479362
156	0xbdc4051f	-0.09571289
157	0x3e9463cf	0.28982398
158	0x3dd7add7	0.10531204
159	0xba846712	-0.0010101518
160	0xbc827af7	-0.015927775
161	0xbd743c52	-0.05962784
162	0x3e5a5d41	0.21324636
163	0x3cd73b61	0.026273431
164	0xbd691f47	-0.056914594
165	0x3d1935f3	0.037404966
166	0x3cbe50ff	0.023231981
167	0x3e06408a	0.13110557
168	0x3de6c0a6	0.112672135
169	0xbdca1a1a	-0.0986826
170	0xbdc416c0	-0.09574652
171	0xbd4ae533	-0.049534988
172	0xbe0584cc	-0.13038939
173	0x3e947774	0.28997386
174	0x3dddb0f5	0.108247675
175	0xbeafb57b	-0.34318146
176	0x3d6f3610	0.058401167
177	0xbd1e8373	-0.03869958
178	0x3d0af21e	0.033922307
179	0xbd42dc38	-0.0475733
180	0x3cd8205c	0.026382618
181	0xbbeeec58	-0.007291358
182	0x3e080cb6	0.13286099
183	0xbd9d32ee	-0.0767573
184	0xbe19fa3e	-0.15036866
185	0xbd81aaff	-0.06331443
186	0xbd84e805	-0.06489567
187	0xbdb7bfd3	-0.089721344
188	0x3c823302	0.015893463
189	0x3ddfe671	0.10932625
190	0x3d45e4f6	0.048314057
191	0x3d9222eb	0.07135566
192	0x3def9245	0.116978206
193	0x3dd0339e	0.10166095
194	0xbd623004	-0.055221573
195	0x3d867b9a	0.06566544
196	0x3c5c89ee	0.013460619
197	0x3d326f80	0.043563366
198	0x3d3c7e25	0.04601874
199	0xbdb22bd0	-0.08699763
200	0x3ddd1656	0.10795276
201	0xbd8fbf81	-0.07018948
202	0xbe6035c1	-0.21895505
203	0xbe1cbffa	-0.15307608
204	0x3dcd15a0	0.1001389
205	0x3e1a441a	0.15065041
206	0x3c770a25	0.015078102
207	0x3e071e4e	0.13195154
208	0xbe07f483	-0.13276868
209	0x3d1dd1dc	0.038530216
210	0xba712f35	-0.0009200455
211	0x3e0bf36b	0.13667075
212	0x3e0972cd	0.134227
213	0xbaa3e151	-0.0012503063
214	0xbc8a44e8	-0.01687856
215	0x3dcd8d89	0.10036761
216	0x3d5c2cd7	0.0537537
217	0x3de52802	0.111892715
218	0x3d4d2164	0.050080672
219	0xbd963ee6	-0.07336216
220	0xbd809ea5	-0.06280259
221	0x3d611336	0.05494996
222	0x3d72c97b	0.059274178
223	0x3d3a6f6d	0.04551642
224	0xbb828922	-0.0039836327
225	0x3e1fb525	0.15596445
226	0xbe3b8dcd	-0.18315811
227	0xbe919813	-0.28436336
228	0x3d3fe8d4	0.0468529
229	0x3df4d248	0.119541705
230	0x3dac6c72	0.08419122
231	0x3d683d7b	0.056699257
232	0xbe67b450	-0.22627378
233	0x3e0b28ae	0.13589737
234	0x3cd61162	0.026131336
235	0x3cfb6120	0.030685961
236	0x3e2521ea	0.16126218
237	0x3dfc8360	0.12329745
238	0xbe353b26	-0.17698345
239	0xbd7cacac	-0.06168811
240	0x3cbd7be6	0.023130368
241	0xbd99f8d9	-0.07518167
242	0xbd8560e0	-0.06512618
243	0xbdcdaa5f	-0.10042261
244	0x3d235ac5	0.039881486
245	0x3c18d46a	0.009327987
246	0xbe5b60bd	-0.21423621
247	0xbd6214d3	-0.05519564
248	0x3d468d71	0.048474733
249	0xbd7b0338	-0.061282367
250	0x3e09e66a	0.13466802
251	0x3dcaec95	0.09908406
252	0xbe9cef21	-0.3065119
253	0x3d531ca2	0.05154098
254	0x3e901679	0.28142145
255	0xbdefaead	-0.11703239

net1.netdown4.COV1.0.conv_r.bias f4 [32]
0	0x3dff1787	0.12455659
1	0x3da07deb	0.07836517
2	0x3e2e8d34	0.17046052
3	0x3d4bb15a	0.049729683
4	0x3df6a40f	0.120430104
5	0x3e24ea26	0.16104946
6	0xbda900f5	-0.08252136
7	0x3e3758db	0.1790499
8	0x3de05380	0.10953426
9	0x3e1366af	0.1439464
10	0xbb1ddf94	-0.0024089562
11	0x3ceef5e6	0.029169988
12	0xbc3179ca	-0.010832259
13	0x3e80136b	0.25014815
14	0x3e17b3a8	0.14814627
15	0xbdd7d779	-0.10539145
16	0x3d7dcd63	0.06196345
17	0x3e572d3a	0.21013346
18	0xbd2708b7	-0.040779795
19	0xbd1caa76	-0.0382485
20	0xbdeb84a5	-0.11499909
21	0x3e3e3eb6	0.1857861
22	0x3da4062e	0.08008991
23	0x3e1b36ec	0.1515767
24	0xbdd6d68a	-0.10490139
25	0xbdb445aa	-0.0880235
26	0x3b90eb80	0.004422605
27	0x3e191600	0.14949799
28	0xbd3e1e05	-0.046415348
29	0xbc0d1f07	-0.0086133545
30	0x3dc13db5	0.09435598
31	0x3d970f6a	0.07375987

net1.netdown4.COV1.0.conv_i.weight f4 [32, 16, 3, 3]
0	0x3dd78e03	0.105251335
1	0x3dedf306	0.11618619
2	0x3de86ef9	0.11349291
3	0xbd4778c3	-0.04869915
4	0x3da4de49	0.0805021
5	0x3e3b2a0a	0.18277755
6	0x3e46ca45	0.19413097
7	0x3e2f4faf	0.1712024
8	0x3da7d3f4	0.08194724
9	0x3e67c1a7	0.22632466
10	0x3cce280a	0.025165576
11	0x3cf5c1bc	0.029999606
12	0x3def8d7d	0.116969086
13	0x3e05364e	0.13008997
14	0xbdcd8891	-0.100358136
15	0x3d50df13	0.05099399
16	0xbdb0f639	-0.08640713
17	0xbe70a183	-0.23499112
18	0x3e7d5e0a	0.24742904
19	0xbdc035fd	-0.093852974
20	0x3cb8b734	0.022548296
21	0x3e790663	0.24318843
22	0xbe99ef35	-0.30065313
23	0xbc56e4c3	-0.0131160645
24	0x3e4395d2	0.1910012
25	0xbda25733	-0.07926788
26	0xbafda195	-0.0019350523
27	0x3e2fe723	0.17178015
28	0xbc93ada1	-0.018027129
29	0x3c3db3fb	0.011578555
30	0xbdad3073	-0.084565066
31	0xbe28c4ff	-0.16481398
32	0xbdd5beb7	-0.104367666
33	0x3e428526	0.18996105
34	0x3e41a7a3	0.18911605
35	0x3ea5d420	0.323884
36	0x3e486d9c	0.19573063
37	0x3d951db2	0.072810546
38	0xbdd9dab0	-0.106374145
39	0x3e828421	0.2549143
40	0x3e4bc57b	0.19899552
41	0xbe16471f	-0.14675568
42	0x3dbff651	0.09373153
43	0xbdba043f	-0.09082841
44	0xbe9c0030	-0.30468893
45	0x3bb3b498	0.005484175
46	0x3ddbe01a	0.10736103
47	0x3c7fb4b0	0.015607044
48	0xbd6ad127	-0.05732837
49	0x3d761bcd	0.060085107
50	0xbd33fd80	-0.04394293
51	0xbdab6cf4	-0.083703905
52	0xbe089ddd	-0.1334147
53	0xbcebce6d	-0.028784955
54	0xbd102c95	-0.035198767
55	0xbe08b63d	-0.13350768
56	0xbd0d19ae	-0.03444832
57	0xbe1c3280	-0.15253639
58	0xbd573e10	-0.05254942
59	0x3e38cdeb	0.18047301
60	0x3e9dcf97	0.3082244
61	0x3f0c7ed0	0.54881
62	0x3dabdacf	0.08391344
63	0x3edd0394	0.43166792
64	0xbebfa1b3	-0.37428054
65	0x3c0e5c82	0.008689048
66	0x3cb93783	0.022609478
67	0xbe8ae3b2	-0.27126843
68	0xbde799f7	-0.11308663
69	0x3d4b4e01	0.049634937
70	0xbf16d0f2	-0.58912575
71	0xbe245495	-0.1604789
72	0x3e42b1d5	0.1901315
73	0x3d9e5bab	0.07732328
74	0x3e8f5da3	0.28001127
75	0x3e470327	0.19434796
76	0xbd502deb	-0.05082504
77	0x3ebb8b69	0.366298
78	0x3e62fb31	0.22166134
79	0x3b56bf80	0.0032767951
80	0x3ec34d4e	0.38144916
81	0x3e82b59b	0.2552918
82	0xb9d2ec36	-0.00040230312
83	0x3e33f476	0.17573723
84	0xbdbf57fe	-0.09342955
85	0xbe1cdaf0	-0.15317893
86	0xbdb1961f	-0.086712115
87	0xbd2828a3	-0.04105438
88	0x3d67d481	0.056599144
89	0xbc8e8014	-0.017395057
90	0xbdb6978c	-0.08915624
91	0x3bd4b9ba	0.006491867
92	0x3ea3bc9c	0.31979835
93	0xbe09fced	-0.1347539
94	0xbd781d3e	-0.060574763
95	0x3e778581	0.24172021
96	0xbe86b727	-0.2631161
97	0xbe5bc2bd	-0.21461006
98	0x3e7a0135	0.24414523
99	0xbc1df3bb	-0.009640629
100	0xbdc5ec1c	-0.09664175
101	0xbc064590	-0.008195296
102	0x3d67d3da	0.05659852
103	0x3cd59e41	0.026076438
104	0x3c62f001	0.013851167
105	0x3e1a4cec	0.15068406
106	0xbdda5eb4	-0.106625944
107	0xbdaa963e	-0.08329438
108	0x3ed6a66a	0.4192384
109	0x3e2f0c2e	0.1709449
110	0xbe180ab9	-0.1484784
111	0x3ee06018	0.43823314
112	0x3e5b47bd	0.21414085
113	0xbd8ad10a	-0.06778152
114	0x3ddbbf06	0.10729794
115	0xbdf74a0f	-0.120746724
116	0xbe985934	-0.29755557
117	0xbe4b289f	-0.19839714
118	0xbe0f6cb7	-0.14006315
119	0x3e996b8e	0.2996487
120	0xbe8380b3	-0.25684127
121	0xbe80eb08	-0.25179315
122	0x3d9b5a18	0.075855434
123	0xbd99da41	-0.07512332
124	0x3e73ddff	0.23815154
125	0x3e5f24a2	0.21791318
126	0x3e277941	0.16354848
127	0xbddca124	-0.10772923
128	0xbc22838f	-0.009919061
129	0x3e88b70a	0.26702148
130	0xbe8eca66	-0.27888793
131	0xbde4c5bf	-0.111705296
132	0xbca89e1c	-0.020583205
133	0xbe59a299	-0.21253432
134	0x3eed1810	0.4630742
135	0x3dfebb9d	0.12438128
136	0x3e404800	0.18777466
137	0x3e9799a0	0.29609394
138	0xbc92e8eb	-0.01793333
139	0xbc2152ac	-0.009846371
140	0x3e138e63	0.14409785
141	0xbdc8ce82	-0.09805013
142	0xbdcd9b4f	-0.100393884
143	0x3d9dcd8a	0.07705219
144	0xbd90c0a6	-0.07067995
145	0xbd05b4ac	-0.032643005
146	0x3ebe5f73	0.37182197
147	0xbd4ff48d	-0.05077033
148	0xbe6a69ce	-0.22891924
149	0xbe05d574	-0.13069707
150	0xbddde1db	-0.10834094
151	0xbda4ab33	-0.08040466
152	0xbd3ce62e	-0.046117954
153	0x3d100cdd	0.035168517
154	0xbd3f6343	-0.046725523
155	0xbda9dcfa	-0.08294101
156	0xbd03c6e9	-0.032172117
157	0xbccf0e76	-0.02527545
158	0x3e29924a	0.16559711
159	0x3c5b28b7	0.013376406
160	0xbe5563dc	-0.20838875
161	0xbd9ae597	-0.07563322
162	0x3e94fc8b	0.29098925
163	0x3e1a24eb	0.15053146
164	0x3e8609d4	0.26179373
165	0xbd254629	-0.040350113
166	0xbe53d409	-0.20686354
167	0xbd77162b	-0.060323875
168	0x3da15e05	0.07879261
169	0x3e548d3d	0.20757003
170	0x3d663bd6	0.056209408
171	0x3d10da00	0.03536415
172	0x3b1f57fc	0.0024313917
173	0x3e8230bf	0.25427815
174	0x3d82f9cd	0.06395302
175	0xbe700015	-0.23437531
176	0xbea3b51f	-0.31974122
177	0xbddce866	-0.10786514
178	0xbe15c0c0	-0.1462431
179	0xbdd74ae2	-0.1051233
180	0x3d7e4b31	0.062083427
181	0x3d9802fa	0.07422443
182	0xbe2afe09	-0.16698469
183	0x3cf77aef	0.030209986
184	0x3e554e99	0.20830764
185	0x3cfa4c9c	0.030554108
186	0x3d0266b8	0.03183624
187	0x3c897a12	0.01678184
188	0xbd821a3c	-0.0635266
189	0xbd9b8437	-0.07593577
190	0xba53b7a5	-0.00080763764
191	0xbe1807f6	-0.14846787
192	0xbd44fd96	-0.0480934
193	0x3d1c1999	0.03811035
194	0x3d3fa43a	0.046787478
195	0xbddf45a1	-0.109019525
196	0x3d619b1d	0.05507957
197	0xbd4071fa	-0.046983697
198	0xbd584a34	-0.05280514
199	0xbe245b53	-0.16050462
200	0xbe9388f1	-0.28815416
201	0xbbf10d09	-0.0073562902
202	0x3e319fda	0.17346135
203	0x3d8e3d05	0.06945232
204	0x3d942289	0.072331496
205	0xbe9d862a	-0.30766422
206	0xbd936c38	-0.071983755
207	0x3dd28b5c	0.10280487
208	0x3d9046f9	0.07044787
209	0xbe47d990	-0.19516587
210	0xbe39fc7c	-0.18162721
211	0xbd85564b	-0.065106
212	0xbe94f577	-0.29093525
213	0x3dd1f6a3	0.1025212
214	0x3baa4d02	0.0051971683
215	0xbdb8c14f	-0.09021246
216	0x3e4c88af	0.19974016
217	0x3e8ac2b6	0.27101678
218	0x3e8749e8	0.26423573
219	0x3e285ac9	0.16440882
220	0xbd810210	-0.062992215
221	0x3c9537e0	0.01821512
222	0x3e4d3035	0.20037921
223	0x3e090540	0.13380909
224	0xbabb3ac6	-0.0014284484
225	0x3e13eee8	0.14446604
226	0x3cf24520	0.029573977
227	0x3d0f7e68	0.03503266
228	0xbd2a86cd	-0.041632462
229	0x3dbacd3c	0.091211766
230	0x3e9cf9e9	0.30659416
231	0x3d4d659f	0.05014574
232	0xbe956abc	-0.29182994
233	0xbe3ec20b	-0.18628709
234	0x3d478b2b	0.048716705
235	0x3dbdd882	0.09269811
236	0x3e7845a6	0.24245319
237	0xbc6080de	-0.013702599
238	0xbe002a28	-0.12516081
239	0x3d7178d7	0.058953132
240	0x3dd74cd3	0.105127
241	0x3c8d7abf	0.017270444
242	0xbd70b93e	-0.05877041
243	0xbde65afd	-0.112478234
244	0x3d81c8bc	0.06337115
245	0x3e08f1f7	0.13373552
246	0xbbb71470	-0.005587153
247	0xbb474890	-0.003040824
248	0xbe322637	-0.1739739
249	0xbd0abf3b	-0.033873778
250	0x3e2df0f7	0.16986452
251	0x3dbeae9f	0.0931065
252	0xba25037f	-0.00062947714
253	0xbca23c02	-0.019804005
254	0x3d664165	0.05621471
255	0x3cb639f1	0.022244425

net1.netdown4.COV1.0.conv_i.bias f4 [32]
0	0x3cbfe5fd	0.023425097
1	0x3d60df2e	0.05490034
2	0x3e4d1b96	0.20030054
3	0xbded1653	-0.11576524
4	0x3d891621	0.06693674
5	0xbda41513	-0.08011832
6	0x3c7c031f	0.0153816035
7	0xbe470910	-0.19437051
8	0xbcdd23e0	-0.026994646
9	0xbd4aa65e	-0.049475066
10	0x3d697577	0.05699679
11	0x3dc9d5ca	0.0985523
12	0xbc112268	-0.008858301
13	0xbde4e851	-0.11177123
14	0x3e9b6184	0.30347836
15	0xbdf53add	-0.11974118
16	0x3dcc4384	0.09973815
17	0xbdff5b12	-0.12468542
18	0xbe045c5f	-0.12925862
19	0xbbf8289f	-0.007573202
20	0x3ce3ae7c	0.027793162
21	0x3e0a8573	0.1352747
22	0x3d96ee28	0.073696434
23	0x3e1be4c7	0.1522399
24	0xbd7afeb7	-0.06127807
25	0xbbc7602b	-0.006084462
26	0xbd11b79b	-0.03557549
27	0xbe1c8351	-0.15284468
28	0xbcfcda9b	-0.030865958
29	0xbe32a56f	-0.1744592
30	0xbd361f4e	-0.04446345
31	0x3be30ee7	0.0069292667
