CCNN-CGH/4k/4init4k/proposedstate.pth (torch, 189629 bytes, 52 tensors)

net1.netdown1.COV1.0.conv_r.weight f4 [4, 1, 3, 3]
0	0xbe74ffe4	-0.2392574
1	0xbe3b4b0d	-0.18290348
2	0xbe832528	-0.25614285
3	0x3e6e8ae4	0.2329517
4	0x3dc113bc	0.09427592
5	0xbe0a6e75	-0.13518699
6	0x3e61c3f9	0.22047414
7	0x3da2a4f8	0.079416215
8	0xbcad9799	-0.021190451
9	0x3e3d580a	0.18490615
10	0xbd967f9c	-0.07348558
11	0x3ca04f01	0.019568922
12	0xbd428a2f	-0.047495063
13	0xbd0d1be8	-0.03445044
14	0xbeb375ed	-0.35050908
15	0x3e4ac61c	0.19802135
16	0xbb9d9c5c	-0.0048098993
17	0x3e4da7da	0.20083562
18	0xbe37ab56	-0.17936453
19	0x3da488ee	0.0803393
20	0xbeb0eb56	-0.34554547
21	0x3f3c9849	0.7366987
22	0x3f22ce67	0.63596195
23	0xbd424cdd	-0.047436584
24	0x3e24b2d7	0.16083847
25	0x3e63e8a9	0.22256722
26	0xbe955254	-0.29164374
27	0xbdea5810	-0.11442578
28	0xbdb8b99e	-0.09019779
29	0x3ef9e57e	0.488079
30	0xbdac5642	-0.0841489
31	0x3d2320a7	0.03982606
32	0x3e9eacf1	0.3099132
33	0xbe90fbeb	-0.28317198
34	0xbda060e4	-0.078309804
35	0xbe641ebe	-0.22277352

net1.netdown1.COV1.0.conv_r.bias f4 [4]
0	0x3e3ebe7e	0.18627355
1	0x3e0401e5	0.12891348
2	0xbe898715	-0.26860872
3	0x3e37c7fb	0.1794738

net1.netdown1.COV1.0.conv_i.weight f4 [4, 1, 3, 3]
0	0xbe2e589c	-0.1702599
1	0xbe9c6adf	-0.30550286
2	0xbeae18e6	-0.3400337
3	0xbe4bfaff	-0.19919966
4	0x3d23e64c	0.04001455
5	0xbd758573	-0.05994172
6	0x3ca9665a	0.020678688
7	0xbcf25c34	-0.029584982
8	0x3cbd865c	0.023135357
9	0x3e32d351	0.17463423
10	0x3bca99d8	0.0061828904
11	0xbddc55fa	-0.10758586
12	0x3c7c11a4	0.015385065
13	0xbe99ff35	-0.3007752
14	0xbe442714	-0.19155532
15	0xbe8d3d36	-0.27585763
16	0xbea4d095	-0.32190385
17	0xbea1ee7e	-0.31627268
18	0xbd879bfc	-0.066215485
19	0xbe2e0cc3	-0.16997056
20	0xbe6cec13	-0.2313693
21	0x3d14dae8	0.036341578
22	0xbcb587b0	-0.022159427
23	0x3e659fba	0.22424212
24	0xbc594960	-0.013262123
25	0x3dea3140	0.11435175
26	0xbe0c8b6e	-0.13725063
27	0x3e2a1d40	0.1661272
28	0xbe54a7f4	-0.20767194
29	0x3de178a2	0.11009337
30	0xbe9602ad	-0.29298916
31	0x3e29e312	0.16590527
32	0xbe012e11	-0.12615229
33	0x3e697c58	0.2280134
34	0x3e975208	0.29554772
35	0xbd845cce	-0.064630136

net1.netdown1.COV1.0.conv_i.bias f4 [4]
0	0xbe5ed7d8	-0.21762025
1	0xbe3d2c32	-0.1847389
2	0xbea6c801	-0.32574466
3	0x3ea24be7	0.31698534

net1.netdown2.COV1.0.conv_r.weight f4 [8, 4, 3, 3]
0	0xbecff220	-0.40614414
1	0xbea9e62c	-0.3318342
2	0xbdf76291	-0.12079347
3	0xbe6eeb9d	-0.23332067
4	0xbf1655f2	-0.5872489
5	0xbde62fa2	-0.11239554
6	0xbeb343da	-0.35012704
7	0xbf1e8582	-0.61922467
8	0xbdf9162c	-0.12162432
9	0xbdb5af66	-0.08871345
10	0xbe2754a6	-0.16340885
11	0x3ddfadf3	0.1092185
12	0xbd894fe1	-0.06704689
13	0xbb48d552	-0.0030644727
14	0xbda7260a	-0.08161552
15	0xbd8be2ae	-0.06830345
16	0x3df605fa	0.12012859
17	0xbd51af7c	-0.051192746
18	0x3ca31372	0.019906733
19	0xbcd7f362	-0.026361171
20	0xbd19cdc7	-0.03754976
21	0xbb1cfa0f	-0.0023952757
22	0xbc88afdf	-0.016685424
23	0x3e0c429f	0.13697289
24	0xbd7d66db	-0.06186567
25	0xbd99b21c	-0.07504675
26	0x3c1d5afa	0.00960421
27	0x3d8d9d66	0.06914787
28	0xbe0f282a	-0.13980165
29	0xbe46cf24	-0.19414955
30	0x3cbb3362	0.02285165
31	0xbd245ad0	-0.040125668
32	0xbd21672e	-0.03940504
33	0xbddd1c38	-0.10796398
34	0xbda462cc	-0.080266565
35	0x3da33590	0.079692006
36	0xbd30a10d	-0.04312234
37	0xbcefe8bc	-0.029285781
38	0x3c912c3f	0.017721293
39	0x3dc27145	0.09494261
40	0x3f016a7d	0.50553113
41	0x3ecfb098	0.40564418
42	0x3c819f38	0.015822992
43	0x3e9191e6	0.28431624
44	0x3d9f4b05	0.07777981
45	0x3cf8ea7f	0.030385254
46	0xbd74d79b	-0.05977593
47	0x3e09f0c5	0.13470753
48	0x3e361620	0.17781878
49	0x3d3d9222	0.04628194
50	0x3d0979ab	0.033563297
51	0xbe41c585	-0.18923004
52	0xbd65b98e	-0.056085162
53	0xbe104cac	-0.14091748
54	0x3e14acc9	0.14519037
55	0xbe5866d6	-0.21132979
56	0xbf282e89	-0.65696007
57	0xbe5cb886	-0.21554765
58	0xbd190e0c	-0.03736691
59	0xbe967e84	-0.293934
60	0xbeb995f5	-0.3624722
61	0x3d4507c4	0.04810311
62	0x3ce6205e	0.028091606
63	0xbd87a771	-0.06623734
64	0x3cfd74c3	0.030939465
65	0xbd041a91	-0.0322519
66	0x3dc71636	0.09721033
67	0xbea3010e	-0.31836742
68	0xbd343bb3	-0.044002246
69	0xb8a7f512	-8.0088284e-05
70	0x3e5dea7f	0.21671484
71	0xbdcf5dd3	-0.101253174
72	0xbe9693bb	-0.29409584
73	0x3df3b036	0.11898844
74	0xbeaf8f0b	-0.3428882
75	0xbe0c7f71	-0.1372049
76	0x3f01b624	0.5066855
77	0x3e9cedd7	0.30650207
78	0x3db496ca	0.08817823
79	0x3e80088a	0.25006515
80	0xbe788f7e	-0.24273488
81	0x3d991dbc	0.074763745
82	0x3d19e485	0.03757145
83	0xbd551048	-0.05201748
84	0xbde187c6	-0.11012225
85	0x3d4a0be0	0.04932773
86	0x3e0ce35a	0.13758603
87	0x3e4c6355	0.19959767
88	0xbb76bb8d	-0.003764841
89	0xbd06ce9f	-0.032911893
90	0x3deb7699	0.1149723
91	0xbbcb28c7	-0.0061999294
92	0xbf317ee9	-0.69334275
93	0x3e727f8b	0.23681466
94	0x3e045a86	0.12925157
95	0xbe307af1	-0.17234398
96	0xbded32b4	-0.115819365
97	0xbe84f489	-0.25967816
98	0x3e8fbd91	0.28074315
99	0x3d6acd1f	0.057324525
100	0x3df7ae29	0.12093765
101	0xbd46aa0d	-0.048502017
102	0x3dd49686	0.103802726
103	0xbd4bb2cf	-0.049731072
104	0xbdc04265	-0.09387664
105	0xbe113efd	-0.14184184
106	0x3e47b89d	0.19504018
107	0x3df41ee2	0.11919953
108	0x3e1916d3	0.14950113
109	0xbdc798f0	-0.097459674
110	0x3dccb84a	0.09996088
111	0x3db0e085	0.08636574
112	0xbdfa2b45	-0.12215284
113	0x3e215d3a	0.1575822
114	0x3c963ae8	0.018338636
115	0xbded6fc1	-0.11593581
116	0x3e0fc6c1	0.14040662
117	0xbdb1f9b0	-0.08690202
118	0xbd1ee29c	-0.03879033
119	0x3dd5ce1a	0.104397014
120	0xbdf711f8	-0.12063974
121	0x3d2381e0	0.03991878
122	0xbe0da6a6	-0.13833103
123	0xbd99a106	-0.07501416
124	0x3db5f95a	0.08885451
125	0xbd78fa7c	-0.060785756
126	0xbe0e0a04	-0.13871008
127	0x3e0ff1a7	0.14057027
128	0xbe005320	-0.1253171
129	0xbd0e5e44	-0.034757867
130	0x3d18d6d0	0.037314236
131	0x3d98599a	0.07438965
132	0x3da8f856	0.08250491
133	0xbe20320a	-0.15644088
134	0x3ca7c0c0	0.020477653
135	0xbddb4e70	-0.1070832
136	0xbc941c28	-0.018079832
137	0xbddb7478	-0.10715574
138	0xbdaf20de	-0.08551191
139	0xbda95c5c	-0.08269569
140	0x3de683bc	0.11255595
141	0x3d89df68	0.067320645
142	0x3e1359e3	0.14389758
143	0xbd4f85ea	-0.05066482
144	0x3d56b518	0.0524188
145	0xbdbec73c	-0.09315345
146	0xbd63ee15	-0.055646975
147	0xbdcc4bc1	-0.099753864
148	0xbe01e581	-0.12685205
149	0xbd771d54	-0.060330704
150	0xbdf08611	-0.11744321
151	0xbe0d1998	-0.13779294
152	0xbd46d7ab	-0.04854552
153	0x3cb7601b	0.022384694
154	0xbd1d60ab	-0.038422268
155	0x3cfcc316	0.030854743
156	0xbe1ec501	-0.15504839
157	0x3e1867ec	0.14883393
158	0xbda6ed35	-0.081507124
159	0xbe23de36	-0.16002735
160	0xbc653266	-0.013989067
161	0xbdec194f	-0.11528265
162	0x3d46fb62	0.04857958
163	0x3d30689b	0.04306851
164	0xbdd30657	-0.103039436
165	0xbd07c344	-0.033145204
166	0x3df34f11	0.11880315
167	0xbe434b70	-0.19071746
168	0xbe13bdc0	-0.14427853
169	0xbd8df69b	-0.06931802
170	0xbd386e51	-0.04502708
171	0x3deb8ce6	0.115014836
172	0xbcbfd4fd	-0.02341699
173	0xbc8b9368	-0.017038062
174	0x3e0a139f	0.13484047
175	0xbd75f179	-0.06004474
176	0xbdb98559	-0.09058637
177	0xbe26059f	-0.16213082
178	0xbe86a4bd	-0.2629756
179	0xbe02ce55	-0.12774022
180	0xbe726331	-0.23670651
181	0xbe6e6e06	-0.23284158
182	0xbe090ee9	-0.13384594
183	0xbd911bd4	-0.07085386
184	0x3d4dc919	0.05024061
185	0xbd50dac0	-0.050989866
186	0xbe4a450c	-0.19752902
187	0xbd8e2202	-0.0694008
188	0xbd8f9dc1	-0.07012511
189	0xbdf66fb1	-0.12033022
190	0xbdd032a1	-0.10165907
191	0x3dc6d2ac	0.09708151
192	0x3d03e761	0.032203082
193	0xbe1a1510	-0.15047097
194	0x3ce4511d	0.02787071
195	0xbdf11bfe	-0.11772917
196	0x3d45e9fa	0.04831884
197	0xbd8107fe	-0.063003525
198	0x3d81d4b4	0.06339398
199	0x3d9f2eb4	0.0777258
200	0xbdcf85d9	-0.10132951
201	0xbd0fcb50	-0.035106003
202	0xbd055b4e	-0.032557778
203	0xbe6b45fb	-0.22975914
204	0x3de46dd2	0.11153759
205	0x3b844d09	0.0040375036
206	0xbd3c2d35	-0.04594155
207	0xbe599969	-0.21249928
208	0xbe3966aa	-0.1810557
209	0xbda6d3f0	-0.081458926
210	0xbe39364b	-0.18087117
211	0x3d0064b0	0.031346023
212	0x3d8e595c	0.06950638
213	0xbd042732	-0.032263942
214	0xbde21364	-0.11038855
215	0xbd2e8729	-0.042609368
216	0xbda28bb8	-0.079368055
217	0x3e0606e5	0.13088568
218	0x3d15f9eb	0.036615293
219	0xbd8f9040	-0.070099354
220	0xbd855924	-0.06511143
221	0xbe13f695	-0.14449532
222	0xbd3d18db	-0.046166282
223	0x3f0918d3	0.53553504
224	0x3f07d851	0.5306445
225	0xbe42a257	-0.1900724
226	0x3b106f1e	0.0022038887
227	0xbdbfeada	-0.09370966
228	0x3dd63a5f	0.10460352
229	0xbd88ea8b	-0.066853605
230	0x3e3b5dab	0.1829745
231	0xbdbffc2c	-0.0937427
232	0x3e409b3e	0.1880922
233	0x3e1cd1cf	0.1531441
234	0xbd890256	-0.06689899
235	0x3e951be9	0.29122856
236	0xbd2f33f3	-0.042774152
237	0x3e410f6b	0.18853538
238	0x3d780804	0.06055452
239	0xbf671673	-0.9026863
240	0xbb8cef5c	-0.004300995
241	0xbd0640f4	-0.032776788
242	0xbdd7f7a8	-0.105452836
243	0x3e28b5e5	0.16475637
244	0xbc828d9f	-0.01593667
245	0x3d4ba8c7	0.049721505
246	0x3d8a0fd2	0.06741299
247	0xbd158daa	-0.036512055
248	0xbe201b84	-0.15635496
249	0x3e38d581	0.18050195
250	0x3a9e47fe	0.0012075899
251	0xbd476c18	-0.04868707
252	0xbe5deeba	-0.21673098
253	0xbdc4288e	-0.09578048
254	0x3d4b83a4	0.04968609
255	0x3f05754d	0.5213211

net1.netdown2.COV1.0.conv_r.bias f4 [8]
0	0x3e339958	0.17538965
1	0x3df26127	0.118349366
2	0xbc2cd6a9	-0.010549226
3	0xbe2339cc	-0.15940017
4	0x3da45ea6	0.08025865
5	0x3d8dafcf	0.069182985
6	0x3e829507	0.25504324
7	0xbc646ae1	-0.013941498

net1.netdown2.COV1.0.conv_i.weight f4 [8, 4, 3, 3]
0	0xbda160bf	-0.07879781
1	0x3d7767a4	0.060401574
2	0xbe8f940b	-0.28042635
3	0xbd77ffb9	-0.06054661
4	0x3ca9e8c9	0.020740883
5	0x3e4756c2	0.19466689
6	0xbe54ca3b	-0.2078027
7	0xbd392d32	-0.045209117
8	0x3e272f56	0.16326651
9	0x39941549	0.00028244618
10	0x3cc2b806	0.02376939
11	0x3be119a9	0.006869514
12	0x3da488ec	0.08033928
13	0x3e0f7043	0.14007668
14	0xbdc18590	-0.09449303
15	0x3d2c987d	0.04213761
16	0xbd201ca6	-0.03908982
17	0xbe112388	-0.1417371
18	0xbdd982d1	-0.106206544
19	0xbdd0697f	-0.10176372
20	0xbe1c408a	-0.15258995
21	0x3cb66bf4	0.022268273
22	0x3e5e52da	0.21711293
23	0x3e150474	0.1455248
24	0xbe79d690	-0.24398255
25	0xbe893a28	-0.26802182
26	0xbd40845f	-0.04700124
27	0xbda66be5	-0.08126048
28	0xbdabddaf	-0.08391892
29	0xbe34719e	-0.17621467
30	0xbe1b48c6	-0.1516448
31	0x3db0066b	0.08594974
32	0xbd0fa635	-0.035070617
33	0x3d08c86a	0.033394255
34	0xbda88964	-0.0822933
35	0xbda6b271	-0.08139504
36	0x3e0e3863	0.13888697
37	0x3e933fdd	0.2875966
38	0x3de9cbc8	0.11415821
39	0x3dd2d20c	0.102939695
40	0xbf0ff50c	-0.56233287
41	0x3cd7cbdf	0.02634233
42	0x3e82e8df	0.25568292
43	0x3f30e068	0.69092417
44	0xbde3c3df	-0.11121344
45	0x3d880d44	0.06643155
46	0x3bb47f5a	0.0055083456
47	0x3dc2c2ad	0.09509788
48	0x3c85fccf	0.0163559
49	0xbd816ecb	-0.0631996
50	0x3d296b64	0.04136218
51	0x3e31d1cf	0.17365192
52	0xbd208cf3	-0.03919692
53	0xbec01b75	-0.37520948
54	0xbdd55b31	-0.10417784
55	0x3e289517	0.16463123
56	0xbda1ef82	-0.079070106
57	0x3e72a322	0.23695043
58	0xbe8e9393	-0.27846965
59	0x3c58634f	0.013207271
60	0xbdffcf88	-0.12490755
61	0xbe94e21a	-0.29078752
62	0x3e67c96b	0.22635429
63	0xbcd4cf63	-0.025977796
64	0xbce6ec08	-0.02818872
65	0xbd81388d	-0.06309614
66	0xbdddb7a3	-0.108260415
67	0x3dcd2757	0.10017269
68	0xbb1e1d0e	-0.0024126205
69	0x3e19463f	0.14968203
70	0xbe03e8f2	-0.1288183
71	0x3e5fa67f	0.21840857
72	0x3dca5706	0.0987988
73	0x3d07bcd4	0.033139065
74	0x3e4a5c69	0.19761814
75	0x3e3e4854	0.18582278
76	0xbdd5ac79	-0.10433287
77	0xbf63c67e	-0.8897475
78	0xbe4f3428	-0.2023474
79	0x3ee6334b	0.44961008
80	0x3f1db8de	0.6161021
81	0x3db5834a	0.08862932
82	0x3e53e0e5	0.20691259
83	0xbdcd8680	-0.100354195
84	0x3d8ff488	0.070290625
85	0x3b250d58	0.0025184955
86	0xbd0c02c1	-0.034182314
87	0xbde663f7	-0.112495355
88	0x3d09aad5	0.033610184
89	0x3db37edc	0.08764431
90	0x3d8dcd4c	0.06923923
91	0xbe7b1505	-0.24519737
92	0x3db794f7	0.0896396
93	0xbcb4ac2b	-0.022054752
94	0x3daefa4f	0.08543836
95	0xbe2e5e3e	-0.17028138
96	0xbe1bd625	-0.15218408
97	0x3d9ffa25	0.07811383
98	0xbd5c3325	-0.053759713
99	0xbe12fef6	-0.14355072
100	0x3cd3910d	0.025826002
101	0x3e174d5e	0.14775607
102	0xbd0a6584	-0.03378822
103	0x3dad10a2	0.08450438
104	0xbe0ea458	-0.1392988
105	0xbe423338	-0.18964851
106	0x3dc07545	0.093973674
107	0x3b95ead0	0.004575111
108	0x3d8de788	0.06928927
109	0xbe226052	-0.15857056
110	0xbe030d1c	-0.1279797
111	0x3dceafb7	0.10092109
112	0x3d906e86	0.07052331
113	0x3dd0d344	0.10196546
114	0xbda7c489	-0.08191783
115	0xbdf8b1fa	-0.12143321
116	0xbe049db2	-0.12950781
117	0xbe178a87	-0.14798938
118	0xbe28da7b	-0.16489594
119	0xbd5dedac	-0.05418174
120	0x3dc6fff3	0.09716787
121	0xbdda5322	-0.106603876
122	0x3de1de6f	0.11028754
123	0xbe079bf7	-0.1324309
124	0xbbffb699	-0.0078037498
125	0xbe1ce53a	-0.15321818
126	0x3e1cc757	0.15310417
127	0xbc2efb90	-0.010680094
128	0x3c2b87f0	0.010469422
129	0xbe1334f7	-0.14375673
130	0xbd75e25e	-0.060030334
131	0xbdbe2284	-0.09283927
132	0x3ca45cb4	0.020063736
133	0x3d9ce9a0	0.07661748
134	0xbd062471	-0.032749597
135	0xbcf7bff8	-0.030242905
136	0xbc713e50	-0.014724329
137	0xbd5bdd7c	-0.05367802
138	0x3e015d48	0.1263324
139	0x3e1167a3	0.1419969
140	0xbda8d0b2	-0.082429305
141	0x3d05a9c8	0.03263262
142	0xbd90d0e6	-0.07071094
143	0x3d5d9219	0.054094408
144	0x3eadace7	0.33920977
145	0xbca2d10d	-0.019875074
146	0xbcb2a53b	-0.021807304
147	0x3eea8f62	0.45812517
148	0x3e5d95b5	0.2163914
149	0xbe09a58b	-0.13442056
150	0x3e81f96a	0.253856
151	0x3ea2b29f	0.31776902
152	0x3e64dfc1	0.2235098
153	0x3dbff169	0.09372217
154	0xbd9ea34b	-0.077459894
155	0xbe59f01f	-0.21283005
156	0x3d8640f7	0.0655536
157	0x3e3b35af	0.18282197
158	0xbd62e2ce	-0.05539208
159	0x3d4268e7	0.047463324
160	0xbda94f6f	-0.08267104
161	0xbe3095c8	-0.17244637
162	0x3e3a8e0e	0.18218252
163	0xbed88335	-0.42287603
164	0xbbb473f8	-0.0055069886
165	0x3ef29406	0.47378558
166	0xbe0edbcd	-0.13951035
167	0xbe5f1a64	-0.21787411
168	0xbeb54883	-0.35406885
169	0xbe5a3db8	-0.21312606
170	0x3e220591	0.15822436
171	0x3ceb1754	0.028697647
172	0x3e23317b	0.15936844
173	0xbda000c3	-0.07812645
174	0xbe476eb5	-0.19475825
175	0x3aca4153	0.0015430845
176	0x3eb59f1c	0.35472953
177	0x3f0380ac	0.5136821
178	0x3e05c71b	0.13064234
179	0x3e63e8c2	0.22256759
180	0x3ea6db76	0.3258931
181	0x3dff6795	0.124709286
182	0x3e077758	0.1322912
183	0x3ea27933	0.31733093
184	0x3e887399	0.26650694
185	0x3e771d93	0.24132375
186	0x3da07746	0.078352496
187	0x3d2490b1	0.04017705
188	0x3e6cea9a	0.23136368
189	0xbe23d1d6	-0.15998015
190	0xbbda28c8	-0.0066576935
191	0x3da744bf	0.08167409
192	0xbde0323c	-0.109470814
193	0x3dab8190	0.083743215
194	0x3cb7e937	0.022450073
195	0xbdbc2f83	-0.0918875
196	0x3e13954e	0.14412424
197	0xbe0cff12	-0.13769177
198	0xbeb1558a	-0.34635574
199	0xbdb5e9c5	-0.088824786
200	0x3cb0863a	0.02154838
201	0xbe553ef7	-0.208248
202	0xbe02dfc8	-0.12780678
203	0xbe22c089	-0.15893759
204	0xbedc2814	-0.42999327
205	0xbed7ed54	-0.42173254
206	0xbe8d5ad0	-0.27608347
207	0xbe22dc4b	-0.15904348
208	0xbc8cffae	-0.017211761
209	0xbe0c4978	-0.13699901
210	0x3e1a1704	0.15047842
211	0xbda71c88	-0.08159739
212	0xbe08923a	-0.13337031
213	0xbd987532	-0.07444228
214	0x3d2dbca6	0.042416237
215	0xbdca0265	-0.09863738
216	0xbe3733b0	-0.17890811
217	0x3d860535	0.06543962
218	0x3e1be299	0.15223159
219	0xbd531ed6	-0.05154308
220	0x3e208cff	0.15678786
221	0x3e2d1d5f	0.16905735
222	0x3d17b90f	0.03704172
223	0x3e9c4bdc	0.30526626
224	0x3eb9801e	0.36230558
225	0x3d9df122	0.07712008
226	0x3d2aa9fc	0.041666016
227	0x3da31e34	0.07964745
228	0x3dcec587	0.10096269
229	0xba968201	-0.0011482836
230	0x3d26cda0	0.040723443
231	0xbd3195df	-0.04335582
232	0x3ca2ccc2	0.019873027
233	0x3e2a8600	0.1665268
234	0xbd91b819	-0.07115192
235	0x3d4a2fe4	0.04936208
236	0xbe28123e	-0.16413209
237	0xbd6a3964	-0.05718364
238	0x3daa7ccd	0.08324585
239	0xbde4ba33	-0.11168327
240	0x3e5d6bf6	0.21623215
241	0xbe81a40b	-0.25320467
242	0xbf3ba8c4	-0.7330439
243	0xbe370605	-0.1787339
244	0xbe138585	-0.14406402
245	0x3dc6f648	0.09714943
246	0x3da1a9fe	0.078937516
247	0x3e27fe23	0.16405539
248	0x3e00446b	0.125261
249	0x3e553d9b	0.20824282
250	0xbe032909	-0.12808622
251	0xbb050f98	-0.0020303484
252	0xbf2bfb8c	-0.67180705
253	0xbee780a3	-0.4521533
254	0xbec2430c	-0.37941778
255	0x3e2b9e47	0.16759597

net1.netdown2.COV1.0.conv_i.bias f4 [8]
0	0xbaaec31c	-0.0013333294
1	0x3d3382c5	0.043825883
2	0xbcd44573	-0.025912022
3	0x3db3756f	0.08762633
4	0x3d628a1d	0.055307496
5	0x3e1e94ce	0.15486452
6	0x3e600b32	0.2187927
7	0xbd8e7713	-0.06956305

net1.netdown3.COV1.0.conv_r.weight f4 [16, 8, 3, 3]
0	0xbd30874c	-0.04309778
1	0xbd54bbd7	-0.05193695
2	0x3e1673f3	0.14692669
3	0xbc9c97d8	-0.019115373
4	0x3d0d17c0	0.034446478
5	0xbc9dea38	-0.019276723
6	0xbd2ffa8c	-0.04296355
7	0xbcf93542	-0.030420903
8	0xbe26ecce	-0.16301271
9	0xbdc8cb5b	-0.09804412
10	0xbcc4fb15	-0.024045506
11	0x3d5ef186	0.054429553
12	0x3de56c97	0.112023525
13	0x3e25dc7e	0.16197392
14	0x3e0557b1	0.13021733
15	0xbda25369	-0.079260655
16	0x3d677582	0.05650855
17	0xbda80eb3	-0.08205929
18	0x3bfc514a	0.00770012
19	0x3dbd7f6c	0.092528194
20	0xbdfceaa5	-0.123494424
21	0xbdf03545	-0.1172891
22	0x3e16df0e	0.14733526
23	0xbd260665	-0.040533442
24	0xbd49566e	-0.04915469
25	0xbe0ae089	-0.13562216
26	0xbdbf0007	-0.09326177
27	0xbc15cc28	-0.009142913
28	0xbd12c448	-0.03583172
29	0x3d67207a	0.056427456
30	0xbdcc5527	-0.09977179
31	0x3c2d9ac6	0.010595983
32	0x3ddc83b2	0.107673064
33	0x3b9ef1a0	0.0048505813
34	0xbb6e1180	-0.0036326349
35	0xbd88977c	-0.06669518
36	0xbcca609f	-0.024704276
37	0x3e372e3a	0.17888728
38	0xbcd8329c	-0.02639132
39	0x3d869e2a	0.06573136
40	0x3eb64a74	0.35603678
41	0x3e6b51dc	0.22980446
42	0xbe94e540	-0.29081154
43	0x3d89f7b6	0.067367
44	0x3d658e9b	0.056044202
45	0xbdd68690	-0.104748845
46	0xbd9229df	-0.071368925
47	0x3ce005a4	0.02734644
48	0x3dbbee63	0.09176328
49	0x3de4f8fb	0.11180302
50	0x3e8ed84e	0.27899402
51	0xbe8e37c1	-0.27776912
52	0xbe8e018c	-0.27735555
53	0xbd9aa0e4	-0.07550219
54	0xbd5acbcd	-0.053417016
55	0xbcacda16	-0.021100085
56	0xbb7b02ad	-0.0038301155
57	0xbe47f298	-0.19526136
58	0xbd6bc1e5	-0.05755796
59	0x3c7383d3	0.014862972
60	0xbe579634	-0.21053392
61	0xbd80e443	-0.062935375
62	0xbdd2e185	-0.10296921
63	0xbe39f691	-0.18160464
64	0x3e443eca	0.19164577
65	0x3e1289fb	0.14310448
66	0x3e2bd25f	0.16779469
67	0x3eb7f958	0.35932422
68	0x3eb0d6a7	0.34538767
69	0xbee21a45	-0.44160667
70	0x3e638b8c	0.22221202
71	0x3e9f7872	0.3114658
72	0xbe406999	-0.18790282
73	0xbcbfd9cd	-0.023419285
74	0xbe0d7de0	-0.13817549
75	0xbe69f305	-0.22846611
76	0x3d2dc5a1	0.0424248
77	0xbe14d406	-0.14534006
78	0xbe54baa7	-0.20774327
79	0xbd45f6d8	-0.04833111
80	0x3d307255	0.043077786
81	0xbe1c9f9d	-0.15295263
82	0xbe0f0bee	-0.13969395
83	0xbe140a8d	-0.1445715
84	0x3c6d645d	0.0144892605
85	0xbd9d6ad5	-0.07686392
86	0xbea27b6d	-0.3173479
87	0xbe247f25	-0.16064127
88	0x3d191813	0.037376475
89	0x3dd33540	0.10312891
90	0xbcba82f5	-0.022767523
91	0x3cc0dd5a	0.023543049
92	0xbecb7c82	-0.3974343
93	0xbdaf7b52	-0.08568443
94	0xbdd8216f	-0.10553252
95	0x3df31f7a	0.11871238
96	0xbdc65235	-0.096836485
97	0xba0d4063	-0.00053883175
98	0xbe0f2a0e	-0.13980886
99	0xbdbc1248	-0.09183174
100	0xbd83ae0e	-0.06429683
101	0x3d15d5d2	0.036580868
102	0x3d5f03de	0.054447047
103	0xbdda11a7	-0.10647898
104	0x3c23f358	0.010006748
105	0x3d345c22	0.044033177
106	0xbde3fa82	-0.11131765
107	0x3dec9ac9	0.115529604
108	0xbd303e3f	-0.043028113
109	0xbc1dbb35	-0.009627153
110	0xbe94832d	-0.2900633
111	0xbe3d7212	-0.18500546
112	0xbdfaf7c3	-0.12254288
113	0xbe073fcd	-0.13207932
114	0x3ac79f81	0.0015230031
115	0xbdbc9002	-0.09207155
116	0xbd72e2ab	-0.0592982
117	0x3df21acf	0.118215196
118	0xbd36e381	-0.04465056
119	0xbd74318d	-0.059617568
120	0x3de26826	0.11055021
121	0x3ce9dd83	0.028548008
122	0xbd855340	-0.06510019
123	0xbcf441ec	-0.02981659
124	0xbdb94cbd	-0.0904784
125	0xbe49349a	-0.19648972
126	0x3c15ea11	0.009150044
127	0xbea5437d	-0.32278052
128	0xbe949559	-0.29020193
129	0x3e2f6bbb	0.1713094
130	0x3de60f8b	0.11233433
131	0xbe96401e	-0.29345793
132	0x3cd3142f	0.02576646
133	0xbd27d319	-0.040972803
134	0x3d42044c	0.04736738
135	0xbc8b5f75	-0.01701329
136	0xbc331e84	-0.010932568
137	0xbe276f92	-0.16351154
138	0xbe359ba7	-0.17735158
139	0xbd74c647	-0.059759405
140	0xbc5cd9ab	-0.01347963
141	0x3e14a9f2	0.14517954
142	0x3dfdb56e	0.123881206
143	0x3e282393	0.1641982
144	0xbd85ede7	-0.06539517
145	0xbdaa5611	-0.08317197
146	0xbd26c301	-0.040713314
147	0xbdc1675e	-0.09443544
148	0x3d32e64c	0.04367666
149	0xbcdfc7d9	-0.027316974
150	0x3b808de2	0.0039231637
151	0xbd052f44	-0.03251578
152	0x3ce19041	0.027534606
153	0xbe20133b	-0.15632336
154	0x3ab153d5	0.0013529012
155	0xbe12130a	-0.14265075
156	0xbbe057e8	-0.0068464167
157	0xbe2296a2	-0.15877774
158	0xbdf68923	-0.120378755
159	0xbd614e0d	-0.055006076
160	0xbe194ee2	-0.14971498
161	0x3d47b6a0	0.04875815
162	0xbddcb4dd	-0.107766844
163	0x3d878f89	0.06619174
164	0xbdad018e	-0.08447562
165	0xbe26c965	-0.16287763
166	0x3cb2ed1c	0.021841578
167	0xbdc66e91	-0.096890576
168	0xbe84c440	-0.25930977
169	0x3d0c7171	0.034287874
170	0x3d7c0311	0.06152636
171	0xbd6f8cde	-0.05848395
172	0xbdb361f6	-0.08758919
173	0x3db2c827	0.08729582
174	0xbd289c6d	-0.041164804
175	0x3c89c3ea	0.016817052
176	0xbd49430c	-0.049136207
177	0x3cbb7424	0.022882529
178	0x3bf996b0	0.0076168403
179	0xbd49c720	-0.049262166
180	0xbb28c438	-0.002575172
181	0xbc95a00b	-0.018264791
182	0xbd27655b	-0.040868144
183	0xbdbcaa5d	-0.09212182
184	0x3da53c83	0.08068182
185	0xbda67ca8	-0.08129245
186	0x3cd76e07	0.026297582
187	0xbd97741a	-0.073951915
188	0xbdd1cbf8	-0.10243982
189	0x3dd1c161	0.10241962
190	0x3e501b99	0.20323028
191	0x3e0dd01a	0.13848916
192	0x3d363d90	0.044492304
193	0x3e67f88c	0.22653407
194	0x3de0599d	0.109545924
195	0x3e36b85b	0.17843764
196	0x3ef55948	0.4791968
197	0x3e782fa7	0.24236928
198	0xbea06725	-0.31328693
199	0xbda8b227	-0.08237105
200	0x3d9701f8	0.073734224
201	0xbe858b0a	-0.2608264
202	0xbdbb482a	-0.091446236
203	0x3dcdade0	0.1004293
204	0xbe8d56c1	-0.2760525
205	0xbd4dbd7b	-0.05022953
206	0x3e46b8fd	0.19406505
207	0xbe38535d	-0.1800055
208	0xbe515afb	-0.20444863
209	0xbe0e45e6	-0.13893852
210	0xbdbb7b72	-0.09154405
211	0x3dba9fed	0.09112535
212	0x3d89f393	0.06735911
213	0xbe2d2d73	-0.16911869
214	0xbe10c786	-0.14138612
215	0xbe077c9f	-0.13231133
216	0x3e0f2956	0.13980612
217	0x3d7f6c06	0.06235888
218	0x3d9bd808	0.07609564
219	0xbd8574b8	-0.06516403
220	0x3e33291f	0.17496155
221	0xbd190a70	-0.03736347
222	0x3aa79c43	0.0012787658
223	0x3db92409	0.09040076
224	0x3c60c6dc	0.013719287
225	0xbd525066	-0.051346205
226	0xbd09ba14	-0.033624724
227	0xbe84f0b0	-0.2596488
228	0x3d7af472	0.061268277
229	0x3e007e0a	0.1254808
230	0xbe03270a	-0.12807861
231	0x3e56fc34	0.20994645
232	0x3e55c3d1	0.2087548
233	0xbdaf92cd	-0.08572922
234	0x3cef20de	0.029190477
235	0x3dba09e7	0.0908392
236	0x3e3da4a1	0.18519832
237	0x3dcfdcca	0.10149534
238	0xbd51fab5	-0.051264483
239	0xbdf9a311	-0.121893056
240	0x3d9ae892	0.075638905
241	0x3c3b9dc6	0.01145119
242	0xbe3ca1bc	-0.18421072
243	0x3dd0bf79	0.101927705
244	0x3d2fe336	0.042941295
245	0x3af0ed40	0.0018381253
246	0x3dbcafbd	0.09213207
247	0x3df15a1b	0.117847644
248	0x3da85473	0.082192324
249	0xbd082982	-0.03324271
250	0x370c0000	8.34465e-06
251	0xbd8563da	-0.06513186
252	0xbde30f21	-0.1108687
253	0x3dc58b32	0.0964569
254	0x3dc0e4b6	0.09418623
255	0xbded1300	-0.115758896

net1.netdown3.COV1.0.conv_r.bias f4 [16]
0	0xbd4c964d	-0.049948025
1	0xbdad1004	-0.0845032
2	0xbdafa2ab	-0.08575948
3	0xbcd57877	-0.026058419
4	0xbdb3b34d	-0.08774433
5	0x3dbbaefe	0.091642365
6	0x3e0ea943	0.13931756
7	0xbe800bb7	-0.25008938
8	0xbbae6b5a	-0.005322856
9	0xbdca1be0	-0.09868598
10	0xbe37af8f	-0.17938064
11	0x3d1fe6a9	0.039038334
12	0xbe30e495	-0.17274697
13	0xbe628ac4	-0.22123247
14	0xbd958713	-0.07301154
15	0xbde4a09c	-0.11163446

net1.netdown3.COV1.0.conv_i.weight f4 [16, 8, 3, 3]
0	0x3bddd246	0.0067694513
1	0xbe1993d3	-0.14997797
2	0xbdb8a478	-0.09015745
3	0x3d863d2f	0.065546386
4	0x3d29efa6	0.041488312
5	0x3d54abbc	0.05192159
6	0xbce02b72	-0.027364466
7	0xbc92d623	-0.017924374
8	0xbddf50cf	-0.10904085
9	0xbd98d80f	-0.07463085
10	0xbe016265	-0.12635191
11	0xbdd82a4b	-0.10554942
12	0x3db1a3dd	0.086738326
13	0x3e0824b3	0.1329525
14	0x3c877c16	0.016538661
15	0xbe7f134c	-0.24909705
16	0xbe6af20e	-0.22943899
17	0xbd3151b0	-0.043290794
18	0x3dc3d773	0.09562578
19	0x3d595f63	0.053069483
20	0x3de2b6f4	0.11070052
21	0x3e59482f	0.21218942
22	0x3efbe66b	0.49199232
23	0x3ecf76e8	0.40520406
24	0x3daa1512	0.083048
25	0x3e231beb	0.15928619
26	0x3dd431ab	0.10361036
27	0x3dc1a2d1	0.09454883
28	0x3c536888	0.01290334
29	0xbd81b448	-0.06333214
30	0xbd0d6d10	-0.03452784
31	0x3dd45e71	0.10369576
32	0xbda5f652	-0.081036225
33	0xbd4c3c68	-0.049862295
34	0xbda76b30	-0.08174741
35	0xbd86a276	-0.06573956
36	0x3e9b319d	0.3031129
37	0xbdc8ef80	-0.09811306
38	0x3e3fc1c3	0.18726258
39	0x3ec061ff	0.37574765
40	0x3e397031	0.18109204
41	0x3e137fec	0.14404267
42	0x3e03319a	0.1281189
43	0xbe1006f1	-0.14065148
44	0x3d94645a	0.07245703
45	0x3dac2683	0.08405783
46	0xbb0a1d31	-0.0021074528
47	0xbdfadf3c	-0.1224961
48	0x3e82e855	0.2556788
49	0x3d352545	0.044224996
50	0xbe29fd13	-0.16600446
51	0x3e83dedb	0.25755963
52	0x3dc257a0	0.094893694
53	0x3cffbafc	0.03121709
54	0xbca6240a	-0.020280857
55	0x3d4d948b	0.05019049
56	0x3d987361	0.07443882
57	0x3e5ffb94	0.21873313
58	0x3ea8e7f7	0.32989475
59	0x3e8cf1b5	0.27528158
60	0xbd07ffc5	-0.033202905
61	0xbd63f0ca	-0.055649556
62	0x3e0acd85	0.13554962
63	0xbd82c858	-0.06385869
64	0xbcaf00f6	-0.021362763
65	0xbd8e714a	-0.06955202
66	0xbc782013	-0.015144366
67	0x3e2f36b3	0.1711071
68	0x3e1869d7	0.14884125
69	0xbe7dfab0	-0.24802661
70	0xbe65b6a1	-0.22432949
71	0x3d0d387a	0.03447769
72	0x3d5aef0f	0.05345064
73	0x3d97f92e	0.07420574
74	0x3e0860b8	0.13318145
75	0x3e23521d	0.15949292
76	0xbc3d8162	-0.011566492
77	0x3d05241b	0.032505136
78	0x3d660132	0.056153484
79	0x3e07c577	0.1325892
80	0x3dc09686	0.0940371
81	0xbd953c65	-0.0728691
82	0xbe0b8f61	-0.13628913
83	0x3d26f0db	0.04075704
84	0xbd7ae074	-0.06124921
85	0xbca3d22e	-0.019997682
86	0xbd06e44c	-0.032932565
87	0x3d5797ef	0.05263513
88	0x3cb26cd1	0.021780403
89	0x3d8cc2d7	0.068731
90	0x3dbd3970	0.09239471
91	0xbce23ff8	-0.027618393
92	0xbda31d5f	-0.079645865
93	0x3eb1e55f	0.3474531
94	0x3e13cdd8	0.14433992
95	0xbd9df8fd	-0.07713506
96	0x3ec47602	0.38371283
97	0x3e9846d0	0.29741526
98	0x3d5c9d6f	0.053861078
99	0x3d4472f2	0.047961183
100	0x3d6bf50e	0.05760675
101	0xbc789870	-0.015173063
102	0xbc1cea60	-0.009577364
103	0x3d2c6aa2	0.04209388
104	0xbc438740	-0.011934102
105	0x3b99a7a0	0.004689172
106	0xbd7fed95	-0.062482435
107	0xbd55bf22	-0.05218423
108	0x3c6cc63d	0.014451561
109	0xbc6e97f9	-0.0145626
110	0x3cfeef71	0.031120034
111	0x3dc8ce9e	0.09805034
112	0x3e23c137	0.15991674
113	0xbde02d86	-0.10946183
114	0xbcd70922	-0.026249472
115	0xbced613c	-0.028977029
116	0x3dd67b5d	0.104727484
117	0x3cccfb0f	0.025022058
118	0x3d9049fa	0.0704536
119	0xbdb43ad3	-0.08800282
120	0x3de8391f	0.1133902
121	0xbdd3782f	-0.103256576
122	0xbe0e4fe5	-0.13897665
123	0x3d7fe2f2	0.06247229
124	0xbdef0af9	-0.11672015
125	0x3dea7ce4	0.11449602
126	0x3d2d86de	0.042364947
127	0xbcdd7cec	-0.027037106
128	0xbd5293ee	-0.051410608
129	0x3d3d4a7f	0.046213623
130	0xbe94a035	-0.29028478
131	0xbd9767d6	-0.07392852
132	0x3ebc776f	0.3680987
133	0x3e934e86	0.28770846
134	0xbc925bd7	-0.017866058
135	0xbe27215d	-0.16321321
136	0x3e2e9a93	0.17051153
137	0xbe316b56	-0.17326102
138	0x3d764247	0.0601218
139	0xbd3f5efa	-0.046721436
140	0xbe86bf21	-0.26317695
141	0x3caa809a	0.020813275
142	0x3d455231	0.048174087
143	0x3da1de3c	0.07903716
144	0xbe44c7b9	-0.19216813
145	0xbe512eb0	-0.20427966
146	0xbda799bc	-0.081836194
147	0x3c3e40c2	0.011612119
148	0xbd747480	-0.059681416
149	0xbe12a32e	-0.1432006
150	0xbe4ce11a	-0.20007744
151	0x3d5ea7bb	0.05435918
152	0xbe34079b	-0.17581026
153	0x3cf78f7b	0.030219784
154	0x3dda9e9d	0.10674784
155	0x3d415382	0.04719878
156	0xbc5ebdac	-0.013595026
157	0x3da6e6f7	0.08149522
158	0x3e1f4037	0.1555184
159	0xbdb55d29	-0.088556595
160	0x3a8a131e	0.0010534262
161	0x3cd58df3	0.026068663
162	0xbdd3ff73	-0.103514574
163	0xbe2ab030	-0.16668773
164	0xbd98f2a4	-0.07468155
165	0xbe249f23	-0.16076331
166	0x3cbeee1d	0.0233069
167	0x3d8ffa0e	0.07030116
168	0xbd1dd801	-0.038536076
169	0xbdd6949b	-0.10477563
170	0xbdd40e7f	-0.103543274
171	0x3da6ecd1	0.08150638
172	0x3dd3e895	0.10347096
173	0x3d54859e	0.05188524
174	0x3d52ff92	0.051513262
175	0xbdd17780	-0.10227871
176	0x3daaea85	0.08345512
177	0xbc365840	-0.011129439
178	0x3d81dfd9	0.06341524
179	0x3d6bc7ea	0.0575637
180	0xbd7b411c	-0.06134139
181	0xbd4591eb	-0.04823486
182	0x3d2ba377	0.04190394
183	0x3dffb06f	0.12484824
184	0x3df0b06c	0.117524
185	0x3cc404ea	0.023928124
186	0xbd5a35f8	-0.053274125
187	0xbdd920c4	-0.10601953
188	0x3df58f31	0.11990202
189	0x3c963c43	0.018339282
190	0x3e17ab15	0.14811356
191	0x3de7ac75	0.113121904
192	0x3e8fd475	0.2809178
193	0x3dbf3f1d	0.0933821
194	0x3e7f3bc6	0.24925146
195	0xbcc4f2f6	-0.024041634
196	0x3e10274e	0.14077494
197	0x3c193882	0.009351851
198	0xbddba8c7	-0.10725551
199	0x3da62e6b	0.08114322
200	0xbd224ead	-0.039625812
201	0xbc5c1df2	-0.013434874
202	0x3dfcce33	0.12344017
203	0xbdc6e779	-0.09712119
204	0x3d97726e	0.073948726
205	0x3d94c856	0.072647735
206	0x3daa01c8	0.08301121
207	0xbdb09386	-0.08621888
208	0xbe0466d6	-0.12929854
209	0x3d9f5a09	0.07780845
210	0xbd669a1f	-0.056299325
211	0xbc9c31f5	-0.01906679
212	0xbd1587eb	-0.036506575
213	0x3db7955d	0.08964036
214	0x3baa5a6b	0.005198767
215	0x3d3e10d5	0.04640277
216	0xbdd0d64a	-0.101971224
217	0xbdb9efb8	-0.09078926
218	0xbd9a0a69	-0.07521517
219	0xbd229622	-0.03969396
220	0xbde4e03a	-0.1117558
221	0xbb349ed7	-0.0027560496
222	0xbc740705	-0.014894252
223	0xbcecab19	-0.02889018
224	0xbde3adb2	-0.11117114
225	0xbd82d3a6	-0.06388025
226	0x3ddefb3c	0.10887763
227	0x3cab9933	0.020947075
228	0xbe8242e3	-0.25441656
229	0x3e21fb71	0.15818574
230	0x3e33b93c	0.1755113
231	0xbd9490e5	-0.07254199
232	0xbdf1d7cd	-0.11808739
233	0x3e0a8cb7	0.13530241
234	0xbe0785e3	-0.13234667
235	0xbdd068ba	-0.10176225
236	0x3d0bd636	0.034139834
237	0xbe3f061a	-0.18654671
238	0x3bdf8a4e	0.006821907
239	0x3df1c018	0.11804217
240	0xbe56dc16	-0.20982394
241	0x3db661cb	0.08905371
242	0x3daad2f4	0.08341017
243	0x3d27696a	0.040872015
244	0xbd210976	-0.039315663
245	0x3da8edf1	0.08248509
246	0xbc41771d	-0.011808184
247	0x3a9c5db1	0.0011929778
248	0xbdd48830	-0.10377538
249	0xbd7e726d	-0.062120844
250	0xbd838cd0	-0.06423342
251	0x3db7bd3f	0.08971643
252	0xbd000401	-0.03125382
253	0xbbddf236	-0.0067732586
254	0x3e0bdf73	0.13659458
255	0xbdeaf1b7	-0.11471885

net1.netdown3.COV1.0.conv_i.bias f4 [16]
0	0xbce2ac4a	-0.027670044
1	0xbcc941a3	-0.02456743
2	0x3dade82b	0.08491548
3	0xbd4d504e	-0.050125413
4	0xbd264014	-0.040588453
5	0xbe41966f	-0.18905042
6	0xbe278ba6	-0.16361865
7	0x3c0312c7	0.008000082
8	0x3e04d86d	0.12973185
9	0xbe3a8047	-0.18212996
10	0xbd81ae55	-0.06332079
11	0xbcc215e1	-0.023692073
12	0xbd87603b	-0.066101514
13	0x3d18be63	0.037290942
14	0x3d86b38f	0.06577217
15	0x3d9c7e17	0.07641237

net1.netdown4.COV1.0.conv_r.weight f4 [32, 16, 3, 3]
0	0x3ad1d78e	0.0016009675
1	0x3bfc1643	0.0076930835
2	0xbd843dea	-0.06457122
3	0x3d384874	0.04499097
4	0xbdfcdab3	-0.12346401
5	0x3c9e8a16	0.019352954
6	0x3dad5cdb	0.084649764
7	0xbd3f8245	-0.046755094
8	0xbe2d3a16	-0.1691669
9	0x3d0695a0	0.032857537
10	0xbc8a6212	-0.016892467
11	0x3d36b04c	0.044601724
12	0x3da39672	0.079876795
13	0x3dcaa7b2	0.098952666
14	0x3d615713	0.05501468
15	0x3d795fb2	0.060882278
16	0xbdc06b60	-0.0939548
17	0xbd969eac	-0.07354483
18	0x3d8121e9	0.06305296
19	0xbd227c49	-0.03966931
20	0xbd68910e	-0.05677896
21	0xbb126b21	-0.0022341686
22	0xbcd247fb	-0.025669089
23	0xbcea1c36	-0.028577905
24	0x3d9540c1	0.072877415
25	0x3d0478e8	0.032341868
26	0x3d8120bd	0.063050725
27	0x3db3be27	0.08776503
28	0x3c44b385	0.012005691
29	0x3dd1a204	0.1023598
30	0x3e3ad46e	0.18245098
31	0xbdba7a34	-0.0910534
32	0x3d67b513	0.05656917
33	0x3e378a5a	0.1792387
34	0xbdc794d7	-0.09745186
35	0xbdd4b31a	-0.103857234
36	0xbd518930	-0.051156223
37	0xbe174c76	-0.14775261
38	0x3d243dbe	0.040097944
39	0x3dc9c093	0.09851184
40	0xbe37321a	-0.17890206
41	0xbd8aa2a5	-0.06769303
42	0x3dd62be0	0.10457587
43	0x3d9acca9	0.07558567
44	0x3e2376e9	0.1596333
45	0x3e803a7c	0.2504462
46	0x3e432884	0.19058424
47	0x3ebfbe1b	0.37449726
48	0xbcf59c51	-0.029981764
49	0xbde7a276	-0.11310284
50	0xbe607a23	-0.21921591
51	0xbdbc3ec1	-0.09191657
52	0xbe936d5f	-0.2879438
53	0xbed0a4b6	-0.40750664
54	0x3ebc7171	0.368053
55	0x3e9cc080	0.30615616
56	0x3eabaec1	0.33531764
57	0x3e13d77d	0.14437671
58	0x3dffadc6	0.124843165
59	0x3da13710	0.078718305
60	0x3d390a21	0.045175675
61	0xbbba251d	-0.005680694
62	0xbd80e77e	-0.06294154
63	0xbc6db73e	-0.01450902
64	0x3c3f2442	0.011666359
65	0x3d80e5a8	0.062938035
66	0xbdbb717f	-0.09152507
67	0xbe3e4610	-0.18581414
68	0xbcf8fd68	-0.030394271
69	0x3deec1a5	0.116580285
70	0x3e32dc37	0.17466818
71	0x3d936f8f	0.071990125
72	0xbc0b78cd	-0.008512688
73	0xbd46a7a0	-0.048499703
74	0x3bbd3dde	0.0057751974
75	0xbd189859	-0.037254665
76	0xbe59a574	-0.21254522
77	0xbd62d96b	-0.055383127
78	0xbd86f8c7	-0.06590419
79	0xbe11c1eb	-0.1423413
80	0xbd2555c6	-0.040365003
81	0xbd43b3e3	-0.047778975
82	0xbd339694	-0.043844774
83	0x3d9f5e14	0.07781616
84	0xbdf031a8	-0.11728221
85	0xbdc5b512	-0.09653677
86	0xbd28cdf1	-0.041212026
87	0xba44ba67	-0.0007504583
88	0xbd14851b	-0.03625975
89	0xbe037878	-0.12838924
90	0x3cc059b7	0.02348028
91	0xbdbdcf40	-0.092680454
92	0x3dc42272	0.095768824
93	0xbd313e50	-0.043272316
94	0x3c2debfe	0.010615347
95	0x3d48714b	0.04893617
96	0x3dc14899	0.09437675
97	0xbcc41cdd	-0.023939544
98	0x3df9f6ca	0.122052744
99	0x3df51def	0.119686
100	0x3e1000ad	0.14062758
101	0x3e153a54	0.14573032
102	0xbd70329a	-0.058642007
103	0xbd5ac49d	-0.05341016
104	0xbdbfe4a7	-0.09369784
105	0xbe6c3e65	-0.23070677
106	0xbecf3c61	-0.40475753
107	0xbec1f6b8	-0.37883544
108	0x3d0818b0	0.03322667
109	0xbd923f46	-0.07140975
110	0xbd131cc7	-0.035916116
111	0xbd138e0d	-0.036024142
112	0x3d90f263	0.070774816
113	0xbc91f105	-0.017815122
114	0xbda75ed9	-0.08172388
115	0x3d8df023	0.06930568
116	0x3d8ae4d9	0.067819305
117	0xbd5277be	-0.051383726
118	0x3d4f968e	0.05068069
119	0xbcb6c7ed	-0.022312129
120	0x3cf412e2	0.02979416
121	0xba7c87d7	-0.0009633279
122	0xbd0f4083	-0.034973633
123	0xbe08d89e	-0.13363883
124	0xbc32beae	-0.010909719
125	0xbddd3004	-0.10800174
126	0xbe0abd61	-0.13548805
127	0xbeb7efac	-0.35925043
128	0xbda868e3	-0.082231306
129	0x3d7fdcf0	0.06246656
130	0xbe199a85	-0.15000351
131	0xbdab7ca2	-0.08373381
132	0x3e16fc12	0.14744595
133	0x3cdb90f7	0.026802523
134	0x3e04ffd1	0.12988211
135	0x3c2174d8	0.009854518
136	0x3d25087e	0.040291302
137	0x3c1c68f8	0.009546511
138	0xbcb4b4ba	-0.022058833
139	0x3c84f2eb	0.016229114
140	0x3d731885	0.059349556
141	0x3dd6dde0	0.10491538
142	0x3dd2ce4d	0.10293255
143	0x3c1526fa	0.009103531
144	0x3d9115bd	0.070842244
145	0x3d7d8d12	0.061902113
146	0xbc327f33	-0.0108945845
147	0x3e0946d1	0.1340592
148	0x3e0cdb26	0.13755473
149	0x3e0c5d75	0.13707526
150	0x3ddb5551	0.10709632
151	0xbd153679	-0.036428902
152	0xbdeebeff	-0.11657523
153	0xbdca0a85	-0.09865288
154	0xbe145726	-0.1448637
155	0xbe1c2fa2	-0.15252545
156	0xbda240f1	-0.07922543
157	0xbe389fc1	-0.18029691
158	0xbe12f0c9	-0.14349665
159	0x3da311ab	0.07962354
160	0xbd4cbb58	-0.049983352
161	0xbe0e7252	-0.13910797
162	0xbe474a79	-0.19462003
163	0xbc94e71b	-0.018176606
164	0xbdea751a	-0.114481166
165	0x3da29dd3	0.07940259
166	0x3d810e6a	0.063015774
167	0xbd84f4f1	-0.06492031
168	0x3cfa464a	0.030551095
169	0xbd50d3d8	-0.05098328
170	0x3da7f715	0.08201424
171	0x3e20f8f5	0.1571997
172	0xbdf7991a	-0.12089749
173	0xbd4041ce	-0.046937756
174	0x3e694066	0.22778472
175	0xbde747df	-0.11293005
176	0x3d513315	0.051074106
177	0x3e79c7f9	0.2439269
178	0xbc1c947e	-0.009556888
179	0xbe57dab1	-0.21079518
180	0x3d561ce6	0.052273653
181	0x3df784e8	0.12085897
182	0x3e12711a	0.14300957
183	0xbcf20aa3	-0.029546088
184	0x3d8b106c	0.067902416
185	0x3d2755c7	0.040853288
186	0x3c203005	0.009777074
187	0x3bca6204	0.006176235
188	0x3e194ddb	0.14971106
189	0xbe550275	-0.20801719
190	0xbe96d910	-0.2946248
191	0xbdf032dc	-0.11728451
192	0xbc508f07	-0.012729413
193	0x3cd85b20	0.02641064
194	0x3c4211bb	0.011845048
195	0xbdcb5f8f	-0.09930336
196	0xbcd44fdd	-0.025916988
197	0x3d7d8935	0.06189843
198	0x3e20c0e5	0.15698583
199	0x3e2ebef3	0.17065029
200	0x3d821b27	0.06352835
201	0xbdc464ee	-0.09589563
202	0xbd65da00	-0.056116104
203	0xbdc875e4	-0.09788111
204	0xbc3ea450	-0.011635855
205	0xbd4fa5e1	-0.050695304
206	0xbe53c674	-0.20681173
207	0x3e057fe6	0.1303707
208	0x3dd8a46c	0.10578236
209	0xbd14b174	-0.036302045
210	0xbd74b334	-0.059741214
211	0xbd825bb5	-0.06365148
212	0x3c841481	0.016123058
213	0x3d85096d	0.064959385
214	0xbc44121e	-0.01196721
215	0x3d8080e4	0.06274584
216	0x3d30c4f2	0.04315657
217	0x3c343cda	0.011000836
218	0xbe0e81b1	-0.13916661
219	0xbd7cd276	-0.06172415
220	0xbdc8dd48	-0.09807831
221	0xbe75f10d	-0.24017735
222	0xbd86b7f1	-0.06578053
223	0xbe57a4ec	-0.21059006
224	0xbe44d06c	-0.19220132
225	0xbda0ff68	-0.07861215
226	0xbd49d9a6	-0.04927983
227	0xbdc84263	-0.09778287
228	0xbcf864c4	-0.030321486
229	0xbdb37eee	-0.08764444
230	0xbd33c055	-0.043884594
231	0x3d80d5e4	0.062907964
232	0xbd0d982f	-0.03456896
233	0xbb4b971f	-0.0031065417
234	0x3e03e1ba	0.12879077
235	0x3c83ce76	0.01608966
236	0x3beb4f67	0.0071810964
237	0x3dcf77dd	0.10130284
238	0x3cbe6337	0.023240669
239	0x3de551f2	0.111972705
240	0x3ce21d95	0.027601996
241	0xbe2cb2c4	-0.16865069
242	0xbba37e80	-0.004989445
243	0xbdc1cfa9	-0.09463436
244	0xbd90b6d7	-0.07066124
245	0x3d462355	0.04837354
246	0xbb2a72e7	-0.0026008429
247	0xbc4b93c9	-0.012425371
248	0xbd9504ee	-0.07276331
249	0x3ded914b	0.11599978
250	0x3df39702	0.11894037
251	0x3d27d8e9	0.040978346
252	0x3cf127b5	0.02943788
253	0xbd96821c	-0.07349035
254	0x3d95feae	0.07323967
255	0xbc58d3df	-0.013234108

net1.netdown4.COV1.0.conv_r.bias f4 [32]
0	0xbd966f6d	-0.073454715
1	0x3d9b882f	0.07594334
2	0x3db53822	0.08848597
3	0xbd466b1a	-0.048441984
4	0x3dd6c0bd	0.10485981
5	0xbd739f7f	-0.05947828
6	0x3dd30fa8	0.103057206
7	0xbe377e00	-0.17919159
8	0xbe54db21	-0.20786716
9	0x3c2cbc11	0.010542885
10	0xbd306b9c	-0.043071374
11	0x3d5cbc78	0.053890675
12	0x3d5598ff	0.05214786
13	0xbdaac594	-0.08338466
14	0xbd97a74f	-0.074049585
15	0x39610c5b	0.00021462275
16	0xbe1db52c	-0.15401143
17	0xbd5a74a4	-0.053333893
18	0xbd6cdd18	-0.05782804
19	0x3d2159f5	0.03939243
20	0xbcb41982	-0.02198482
21	0xbc95caf7	-0.018285258
22	0xb922a81b	-0.00015512148
23	0x3d5fd475	0.054645974
24	0xbd88063f	-0.06641816
25	0xbcd8697e	-0.02641749
26	0x3c01f09e	0.007930903
27	0xbd633627	-0.055471566
28	0xbe7fe917	-0.2499126
29	0x3e1f4822	0.1555486
30	0x3c87fa0e	0.016598728
31	0x3df044bc	0.1173186

net1.netdown4.COV1.0.conv_i.weight f4 [32, 16, 3, 3]
0	0xbe104114	-0.14087325
1	0x3cdad4bb	0.026712766
2	0xbd1e362f	-0.038625892
3	0x3d8d030c	0.06885347
4	0x3e29b1ec	0.16571778
5	0x3db7bca6	0.08971529
6	0xbe19c0bd	-0.1501493
7	0xbb7a59b5	-0.0038200442
8	0xbe4eac02	-0.20182803
9	0xbe1bfa07	-0.15232097
10	0xbdcf3dc2	-0.10119201
11	0xbe477cea	-0.19481245
12	0x3d53c15c	0.051698074
13	0x3dac7958	0.08421582
14	0xbdab4973	-0.08363619
15	0xbe393423	-0.18086295
16	0xbd05197b	-0.032495003
17	0xbe587d9e	-0.21141669
18	0xbe8868b3	-0.2664238
19	0xbe40c60e	-0.18825552
20	0xbe95a014	-0.29223692
21	0xbdc2a9b6	-0.09505026
22	0xbd25d2b6	-0.040484153
23	0xbe857f3c	-0.26073635
24	0x3d9d0e60	0.076687574
25	0x3e43ec94	0.19133216
26	0xbd66c6f4	-0.05634208
27	0xbdc6a1ce	-0.096988305
28	0xbd0874af	-0.033314403
29	0xbdf3d9de	-0.11906789
30	0x3e36a5f7	0.17836748
31	0x3e0ae2ed	0.13563128
32	0xbdcdcae6	-0.100484654
33	0x3e7cfd6d	0.2470605
34	0x3c384bba	0.011248523
35	0xbd964362	-0.07337071
36	0xbe8bb122	-0.2728358
37	0x3e58fd2a	0.21190324
38	0x3cf736e4	0.030177541
39	0xbe83dc54	-0.25754035
40	0x3ce69258	0.028145954
41	0xbd23d0e4	-0.039994135
42	0xbe09142c	-0.13386601
43	0x3d819dd0	0.063289285
44	0xbe6fb049	-0.23407091
45	0xbd302832	-0.043007083
46	0xbd319e70	-0.04336399
47	0xbda804a5	-0.08204011
48	0x3e1905bb	0.14943592
49	0x3e34007d	0.17578311
50	0x3de24c9e	0.1104977
51	0xbdcaa62d	-0.09894977
52	0x3e0b1dc4	0.13585573
53	0xbd1add25	-0.037808556
54	0xbedd5dc9	-0.43235615
55	0xbebedf51	-0.37279752
56	0xbeeabc6c	-0.4584688
57	0xbd3d7547	-0.046254423
58	0xbe4c1b14	-0.19932204
59	0xbe6aada6	-0.22917804
60	0xbdf73c49	-0.12072045
61	0xbda5d60c	-0.08097467
62	0xbe142727	-0.1446806
63	0xbd34f405	-0.044178028
64	0xbce437cd	-0.02785864
65	0xbde621de	-0.112369284
66	0x3bd26f2d	0.0064219446
67	0xbd87893b	-0.066179715
68	0xbdc0853c	-0.094004124
69	0xbdff3be4	-0.12462595
70	0xbdb93125	-0.09042577
71	0xbe7d86ff	-0.24758528
72	0xbea58c71	-0.3233371
73	0xbec402c1	-0.3828335
74	0xbeb02856	-0.34405774
75	0xbc65c041	-0.014022888
76	0xbc7ab60f	-0.015302195
77	0x3db4baa9	0.08824665
78	0xbca0f3dd	-0.019647533
79	0x3e2017e0	0.15634108
80	0x3de1a3fa	0.11017604
81	0xbddb1325	-0.10697011
82	0xbe20370d	-0.15646
83	0xbe10fd3e	-0.14159104
84	0x3dfeed14	0.12447563
85	0x3e96c040	0.2944355
86	0x3dd82a9f	0.10555004
87	0xbc5abbe1	-0.013350458
88	0x3e4f0d0e	0.20219824
89	0x3d832e4f	0.06405317
90	0xbeb13672	-0.3461185
91	0x3e2228ad	0.15835829
92	0xbe45fee5	-0.19335516
93	0xbe809e9d	-0.25121012
94	0x3e25574b	0.16146581
95	0x3bc046d4	0.0058678184
96	0xbecebc53	-0.40378055
97	0x3e4eaa2c	0.20182103
98	0xbd5baacf	-0.053629693
99	0x3e4f48f4	0.20242673
100	0x3ca52d5e	0.020163234
101	0x3d1cfda4	0.038327828
102	0x3d3723c4	0.044711843
103	0xbbbb3665	-0.0057132714
104	0x3d91e36c	0.071234554
105	0xbc8ae283	-0.016953712
106	0xbcefa0d7	-0.0292515
107	0x3d0da08c	0.034576938
108	0x3d987125	0.074434556
109	0x3d51fe74	0.051268056
110	0x3cc1c1f6	0.023652058
111	0x3b55416c	0.0032540215
112	0x3cb035a4	0.021509953
113	0xbd183ab2	-0.03716535
114	0xbc9cccdf	-0.019140659
115	0x3da0097a	0.078143075
116	0x3d5a6870	0.053322256
117	0xbed21d86	-0.4103815
118	0xbeb50035	-0.3535172
119	0xbeae9f1b	-0.34105763
120	0x3e7daa0a	0.24771896
121	0x3e361297	0.17780529
122	0x3e175521	0.14778568
123	0x3ee3036d	0.4433855
124	0x3ed8535f	0.42251107
125	0x3e17289b	0.14761584
126	0xbe5e10db	-0.21686117
127	0xbdd9e8d6	-0.10640113
128	0xbd9beff5	-0.076141275
129	0xbe36c0a0	-0.17846918
130	0xbdcaf5f7	-0.09910195
131	0x3da67ed4	0.08129659
132	0xbd6862f0	-0.05673498
133	0xbdaa333d	-0.08310554
134	0xbd8df07a	-0.06930633
135	0x3d1f603a	0.03891013
136	0xbd62da72	-0.055384107
137	0x3d296183	0.04135276
138	0x3d17ae2d	0.03703134
139	0xbc8395b8	-0.016062602
140	0xbbfb4073	-0.007667595
141	0xbd3a5326	-0.045489453
142	0x3cf35181	0.02970195
143	0x3d3321fe	0.04373359
144	0x3db6bc1b	0.08922597
145	0x3d77c226	0.06048789
146	0x3dc7267c	0.09724137
147	0x3d8dc570	0.06922424
148	0xbd18f201	-0.037340168
149	0x3d442674	0.047888234
150	0x3e1bd320	0.15217257
151	0xbd80c7fb	-0.06288143
152	0x3b73851c	0.0037158197
153	0xbc48fb22	-0.012266906
154	0xbc9ca3bb	-0.019121042
155	0x3dba297e	0.09089945
156	0x3d856838	0.06514019
157	0x3e3b3800	0.18283081
158	0x3d55c0d9	0.052185867
159	0x3ce8f873	0.028438782
160	0x3d257ec1	0.040404085
161	0x3c059e25	0.00815538
162	0x3e319b21	0.17344333
163	0x3dbff1cc	0.09372291
164	0x3e1ce8cf	0.15323184
165	0x3e0fcf14	0.14043838
166	0x3dffc7cf	0.12489282
167	0xbde1d2be	-0.11026524
168	0x3de7f332	0.11325683
169	0x3e0c7f56	0.1372045
170	0x3dadf95d	0.08494828
171	0xbdc2f244	-0.09518865
172	0xbdd170f6	-0.10226624
173	0xbd9c017b	-0.0761747
174	0xbe41a625	-0.18911035
175	0xbe35afc6	-0.17742833
176	0xbd8f3f88	-0.069945395
177	0xbe215af6	-0.15757355
178	0xbe6aee98	-0.22942579
179	0x3d012a31	0.031534377
180	0x3ec4a1ba	0.38404638
181	0x3dddf63b	0.1083798
182	0x3dcfcfdb	0.10147067
183	0x3e6879cc	0.22702712
184	0x3d244783	0.04010726
185	0x3df646e1	0.12025238
186	0x3e6dc1c6	0.2321845
187	0x3ddffaea	0.1093653
188	0x3d3ff4a3	0.046864163
189	0x3e0360ea	0.12829939
190	0x3e1be61b	0.15224497
191	0xbe3e092b	-0.18558185
192	0x3b0be685	0.0021347117
193	0x3d075329	0.033038292
194	0xbe9635a0	-0.29337788
195	0xbc0bcfe3	-0.008533451
196	0xbd5970c1	-0.053086046
197	0xbe1574a8	-0.14595282
198	0x3d91f3da	0.07126589
199	0x3d69ac8e	0.057049327
200	0xbe27e3c4	-0.1639548
201	0x3de9ec96	0.11422078
202	0x3cea228f	0.028580932
203	0xbe7f9d48	-0.24962342
204	0xbd608c24	-0.05482115
205	0xbd0da5ff	-0.034582134
206	0xbe90fb84	-0.2831689
207	0x3d665f8a	0.056243457
208	0x3ddaf668	0.106915295
209	0x3dfbef3a	0.12301488
210	0x3ddc8836	0.10768168
211	0x3d664efb	0.056227665
212	0x3d8e8cbe	0.06960438
213	0x3dadb5dc	0.084819525
214	0x3d1e7265	0.038683314
215	0x3e56c96b	0.20975272
216	0xbe816955	-0.25275674
217	0xbdc5bbdf	-0.09654974
218	0xbd525d63	-0.05135859
219	0xbd27e122	-0.040986188
220	0xbb0ffb77	-0.0021969953
221	0x3e5ac5e3	0.2136455
222	0xbd474a9d	-0.04865514
223	0x3db30266	0.08740692
224	0x3e5813d2	0.21101311
225	0xbe071e64	-0.13195187
226	0xbdda60a5	-0.10662965
227	0xbe90a591	-0.28251317
228	0xbddbac45	-0.10726217
229	0xbe1f5f59	-0.15563716
230	0xbe96f8ba	-0.29486638
231	0xbcd68769	-0.026187615
232	0xbdbdf85b	-0.09275886
233	0xbe6b3dbc	-0.22972769
234	0x3e8eb35b	0.27871212
235	0x3df1cad3	0.11806264
236	0x3c9d6e08	0.019217506
237	0x3da87960	0.082262754
238	0x3e0f6caf	0.14006303
239	0x3d84401e	0.06457542
240	0x3d5e6604	0.05429651
241	0x3e22d504	0.15901572
242	0x3c46b555	0.012128194
243	0x3e0c70ff	0.1371498
244	0x3dcc4c0d	0.09975443
245	0x3d325d67	0.043546107
246	0x3cbbe260	0.022935092
247	0xbd51eeaa	-0.051253
248	0x3d2df200	0.042467117
249	0xbd593100	-0.053025246
250	0xbdd0cf18	-0.1019575
251	0xbd236992	-0.0398956
252	0x3d53ecea	0.05173961
253	0xbcc8ec74	-0.024526812
254	0xbd8b316a	-0.06796534
255	0x3d6f43e4	0.058414355

net1.netdown4.COV1.0.conv_i.bias f4 [32]
0	0xbdda2917	-0.106523685
1	0x3d8a4aec	0.067525715
2	0x3d96d50e	0.07364856
3	0x3dcf9934	0.10136643
4	0xbbc5ebfc	-0.0060400944
5	0xbc5aaf76	-0.013347497
6	0xbdbd27ba	-0.09236093
7	0xb8a1bcea	-7.712266e-05
8	0x3c9c4e7f	0.019080399
9	0xbdf35d40	-0.118830204
10	0x3d7af185	0.061265487
11	0xbe7e3e02	-0.24828342
12	0x3e051168	0.12994921
13	0xbbccacfe	-0.006246208
14	0x3c95215d	0.018204385
15	0x3e156ed2	0.14593056
16	0x3ceb7d3b	0.028746238
17	0xbdd6f439	-0.104958005
18	0x3dde27f8	0.10847467
19	0xbe1774de	-0.14790675
20	0x3d82367d	0.06358049
21	0x3e251784	0.16122252
22	0x3cd18a05	0.025578508
23	0xbc88d972	-0.016705249
24	0xbde60684	-0.112317115
25	0x3bcafd3e	0.0061947396
26	0xbe35bfac	-0.17748898
27	0xbcc75ae0	-0.024335325
28	0xbe3f8dd7	-0.18706451
29	0x3e04569f	0.12923668
30	0x3bb31f5b	0.0054663843
31	0xbe009b0a	-0.12559143
