CCNN-CGH/4k/2init4k/proposedstate.pth (torch, 63549 bytes, 52 tensors)

net1.netdown1.COV1.0.conv_r.weight f4 [2, 1, 3, 3]
0.0034694301 0.3356373 0.2583957 -0.09631209 0.16332328 -0.062966734 0.30235428 0.28399017
0.41391736 -0.090632334 -0.6004295 -0.11302617 0.001103069 -0.56446546 -0.012774002 0.2982548
0.3987802 0.27641797
00000000: 615f 633b a7d8 ab3e 714c 843e 463f c5bd
00000010: 383e 273e b4f4 80bd 2ece 9a3e 2967 913e
00000020: faec d33e 729d b9bd bfb5 19bf 447a e7bd
00000030: db94 903a cf80 10bf 0c4a 51bc dab4 983e
00000040: eb2c cc3e a886 8d3e

net1.netdown1.COV1.0.conv_r.bias f4 [2]
-0.17232 -0.012011713
00000000: a774 30be c7cc 44bc

net1.netdown1.COV1.0.conv_i.weight f4 [2, 1, 3, 3]
-0.26965642 0.051538553 0.13867034 -0.24929288 0.20342153 -0.29942828 0.09783023 0.28219512
-0.063770436 -0.318354 -0.16857108 -0.06520295 -0.25085014 -0.16014759 -0.30359706 -0.0082036555
-0.2409339 0.31648025
00000000: 6810 8abe 171a 533d 99ff 0d3e a246 7fbe
00000010: bc4d 503e aa4e 99be 375b c83d e17b 903e
00000020: 139a 82bd 4cff a2be e69d 2cbe 2089 85bd
00000030: 6e6f 80be bbfd 23be 1371 9bbe a068 06bc
00000040: 60b7 76be b309 a23e

net1.netdown1.COV1.0.conv_i.bias f4 [2]
-0.24728298 -0.52328044
00000000: c037 7dbe b5f5 05bf

net1.netdown2.COV1.0.conv_r.weight f4 [4, 2, 3, 3]
0.13349175 0.032774627 -0.034392107 0.17301296 -0.06387939 -0.14653337 -0.25465983 0.007978704
-0.018797806 0.05356649 0.027602954 -0.019315962 -0.109558396 0.024288584 0.043070793 -0.09163811
0.17368224 0.08639761 0.0007430911 -0.22108763 0.22080956 0.057045426 -0.25343004 0.056046862
0.14025629 0.0058186348 0.052640233 -0.11783557 -0.054387204 -0.059293613 -0.15849717 0.56344587
-0.37581298 -0.44298545 0.5324459 0.17903216 -0.25068352 0.10222412 -0.13461472 0.0888936
-0.10748121 -0.21380557 -0.168243 -0.19544275 -0.3347 0.07491859 0.16961789 0.12782177
0.23083016 -0.0822749 0.012956161 -0.06615217 -0.094081976 0.22711979 -0.11041928 0.25119078
0.09121051 0.1889086 -0.011105366 0.22544828 0.21302122 0.1090464 -0.15009484 -0.054105733
0.20473 0.3692877 -0.14358027 -0.10339283 0.36206815 -0.30362087 -0.08152428 0.06542377
00000000: 10b2 083e b03e 063d bdde 0cbd 4f2a 313e
00000010: 33d3 82bd d80c 16be c662 82be 1cb9 023c
00000020: dbfd 99bc 8968 5b3d 971f e23c 823c 9ebc
00000030: 2760 e0bd daf8 c63c 006b 303d c3ac bbbd
00000040: c2d9 313e 3bf1 b03d 00cc 423a cc64 62be
00000050: e71b 623e 77a8 693d 95c1 81be 6591 653d
00000060: 589f 0f3e 3faa be3b 499d 573d c653 f1bd
00000070: 1ec5 5ebd dcdd 72bd 154d 22be fd3d 103f
00000080: 8f6a c0be fdce e2be 604e 083f 3554 373e
00000090: 9759 80be e15a d13d 71d8 09be d90d b63d
000000a0: 1c1f dcbd d9ef 5abe e547 2cbe 2522 48be
000000b0: cc5d abbe eb6e 993d 50b0 2d3e b6e3 023e
000000c0: be5e 6c3e be7f a8bd 1446 543c ca7a 87bd
000000d0: 0dae c0bd 1792 683e 8123 e2bd 149c 803e
000000e0: 93cc ba3d 4271 413e 48f3 35bc eadb 663e
000000f0: 3c22 5a3e b853 df3d 76b2 19be f99d 5dbd
00000100: bea4 513e 4713 bd3e b506 13be 9fbf d3bd
00000110: ff60 b93e 3274 9bbe 34f6 a6bd e6fc 853d

net1.netdown2.COV1.0.conv_r.bias f4 [4]
0.15526015 0.1390822 0.053311855 -0.20340428
00000000: 84fc 1e3e 906b 0e3e 885d 5a3d 3649 50be

net1.netdown2.COV1.0.conv_i.weight f4 [4, 2, 3, 3]
0.01673528 0.24034019 0.06523422 -0.1740482 -0.13697514 0.09539657 -0.039721385 0.15697773
0.014448316 0.092879124 -0.1702882 0.25321075 0.31723127 -0.41946307 -0.18752818 0.18563803
-0.03137408 -0.111743905 0.06988473 0.21477778 -0.1661377 -0.24647991 -0.0041790553 -0.030692436
0.112600975 -0.16127904 -0.17082581 0.017195294 0.08466639 0.20785926 -0.07933735 -0.07530515
-0.19742225 -0.06942773 -0.22095557 -0.21221107 0.06004946 0.29145455 0.11674524 -0.31872773
-0.19662076 0.054187622 -0.17523701 0.23562808 -0.12455963 -0.12402541 -0.07024949 -0.3363179
0.038970917 0.18642092 0.3423398 -0.021007968 0.07488682 0.018950269 -0.09515928 0.0966251
-0.06845298 0.12915447 0.05450731 0.006008603 -0.050592046 -0.09536214 0.2659138 0.003982646
0.16906866 -0.1250285 0.16393082 0.18744446 -0.35032406 0.056329384 -0.010789441 -0.4455022
00000000: 6d18 893c bd1b 763e 8599 853d b139 32be
00000010: 3643 0cbe 475f c33d e4b2 22bd c5be 203e
00000020: a1b8 6c3c 6937 be3d 0860 2ebe d7a4 813e
00000030: 236c a23e ddc3 d6be 6307 40be e517 3e3e
00000040: 1b82 00bd fdd9 e4bd ba1f 8f3d b5ee 5b3e
00000050: 0020 2abe 3b65 7cbe 75f0 88bb b46e fbbc
00000060: 579b e63d 5526 25be f6ec 2ebe 25dd 8c3c
00000070: 9365 ad3d 0fd9 543e 9f7b a2bd 9639 9abd
00000080: 0f29 4abe 2030 8ebd 2d42 62be dc4d 59be
00000090: 6cf6 753d 8839 953e 2118 ef3d 4830 a3be
000000a0: f456 49be d7f3 5d3d 5571 33be 7d48 713e
000000b0: 1f19 ffbd 0901 febd f7de 8fbd dc31 acbe
000000c0: f89f 1f3d 20e5 3e3e 2a47 af3e e718 acbc
000000d0: 435e 993d 983d 9b3c dee2 c2bd 61e3 c53d
000000e0: 1331 8cbd 1241 043e 0f43 5f3d d1e3 c43b
000000f0: 9b39 4fbd 3a4d c3bd db25 883e db80 823b
00000100: 5620 2d3e 7907 00be 7bdd 273e 71f1 3f3e
00000110: ad5d b3be a4b9 663d 32c6 30bc dd18 e4be

net1.netdown2.COV1.0.conv_i.bias f4 [4]
-0.23426081 0.051865228 -0.10633331 0.26176652
00000000: 11e2 6fbe a270 543d 47c5 d9bd 4306 863e

net1.netdown3.COV1.0.conv_r.weight f4 [8, 4, 3, 3]
-0.14410305 -0.12606664 0.01934147 -0.17628238 -0.1886834 -0.067009255 0.07937979 -0.028475815
-0.037704132 0.05654287 0.001363568 -0.14698845 -0.16085756 -0.15202576 -0.14639851 0.014101152
0.07293567 0.012991092 -0.03609609 -0.030356552 -0.10384879 0.014562524 0.03518175 0.06012725
-0.14162967 0.12758847 0.06627565 -0.016891105 -0.007923953 0.07332351 -0.06445695 0.087508254
0.028412728 -0.006977203 0.03180625 -0.066944405 0.12905471 0.083200514 -0.016546858 -0.10745489
0.15617977 0.11730998 -0.112505876 0.031826146 0.18379155 0.042428493 -0.0909918 -0.098286
-0.096628964 0.07688107 -0.09981154 -0.22446835 -0.016051777 0.015465216 0.3929681 0.24726503
0.25218442 0.23789935 0.17909074 0.19233425 0.2503629 0.28521353 0.40618107 -0.050658513
-0.08060449 0.040562626 -0.0740735 0.09924275 -0.027377384 -0.21615753 -0.11642768 0.06416899
0.1402426 0.25379267 0.1702609 0.28249738 -0.047693856 -0.0277493 0.14436033 0.041074984
0.2751211 -0.0073373485 0.053444505 0.048474506 0.020692082 -0.17218208 0.023713332 -0.04028797
-0.16242121 -0.16625255 -0.7151455 -0.44884184 -0.2722472 -0.513126 -0.36708736 0.114820205
-0.3621289 -0.010970779 0.21065421 -0.13361974 0.11978841 -0.20439014 -0.024525229 0.016214928
-0.108713515 0.04709413 -0.12018014 -0.30784777 -0.11829823 -0.03999434 0.1483691 0.11077546
0.1895533 0.0067014056 0.16005637 0.038171947 0.035177395 -0.14376304 0.12377521 -0.090517834
0.19406638 -0.018154036 0.1965305 -0.018880982 -0.07835616 -0.16056073 -0.029480638 -0.18901302
0.026594184 -0.24439502 -0.37131023 -0.087886855 0.075088285 -0.054897323 -0.019504027 -0.32208788
-0.009010643 -0.16351922 -0.264312 -0.1650084 -0.14960475 -0.052687157 -0.12450061 -0.21382241
-0.074401185 -0.036095247 0.04278624 0.115998805 -0.09654881 0.17257394 0.14638066 0.079924785
-0.05442661 0.15946496 -0.029857267 -0.023820221 0.15420195 0.084676 0.011752746 0.05199017
-0.02117348 -0.17931472 -0.19376142 0.12097767 0.61201507 -0.22932987 0.23207012 0.7550265
-0.17933929 0.39542824 1.0839131 0.037504636 -0.242543 -0.3618097 0.02341955 0.03636449
-0.25832912 0.119993016 0.086077616 -0.13293844 -0.004004204 -0.115940094 -0.15199564 -0.08162623
-0.06517064 -0.13120864 -0.0452079 -0.07824849 -0.15041353 0.0952009 -0.16490254 0.14492401
0.12980613 0.12829147 0.04426997 0.10296327 -0.058952004 -0.04165571 0.13239342 0.1275036
0.022627823 -0.14333794 0.047563776 -0.03302647 0.08727917 0.029029002 -0.077529326 -0.14887464
-0.14293334 0.034204006 -0.14025435 0.010621269 -0.060815733 -0.116043195 0.001203767 -0.14451362
0.020955661 -0.11941529 -0.025599176 0.08510158 0.039314047 0.20402858 0.09417341 0.16332722
0.15454395 -0.052953366 -0.007505729 -0.08261893 0.1224771 0.27403027 0.073389046 -0.30008104
-0.31121415 -0.17182934 0.07942545 0.008598926 -0.21443248 0.029001193 -0.21243693 -0.011264906
0.14670213 0.16812359 0.17795809 -0.03723987 0.056418736 -0.06846973 0.090421446 -0.14119537
0.02187348 -0.050255306 -0.16559184 -0.053889927 -0.15029682 -0.15109326 0.10087462 0.074079506
00000000: c08f 13be 9d17 01be 0172 9e3c 5e83 34be
00000010: 3936 41be 263c 89bd df91 a23d 1d46 e9bc
00000020: a66f 1abd 7f99 673d c0b9 b23a 2484 16be
00000030: d8b7 24be a4ac 1bbe 7ee9 15be 8508 673c
00000040: 4c5f 953d 97d8 543c 7ed9 13bd 4eae f8bc
00000050: adae d4bd a797 6e3c bd1a 103d fe47 763d
00000060: 5e07 11be 8da6 023e 87bb 873d 375f 8abc
00000070: 78d3 01bc a32a 963d 0102 84bd 8737 b33d
00000080: cfc1 e83c 05a1 e4bb 4547 023d 261a 89bd
00000090: eb26 043e 0865 aa3d 478d 87bc 4f11 dcbd
000000a0: 97ed 1f3e 3740 f03d 7b69 e6bd 225c 023d
000000b0: da33 3c3e 80c9 2d3d e959 babd 2c4a c9bd
000000c0: 68e5 c5bd d373 9d3d fe69 ccbd 08db 65be
000000d0: 047f 83bc d161 7d3c 1d33 c93e 0b33 7d3e
000000e0: 511e 813e e39b 733e 9063 373e 45f3 443e
000000f0: 912f 803e 8207 923e f7f6 cf3e 4d7f 4fbd
00000100: f813 a5bd ff24 263d d9b3 97bd c83f cb3d
00000110: 8946 e0bc 6658 5dbe a371 eebd 086b 833d
00000120: c29b 0f3e 1df1 813e e058 2e3e 7fa3 903e
00000130: a25a 43bd 8052 e3bc 32d3 133e 3e3e 283d
00000140: acdc 8c3e 246e f0bb a0e8 5a3d 348d 463d
00000150: 7182 a93c 8050 30be 7642 c23c 0005 25bd
00000160: bf51 26be 1c3e 2abe c713 37bf 99ce e5be
00000170: fc63 8bbe 3a5c 03bf e0f2 bbbe db26 eb3d
00000180: f668 b9be c8be 33bc bdb5 573e 9dd3 08be
00000190: a053 f53d a64b 51be 22e9 c8bc 2bd5 843c
000001a0: 31a5 debd c6e5 403d 0121 f6bd 399e 9dbe
000001b0: 5846 f2bd 1bd1 23bd 12ee 173e 3fde e23d
000001c0: 431a 423e 7797 db3b d1e5 233e 305a 1c3d
000001d0: 2c16 103d 9e36 13be db7d fd3d 6a61 b9bd
000001e0: 56b9 463e c6b7 94bc 4b3f 493e 4aac 9abc
000001f0: 3279 a0bd 086a 24be 6181 f1bc a18c 41be
00000200: 0cdc d93c b042 7abe 601c bebe 06fe b3bd
00000210: e3c7 993d 04dc 60bd e9c6 9fbc b4e8 a4be
00000220: 60a1 13bc 9571 27be e753 87be f6f7 28be
00000230: fd31 19be 7dce 57bd 2dfa febd 43f4 5abe
00000240: a65f 98bd 9cd8 13bd a040 2f3d c890 ed3d
00000250: 62bb c5bd 39b7 303e d0e4 153e 9baf a33d
00000260: 70ee 5ebd c84a 233e 3a97 f4bc a022 c3bc
00000270: 1ee7 1d3e 9c6a ad3d 978e 403c a5f3 543d
00000280: 0274 adbc 479e 37be 6569 46be 24c3 f73d
00000290: 05ad 1c3f 73d5 6abe caa3 6d3e 6b49 413f
000002a0: b8a4 37be 9275 ca3e aabd 8a3f 769e 193d
000002b0: 315d 78be 1f3f b9be 5bda bf3c eef2 143d
000002c0: b743 84be e6be f53d 7649 b03d 0421 08be
000002d0: b335 83bb 0072 edbd bfa4 1bbe a72b a7bd
000002e0: 2f78 85bd 8f5b 06be eb2b 39bd bf40 a0bd
000002f0: 0106 1abe b1f8 c23d 36dc 28be f666 143e
00000300: e6eb 043e d75e 033e 6e54 353d 68de d23d
00000310: a877 71bd 2e9f 2abd 2492 073e 4e90 023e
00000320: fc5d b93c 2ec7 12be 3cd2 423d c446 07bd
00000330: 6cbf b23d 3bce ed3c b2c7 9ebd 9872 18be
00000340: 1e5d 12be 8019 0c3d d69e 0fbe d504 2e3c
00000350: eb19 79bd 0ea8 edbd b8c7 9d3a 61fb 13be
00000360: 35ab ab3c 0190 f4bd 5db5 d1bc bd49 ae3d
00000370: c407 213d deec 503e fddd c03d 403f 273e
00000380: c540 1e3e a1e5 58bd 9ef2 f5bb 1d34 a9bd
00000390: 46d5 fa3d b24d 8c3e ff4c 963d 39a4 99be
000003a0: 7657 9fbe 08f4 2fbe cfa9 a23d 82e2 0c3c
000003b0: 3094 5bbe e993 ed3c 1189 59be 7190 38bc
000003c0: 1539 163e 9728 2c3e a53a 363e d588 18bd
000003d0: 5517 673d dc39 8cbd e12e b93d 8595 10be
000003e0: 0330 b33c 82d8 4dbd e890 29be afbb 5cbd
000003f0: 69e7 19be 31b8 1abe 5a97 ce3d ffb6 973d

net1.netdown3.COV1.0.conv_r.bias f4 [8]
-0.21566617 -0.11205392 0.1657285 0.2278352 0.004672102 -0.18989642 -0.078855254 -0.0024349545
00000000: 98d7 5cbe 877c e5bd bbb4 293e a14d 693e
00000010: 6f18 993b 3574 42be dd7e a1bd c293 1fbb

net1.netdown3.COV1.0.conv_i.weight f4 [8, 4, 3, 3]
-0.13256326 -0.13959828 0.08987006 -0.0032543482 -0.065080106 0.10857644 -0.09417054 -0.086438864
0.07691064 -0.072833166 0.052878186 0.12564944 0.113012 -0.09907784 0.009017256 -0.15618041
-0.07557153 0.051777635 0.15932806 0.13152048 0.10089642 -0.07265467 0.02958755 0.07844648
0.15248649 0.10011332 0.040593334 0.13844162 -0.064884774 -0.102310464 0.014668502 0.13425271
0.09889814 0.042427182 -0.075372145 -0.00016598657 0.021732347 -0.21112877 -0.04617267 0.007488764
-0.11176131 -0.25191206 -0.23382747 -0.039939716 -0.043667212 -0.0331998 0.058730897 -0.06277154
-0.10785833 -0.059102297 0.0253008 -0.112921186 -0.016530788 -0.027870512 0.1688442 0.24539733
0.018718138 0.1907166 0.032144338 -0.014682728 -0.08499074 0.16981915 -0.0023064036 -0.0017443103
0.156708 0.21640946 0.07220992 0.050765514 0.24734062 -0.011260159 0.10417528 0.2127986
-0.09368598 0.046254985 0.10755237 -0.14660114 -0.16231406 -0.16133112 -0.08945203 -0.18291503
0.12755194 -0.11062899 0.04821114 -0.047771607 -0.08700793 0.0022094017 0.121779166 -0.018252019
0.057072513 0.032475956 0.30460694 0.3609842 0.23513725 0.19460341 0.05981905 -6.728408e-05
0.07367002 0.052727476 -0.005101683 0.037377436 0.11181856 0.027985329 -0.0765651 -0.16091247
-0.025661303 -0.14335689 -0.07282824 0.122134425 0.0077876756 0.04934385 0.07651818 -0.16127701
-0.11076405 -0.04375091 0.03428903 -0.2180479 0.0883146 0.001636887 0.12886414 -0.013854859
-0.04852639 -0.09272352 0.04349901 0.06681283 0.110771075 0.0054499195 0.33618462 0.059296437
0.32832295 0.25239474 -0.18236731 0.21825044 -0.22063483 -0.46704715 -0.24273066 0.00682406
-0.07128163 0.18744795 -0.11125755 -0.07088434 -0.124561585 -0.114846766 -0.030754339 0.10201235
-0.24823634 -0.16467944 0.03732381 -0.1612147 -0.13222165 0.051811036 -0.06418279 0.08788624
0.050357107 -0.059790734 -0.065781265 -0.09153217 0.03387925 0.21653236 0.0025644964 -0.014558931
0.035239972 0.028216835 -0.0806039 0.17480089 0.13684812 0.11035777 -0.19944464 0.036863025
0.08326359 -0.10164226 0.030608775 -0.2688716 -0.066618934 -0.17577158 -0.09288337 -0.07454446
0.06778379 0.11052223 0.1711878 0.24418691 0.0678822 0.060092505 0.024784183 -0.07649164
-0.030041672 -0.1415077 -0.011079457 -0.03571054 -0.0134045705 0.14467695 0.06318471 -0.03561729
-0.033400714 0.1600175 -0.032138787 0.066019855 0.06154125 0.0458723 0.071156606 0.045418214
0.048398413 -0.1391806 0.117360815 -0.1394877 -0.07218525 0.031091537 -0.0318038 -0.097477354
-0.08775228 -0.12602389 -0.11889307 -0.11542145 0.123823024 -0.02657 -0.03731557 -0.06730365
0.008516435 -0.014322981 0.1247975 -0.21559186 -0.14594258 0.011789058 -0.09609007 0.037779853
0.068636216 -0.1317521 0.008491526 -0.21137704 0.12075904 -0.12665242 -0.21220963 -0.029151695
-0.17816341 -0.35323295 -0.18169425 -0.24732164 0.091172494 -0.08197003 -0.15222405 -0.23248118
-0.18315287 -0.38790983 -0.23112893 -0.055766366 0.05361628 0.10965709 -0.07417251 -0.08835824
0.13920315 -0.082322806 -0.0012605859 0.104201026 -0.0035440186 0.16901056 0.07020604 -0.16843875
00000000: aabe 07be daf2 0ebe cb0d b83d e746 55bb
00000010: b848 85bd 535d de3d 7cdc c0bd dc06 b1bd
00000020: 5383 9d3d 8e29 95bd cc96 583d 3faa 003e
00000030: d672 e73d 53e9 cabd 1dbd 133c c2ed 1fbe
00000040: 3fc5 9abd c914 543d e526 233e 4ead 063e
00000050: c8a2 ce3d f9cb 94bd 9761 f23c 8ca8 a03d
00000060: 6b25 1c3e 3608 cd3d 3245 263d a4c3 0d3e
00000070: 4fe2 84bd 2688 d1bd 2854 703c 8b79 093e
00000080: 1c8b ca3d 20c8 2d3d b65c 9abd ae0c 2eb9
00000090: 0908 b23c 2432 58be 8e1f 3dbd 4e64 f53b
000000a0: 1de3 e4bd 9efa 80be 7870 6fbe d497 23bd
000000b0: 64dc 32bd 83fc 07bd cf8f 703d 5d8e 80bd
000000c0: d4e4 dcbd 4015 72bd a043 cf3c 3943 e7bd
000000d0: 936b 87bc b350 e4bc 7ee5 2c3e 7049 7b3e
000000e0: c856 993c 364b 433e c8a9 033d d38f 70bc
000000f0: a00f aebd 12e5 2d3e 0827 17bb 57a1 e4ba
00000100: 1078 203e 719a 5d3e cbe2 933d 80ef 4f3d
00000110: dc46 7d3e 887c 38bc d959 d53d e0e7 593e
00000120: 6fde bfbd de75 3d3d 6b44 dc3d 9c1e 16be
00000130: a835 26be fc33 25be a032 b7bd 144e 3bbe
00000140: fa9c 023e 7491 e2bd 0b79 453d 29ac 43bd
00000150: 3731 b2bd 9ccb 103b 5b67 f93d 4285 95bc
00000160: dec4 693d 8205 053d 71f5 9b3e ecd2 b83e
00000170: d2c7 703e 1e46 473e d204 753d de1a 8db8
00000180: 4fe0 963d c4f8 573d 052c a7bb 1519 193d
00000190: 2101 e53d 7d41 e53c 2ace 9cbd 3dc6 24be
000001a0: a737 d2bc 26cc 12be f926 95bd 9d21 fa3d
000001b0: c22f ff3b c71c 4a3d 90b5 9c3d cd25 25be
000001c0: 43d8 e2bd 2734 33bd a772 0c3d f347 5fbe
000001d0: 49de b43d d08c d63a f6f4 033e 7eff 62bc
000001e0: 9cc3 46bd d4e5 bdbd 052c 323d 2ad5 883d
000001f0: f2db e23d 3d95 b23b 6420 ac3e d2e0 723d
00000200: f219 a83e e239 813e 7fbe 3abe 0b7d 5f3e
00000210: 19ee 61be ce20 efbe 638e 78be 5d9c df3b
00000220: 1afc 91bd 5bf2 3f3e 00db e3bd cf2b 91bd
00000230: 251a ffbd c834 ebbd 86f0 fbbc daeb d03d
00000240: ab31 7ebe baa1 28be dae0 183d 7715 25be
00000250: 1d65 07be cf37 543d 4472 83bd b3fd b33d
00000260: 4143 4e3d 21e7 74bd 54b8 86bd 3875 bbbd
00000270: f8c4 0a3d a9ba 5d3e 1c11 283b 9588 6ebc
00000280: ca57 103d fe26 e73c a813 a5bd 01ff 323e
00000290: ea21 0c3e 4103 e23d 373b 4cbe affd 163d
000002a0: 1a86 aa3d d129 d0bd 41bf fa3c 8aa9 89be
000002b0: 826f 88bd 77fd 33be a339 bebd c4aa 98bd
000002c0: 3ad2 8a3d 7b59 e23d db4b 2f3e 220c 7a3e
000002d0: d305 8b3d 8f23 763d 3308 cb3c a6a7 9cbd
000002e0: f419 f6bc 65e7 10be 9c86 35bc 3745 12bd
000002f0: d89e 5bbc 3226 143e fc66 813d 6fe3 11bd
00000300: 30cf 08bd a1db 233e f6a3 03bd 6b35 873d
00000310: ae12 7c3d 98e4 3b3d 8eba 913d 7308 3a3d
00000320: 6a3d 463d 5c85 0ebe de5a f03d ddd5 0ebe
00000330: dcd5 93bd aeb3 fe3c b444 02bd 35a2 c7bd
00000340: 78b7 b3bd 680c 01be 367e f3bd 1562 ecbd
00000350: ed96 fd3d 54a9 d9bc 36d8 18bd 7fd6 89bd
00000360: 8488 0b3c f0aa 6abc d595 ff3d 1dc4 5cbe
00000370: f971 15be e526 413c dfca c4bd 0cbf 1a3d
00000380: 2591 8c3d 06ea 06be 0b20 0b3c 3973 58be
00000390: 8450 f73d 2cb1 01be 7b4d 59be 89cf eebc
000003a0: 7870 36be f3da b4be 0f0e 3abe e241 7dbe
000003b0: a5b8 ba3d e7df a7bd 9fe0 1bbe 8c0f 6ebe
000003c0: 6d8c 3bbe 1e9c c6be 10ad 6cbe 466b 64bd
000003d0: bf9c 5b3d e593 e03d c2e7 97bd 2af5 b4bd
000003e0: 458b 0e3e dc98 a8bd 3e3a a5ba 5967 d53d
000003f0: c442 68bb 1b11 2d3e 2fc8 8f3d 357b 2cbe

net1.netdown3.COV1.0.conv_i.bias f4 [8]
-0.023238204 -0.14952908 -0.09264772 -0.13660361 0.056195118 0.023371547 -0.19796735 -0.11806999
00000000: 0c5e bebc 271e 19be 16be bdbd d1e1 0bbe
00000010: da2c 663d b075 bf3c f4b7 4abe aece f1bd

net1.netdown4.COV1.0.conv_r.weight f4 [16, 8, 3, 3]
-0.043940537 -0.053127628 0.061694372 0.089837894 0.016496744 0.0012520588 0.116535105 -0.05843028
-0.016916629 -0.11225787 0.1251262 0.26487905 -0.124843106 0.16593292 0.20933926 -0.30271032
-0.064994395 0.067797504 -0.116852 -0.016443292 0.04531089 0.12175139 -0.05044749 -0.019710617
0.03545941 0.08927449 0.14904422 -0.079555 -0.13959324 0.09091821 -0.12016227 -0.026516723
0.062780105 -0.1092651 0.040934294 -0.07278832 -0.20973583 -0.14272524 -0.07251559 0.08100987
0.0354433 -0.08820641 -0.15739156 -0.171339 -0.21187063 0.0049189264 -0.010322953 0.017788062
0.031791393 -0.055220872 -0.022928292 -0.09990368 -0.066272244 0.044715557 -0.028321981 0.118984036
0.12773667 0.13746542 0.13328332 0.25853968 0.122697264 0.14584076 0.12554425 -0.13678929
-0.0463711 -0.12904999 -0.10355901 0.06087396 0.07714964 0.039631717 -0.01699814 -0.042504262
0.06221392 0.029414898 -0.006955678 -0.083713576 0.0028677795 0.089671105 -0.02764142 -0.11070126
0.1160233 -0.14901869 -0.04445916 -0.12773144 0.04778075 0.14459625 -0.0022418485 -0.009789538
0.2349134 0.17828026 -0.8089719 -0.30037606 -0.29409164 -0.75662446 -0.20102738 -0.27808225
-0.5915426 -0.118853256 -0.0573975 -0.22432959 -0.102332965 0.011610967 -0.24612433 -0.022902122
-0.23375794 -0.16639839 -0.035966553 0.013284003 0.048185926 0.0020250008 0.033014372 0.08969768
0.22488089 0.15205625 0.036068063 0.07583271 0.03231204 -0.10710503 0.003649805 -0.05447703
0.057572395 0.079582915 -0.069034055 -0.08406979 0.04491227 -0.059019987 -0.17595841 -0.08894339
-0.19651079 -0.026754797 -0.11107824 -0.044905823 -0.09391761 -0.08078241 0.030382408 0.19487798
0.1447778 0.10093246 0.08357549 0.07959493 0.054748323 0.0145261595 -0.027467512 -0.092487805
-0.056921672 0.051904883 -0.059604254 0.023077725 0.06843738 0.09055654 -0.018712156 -0.017559387
-0.082425475 -0.050323825 -0.13673925 -0.028449215 0.0312663 -0.029003173 -0.0034696795 0.018811123
-0.024681235 -0.040752433 -0.4018585 -0.46436083 -0.4455413 -0.03237339 0.071899995 0.14276671
0.22948271 0.24514459 0.44687393 -0.3004304 0.03802447 -0.27787313 0.21901175 0.40521345
0.32691956 -0.14725226 -0.25507823 -0.4963115 -0.12141841 -0.28429082 -0.07912502 0.14150262
-0.034778364 -0.14040142 0.17562586 0.15969679 -0.06185247 -0.04358686 0.054242395 -0.006501269
0.019130563 0.009871164 0.083892256 -0.07462786 0.050201043 0.069464885 -0.32862628 -0.038072973
-0.14677066 0.14698099 0.12528595 -0.07005495 0.20169502 0.0511663 0.11146208 -0.5287947
-0.11575989 -0.27129048 0.009505581 -0.4334854 -0.14973935 0.25954908 0.04708789 0.20352088
-0.05934331 0.09252261 -0.004231908 0.003442642 0.0006755887 -0.09180933 0.038296953 0.07400312
-0.05606101 0.23015709 0.17173377 -0.018062307 0.14415154 0.11624136 0.043321114 0.11957012
0.03803177 0.048843317 0.12896754 0.12524445 -0.009048772 -0.016537296 -0.03751323 -0.065306574
0.086936206 -0.108598255 -0.3950536 0.10572754 -0.16236648 -0.13775663 -0.2548642 -0.5073271
-0.5171401 -0.5156564 -0.30653855 -0.20933996 -0.06441159 0.016756153 0.008375655 -0.39080185
00000000: fefa 33bd 5b9c 59bd 3db3 7c3d eefc b73d
00000010: 2e24 873c 1f1c a43a f5a9 ee3d 9754 6fbd
00000020: be94 8abc 74e7 e5bd 1521 003e 3a9e 873e
00000030: bead ffbd 52ea 293e 085d 563e d9fc 9abe
00000040: c81b 85bd 6bd9 8a3d 1a50 efbd 15b4 86bc
00000050: e997 393d cb58 f93d 07a2 4ebd 2978 a1bc
00000060: e33d 113d 8bd5 b63d 0c9f 183e bbed a2bd
00000070: 88f1 0ebe 5433 ba3d a317 f6bd 9939 d9bc
00000080: db92 803d 61c6 dfbd b8aa 273d 0b12 95bd
00000090: fdc4 56be 9126 12be 0e83 94bd 81e8 a53d
000000a0: fe2c 113d 90a5 b4bd 412b 21be 7e73 2fbe
000000b0: 9df4 58be f22e a13b 9a21 29bc 45b8 913c
000000c0: b137 023d 482f 62bd 1dd4 bbbc 4d9a ccbd
000000d0: beb9 87bd a927 373d 8003 e8bc e7ad f33d
000000e0: 67cd 023e bcc3 0c3e 6c7b 083e 505f 843e
000000f0: b448 fb3d 4857 153e ac8e 003e 7e12 0cbe
00000100: 9fef 3dbd ae25 04be bf16 d4bd f956 793d
00000110: a100 9e3d de54 223d af3f 8bbc f318 2ebd
00000120: 06d4 7e3d 83f7 f03c 75ec e3bb 0672 abbd
00000130: 5bf1 3b3b 7ca5 b73d 4270 e2bc 58b7 e2bd
00000140: a09d ed3d 5b98 18be cf1a 36bd 08cc 02be
00000150: bfb5 433d 0a11 143e faeb 12bb 4c64 20bc
00000160: 238d 703e 1a8f 363e c818 4fbf e4ca 99be
00000170: 2e93 96be 24b2 41bf 1fda 4dbe cc60 8ebe
00000180: 566f 17bf 5669 f3bd a419 6bbd a8b6 65be
00000190: f293 d1bd ed3b 3e3c 0408 7cbe 3b9d bbbc
000001a0: 3e5e 6fbe 5764 2abe aa51 13bd 26a5 593c
000001b0: 9b5e 453d e0b5 043b 143a 073d 6bb3 b73d
000001c0: 2d47 663e a2b4 1b3e 1bbc 133d 2e4e 9b3d
000001d0: a159 043d e259 dbbd 9131 6f3b 4e23 5fbd
000001e0: 08d1 6b3d 5efc a23d ba61 8dbd c82c acbd
000001f0: eef5 373d f1be 71bd 712e 34be f427 b6bd
00000200: 203a 49be e02c dbbc fd7c e3bd 2bef 37bd
00000210: e057 c0bd 4071 a5bd 87e4 f83c 188e 473e
00000220: a240 143e adb5 ce3d a029 ab3d ab02 a33d
00000230: c73f 603d 21ff 6d3c 8c03 e1bc 3f6a bdbd
00000240: b326 69bd 379a 543d 9723 74bd 7f0d bd3c
00000250: e628 8c3d b575 b93d 3c4a 99bc b4d8 8fbc
00000260: b0ce a8bd 5b20 4ebd 6005 0cbe 540e e9bc
00000270: 1711 003d 1098 edbc 9063 63bb c919 9a3c
00000280: 4d30 cabc 06ec 26bd 66c0 cdbe b4c0 edbe
00000290: fd1d e4be f699 04bd 4e40 933d 7031 123e
000002a0: 84fd 6a3e 2f07 7b3e a9cc e43e 03d2 99be
000002b0: 8cbf 1b3d 6345 8ebe 9e44 603e 2378 cf3e
000002c0: 0062 a73e 4cc9 16be 9d99 82be 8a1c febe
000002d0: 37aa f8bd 918e 91be 4c0c a2bd 10e6 103e
000002e0: c273 0ebd 64c5 0fbe 44d7 333e 8e87 233e
000002f0: 0459 7dbd 2388 32bd 462d 5e3d 9908 d5bb
00000300: b3b7 9c3c aaba 213c b4cf ab3d 7ed6 98bd
00000310: 9c9f 4d3d 9b43 8e3d b441 a8be 68f2 1bbd
00000320: 0c4b 16be 2f82 163e f64a 003e f878 8fbd
00000330: 2489 4e3e c193 513d 3b46 e43d 175f 07bf
00000340: 8513 edbd 96e6 8abe 4cbd 1b3c ccf1 ddbe
00000350: 4655 19be 9ee3 843e 3bdf 403d c767 503e
00000360: f811 73bd 7f7c bd3d d1ab 8abb f39d 613b
00000370: fd19 313a 8806 bcbd 44dd 1c3d f38e 973d
00000380: 3ba0 65bd 4dae 6b3e fada 2f3e 67f7 93bc
00000390: 769c 133e f30f ee3d 7b71 313d 2ee1 f43d
000003a0: 34c7 1b3d ee0f 483d 1110 043e 1540 003e
000003b0: 4d41 14bc 3979 87bc 79a7 19bd 74bf 85bd
000003c0: 9c0b b23d c368 debd 7744 cabe ae87 d83d
000003d0: 6643 26be 1310 0dbe 8f7d 82be 30e0 01bf
000003e0: 4b63 04bf 0f02 04bf 9ff2 9cbe 375d 56be
000003f0: 39ea 83bd 3344 893c 0b3a 093c 2e17 c8be

net1.netdown4.COV1.0.conv_r.bias f4 [16]
-0.004303567 -0.08622245 0.03119989 -0.13556445 0.013325772 0.0012978946 0.025591131 -0.06784307
0.106670804 0.033063024 0.06937065 -0.19229037 0.14790268 -0.062395707 0.060088445 -0.120657116
00000000: f004 8dbb 6595 b0bd e996 ff3c 68d1 0abe
00000010: 5754 5a3c 1e1e aa3a 7ea4 d13c 4ff1 8abd
00000020: 3976 da3d 186d 073d 3312 8e3d c4e7 44be
00000030: cd73 173e a492 7fbd 4d1f 763d 141b f7bd

net1.netdown4.COV1.0.conv_i.weight f4 [16, 8, 3, 3]
0.007562713 0.014835275 0.12058969 0.06381563 -0.05077902 0.09241908 -0.023489498 0.06073247
0.099740386 -0.16638666 -0.115753844 -0.13740206 0.034042455 0.058394864 0.038695987 0.19908254
0.27033484 0.15005347 0.10404092 -0.0408075 -0.24130912 0.12850504 -0.06083157 -0.16258821
0.23364457 0.14126024 -0.17921785 -0.09087954 -0.10872031 -0.2426516 0.11121465 -0.10725881
-0.14153562 0.34775096 0.17479223 -0.021463199 -0.2414181 -0.17739539 -0.37458706 0.12647343
0.09968591 -0.09717048 0.1077975 0.11487682 0.15113692 -0.035968352 0.073004276 0.0053576482
-0.026058309 0.072804846 0.07192019 0.004100387 0.111647554 -0.09505111 -0.013353962 -0.094212495
-0.41945386 0.073365115 -0.057430927 -0.20577088 0.27254874 0.08624947 0.0437513 0.05676288
-0.12414292 -0.14797114 0.089375615 0.05376606 0.021429084 0.32504004 0.12601982 0.1478401
0.0629232 -0.01430556 -0.11896509 -0.10371418 0.046359785 -0.019344117 0.059556704 0.028644638
0.018175803 -0.0132825095 0.032454703 0.18975595 0.01759357 -0.026199866 0.034312412 -0.06589458
0.011445448 -0.09906276 0.14752123 0.030815955 -0.14751641 0.059222534 0.029298315 -0.34685832
-0.04303773 -0.2819981 -0.43041292 -0.15151975 -0.21492168 -0.018403625 -0.4439414 -0.6633123
-0.80651414 0.1897256 -0.1926283 -0.24750838 -0.06240691 0.17237195 0.16768879 -0.016903134
0.14975567 0.074242786 0.10442813 0.10208703 -0.39275038 -0.02563383 0.08787338 0.11191113
-0.059074517 -0.009869631 -0.11645948 -0.10903166 0.07834645 -0.029949404 0.16642348 0.017667286
-0.06569993 0.04638414 0.0028261095 -0.39803874 0.0830634 -0.21775928 -0.46955076 0.1958918
0.2916909 0.3555389 0.24684116 0.28842854 0.46541798 0.35731125 0.36237177 0.09219414
0.09640303 -0.05356079 0.10225104 -0.038949206 0.06873949 0.105858825 -0.0034254843 -0.08510234
0.13397162 -0.29546225 -0.3589428 -0.28207067 -0.120772734 0.04986331 -0.04977427 0.2006276
0.29655087 0.42973933 0.17701176 0.21346118 0.24504733 0.06573267 -0.014445409 -0.053396158
-0.065031715 -0.038262926 0.10765016 -0.1844633 -0.21582308 -0.27931416 -0.09939094 -0.09026964
-0.06257754 0.13692056 0.14796594 0.21972993 0.08463507 0.03429151 0.05642681 -0.1505552
0.0023048911 0.070008464 -0.01955259 0.11959952 0.43751594 -0.06336859 0.039807137 0.001358239
0.036597688 0.117059775 -0.087266356 0.08776181 -0.046553742 0.08955901 -0.016089668 -0.16114536
-0.140519 -0.22165442 -0.12269655 -0.053809293 0.12716459 0.16845182 0.15275553 -0.6214299
-0.4757311 -0.33826002 -0.018960573 0.22321762 0.062012978 0.12569734 0.21777219 0.08644971
0.07926508 -0.010027956 0.08546074 0.015947323 -0.09185627 -0.074018225 0.084399655 0.081673905
0.024699122 0.35721767 0.080053784 -0.027365623 0.34493974 0.035212327 -0.16926819 0.47124866
0.10348264 -0.24574655 -0.31882912 0.03057989 -0.059476558 -0.2353231 0.03972997 0.05553093
-0.3091845 -0.13795508 -0.12235697 0.34872112 0.31253353 -0.009710322 0.38606355 0.07054959
-0.08786988 0.2605255 0.32333693 0.11975335 -0.15982616 0.22141583 -0.00685394 -0.116432786
00000000: a3d0 f73b a70f 733c baf7 f63d c5b1 823d
00000010: a9fd 4fbd 3746 bd3d 0c6d c0bc 9cc2 783d
00000020: b044 cc3d 4461 2abe 5a10 edbd 20b3 0cbe
00000030: 1a70 0b3d 742f 6f3d af7f 1e3d 4bdc 4b3e
00000040: 5469 8a3e 9ea7 193e 6813 d53d c425 27bd
00000050: bd19 77be d396 033e 862a 79bd 867d 26be
00000060: 8640 6f3e 86a6 103e e284 37be 0d1f babd
00000070: c1a8 debd a979 78be 82c4 e33d 82aa dbbd
00000080: b7ee 10be 6a0c b23e bcfc 323e 97d3 afbc
00000090: 4e36 77be 23a7 35be e0c9 bfbe 4082 013e
000000a0: 2028 cc3d 5101 c7bd f0c4 dc3d 8a44 eb3d
000000b0: a3c3 1a3e 8d53 13bd 4483 953d 368f af3b
000000c0: 3c78 d5bc b51a 953d e44a 933d 8a5c 863b
000000d0: 79a7 e43d 28aa c2bd 94ca 5abc 7bf2 c0bd
000000e0: a8c2 d6be 7340 963d b13c 6bbd 9ab5 52be
000000f0: 828b 8b3e 90a3 b03d 9034 333d 3280 683d
00000100: a53e febd bf85 17be 900a b73d cd39 5c3d
00000110: 0c8c af3c a66b a63e 570b 013e 6563 173e
00000120: e1dd 803d de61 6abc f8a3 f3bd 1a68 d4bd
00000130: c2e3 3d3d 8e77 9ebc bbf1 733d 29a8 ea3c
00000140: 6ce5 943c e29e 59bc 39ef 043d 624f 423e
00000150: 6420 903c 1aa1 d6bc 2c8b 0c3d bdf3 86bd
00000160: b085 3b3c 6be1 cabd ce0f 173e be71 fc3c
00000170: 8b0e 17be 5493 723d 0503 f03c 6a97 b1be
00000180: 5548 30bd 0e62 90be 155f dcbe fe27 1bbe
00000190: 6e14 5cbe 33c3 96bc 4a4c e3be d6ce 29bf
000001a0: b677 4ebf 6d47 423e 5a40 45be d672 7dbe
000001b0: 639e 7fbd 4682 303e 9cb6 2b3e 7178 8abc
000001c0: 8d59 193e 9a0c 983d 6ade d53d 0113 d13d
000001d0: 9416 c9be 0afe d1bc f5f6 b33d aa31 e53d
000001e0: 1ff8 71bd 3cb4 21bc 4f82 eebd fe4b dfbd
000001f0: 1b74 a03d 7458 f5bc eb6a 2a3e fcba 903c
00000200: af8d 86bd 4cfd 3d3d 4036 393b bccb cbbe
00000210: 251d aa3d 4afc 5ebe f568 f0be dc97 483e
00000220: 8258 953e 3209 b63e eec3 7c3e e8ac 933e
00000230: 444b ee3e 80f1 b63e cb88 b93e 48d0 bc3d
00000240: f46e c53d 8f62 5bbd fe68 d13d 3489 1fbd
00000250: 4ac7 8c3d 83cc d83d 177e 60bb 234a aebd
00000260: db2f 093e d446 97be 5ac7 b7be 916b 90be
00000270: b257 f7bd 783d 4c3d 1be0 4bbd 5271 4d3e
00000280: 84d5 973e cb06 dc3e 9242 353e 9195 5a3e
00000290: b0ed 7a3e da9e 863d 70ac 6cbc eeb5 5abd
000002a0: 592f 85bd 96b9 1cbd b077 dc3d f3e3 3cbe
000002b0: ba00 5dbe 4402 8fbe 7a8d cbbd 4adf b8bd
000002c0: a728 80bd e734 0c3e 6284 173e e200 613e
000002d0: 2755 ad3d 4175 0c3d cc1f 673d 242b 1abe
000002e0: a80d 173b 9960 8f3d c12c a0bc 98f0 f43d
000002f0: 1702 e03e 64c7 81bd cf0c 233d f006 b23a
00000300: 75e7 153d 09bd ef3d b4b8 b2bd 77bc b33d
00000310: 23af 3ebd b76a b73d 7bce 83bc 4a03 25be
00000320: 36e4 0fbe 60f9 62be 5448 fbbd 2267 5cbd
00000330: 6f37 023e a27e 2c3e f26b 1c3e 0816 1fbf
00000340: 0793 f3be 6b30 adbe 3453 9bbc 2993 643e
00000350: 5201 7e3d ceb6 003e acff 5e3e 8c0c b13d
00000360: bb55 a23d 4c4c 24bc 0a06 af3d f6a3 823c
00000370: 241f bcbd de96 97bd bad9 ac3d a644 a73d
00000380: d055 ca3c 3ce5 b63e 3df3 a33d df2d e0bc
00000390: f19b b03e cd3a 103d a454 2dbe 8147 f13e
000003a0: b5ee d33d fca4 7bbe 923d a3be ad82 fa3c
000003b0: b19d 73bd 8af8 70be e5bb 223d 6774 633d
000003c0: 6e4d 9ebe 1944 0dbe 4b96 fabd 938b b23e
000003d0: 6504 a03e 0b18 1fbc 1faa c53e 4e7c 903d
000003e0: 20f5 b3bd 9963 853e 6b8c a53e 3f41 f53d
000003f0: 78a9 23be d5ba 623e 0497 e0bb 5074 eebd

net1.netdown4.COV1.0.conv_i.bias f4 [16]
-0.032240693 -0.008913373 0.05428504 0.062770866 -0.06289364 0.042685818 0.056277502 -0.08504736
-0.06876567 0.060580444 -0.14558758 -0.05051719 0.07955711 -0.01902107 -0.038479954 -0.13613304
00000000: d10e 04bd 6509 12bc fd59 5e3d 038e 803d
00000010: 61ce 80bd 53d7 2e3d 3d83 663d 4f2d aebd
00000020: 04d5 8cbd 3323 783d e914 15be 1deb 4ebd
00000030: d7ee a23d 13d2 9bbc 289d 1dbd 7666 0bbe

net1.netup4.COV1.0.conv_tran_r.weight f4 [16, 8, 4, 4]
-0.35624143 0.024692144 -0.03258457 -0.121466525 -0.08534896 0.015617284 -0.04486382 -0.021646285
-0.10303922 0.03275457 0.09815478 0.021740092 -0.089767896 0.031661898 0.07998001 0.032079775
0.033372737 0.106116824 -0.027359124 -0.030454552 -0.04372553 0.12720937 -0.046612542 0.030217204
-0.17091182 -0.1726406 -0.07153008 0.05232432 -0.19997033 -0.16580518 -0.12455047 -0.058060873
-0.00022276543 -0.1456651 0.07339384 0.14643908 -0.25887027 -0.062477767 -0.45068544 0.13278636
-0.15745488 -0.41231012 -0.31597653 -0.18273349 -0.12214873 0.07385459 -0.29373017 0.13697106
-0.021335859 0.060368594 -0.037426595 -0.04413275 0.09561396 -0.013901354 -0.107588835 -0.083981305
0.013917057 -0.086496025 -0.15654609 -0.20024318 0.037139073 -0.0637391 -0.14883189 -0.045500424
0.046209916 -0.30828932 -0.13351727 0.26499444 0.1494656 -0.49656072 -0.14912589 -0.044216447
-0.008375589 -0.121591315 -0.1363921 0.30683354 -0.34705463 -0.12046861 -0.17331405 0.24810879
0.18883125 0.15984839 0.26575735 0.053773765 -0.39836556 0.030292535 -0.28694844 -0.21204282
-0.107076585 -0.024946243 0.27173257 -0.07129662 -0.18418263 -0.039048698 -0.09342942 -0.118415035
-0.024149612 0.055137567 -0.47619066 0.108105846 0.1981799 -0.25317222 -0.17669639 -0.1812605
-0.2135026 -0.020182429 -0.47308415 0.11787437 -0.1946771 -0.3743496 -0.18480349 -0.19911654
-0.013810052 -0.1889137 -0.10357821 -0.094008304 -0.040569615 -0.108478256 -0.17789891 -0.010839376
0.0080845365 -0.08766566 0.18762627 -0.007025188 0.031823818 -0.054438762 -0.044615064 -0.030114
0.08373469 0.22757898 0.07561453 0.047202505 0.29566166 0.36791816 0.2389222 0.28724825
0.016059715 0.06387929 0.07467449 -0.121386744 -5.8124933e-06 -0.031650215 0.045105133 -0.09896313
-0.059590027 0.023174517 -0.13348533 0.016168123 0.050879426 -0.21691589 -0.24495912 -0.062406953
0.044107616 -0.14699289 -0.029480465 -0.074126005 0.013379488 0.16671431 -0.09316861 0.3022352
-0.5409197 -0.22099942 -0.2482005 -0.16193101 0.22171421 -0.10765216 0.24759422 -0.20024428
0.31044602 0.09545066 0.26938474 0.08436255 0.013192183 0.103676684 -0.023268804 -0.10763881
-0.2767813 -0.1727396 -0.035997618 -0.014286554 -0.47249267 -0.036214128 -0.34981257 0.110278875
-0.06223456 -0.14206101 0.13388313 0.09709312 -0.14996466 -0.038595326 -0.122233436 0.11230408
0.53919846 0.318853 0.26324195 -0.45933685 0.1635271 0.42402238 -0.04431995 0.018453795
0.1817429 0.38751197 0.09952416 -0.1418237 0.00817587 0.006954364 0.036708165 -0.120244674
0.0036617217 -0.03770987 0.22417727 -0.041571744 -0.041791357 0.07177181 0.27916902 0.0020831223
0.19425102 0.115628995 0.26940668 0.069498576 -0.35138026 0.18448102 -0.09302382 0.104398705
0.035830833 0.06086392 0.08161729 0.119919606 -0.25204238 0.14865485 -0.021490611 0.09516269
-0.032938875 -0.049270984 -0.15023488 0.17725782 0.08012733 -0.23496698 -0.047294952 -0.18464094
0.17965834 0.30859825 0.22622445 0.26030383 0.13156655 0.22242092 0.22507384 0.08851082
0.007607995 0.116870165 0.15073478 0.04293354 0.07061439 0.070919625 0.060790516 0.14199102
00000000: 4765 b6be 2e47 ca3c 6677 05bd 71c3 f8bd
00000010: 6fcb aebd a3df 7f3c 20c3 37bd 8d53 b1bc
00000020: 3a06 d3bd a829 063d 6005 c93d 4718 b23c
00000030: 3bd8 b7bd e8af 013d 8fcc a33d 1566 033d
00000040: dab1 083d c753 d93d 3e20 e0bc d37b f9bc
00000050: 8b19 33bd 2c43 023e cbec 3ebd 128a f73c
00000060: 8203 2fbe b3c8 30be 5d7e 92bd 0752 563d
00000070: 06c5 4cbe d5c8 29be 5114 ffbd 3dd1 6dbd
00000080: 2496 69b9 3b29 15be 824f 963d 20f4 153e
00000090: a58a 84be b0e8 7fbd 3ec0 e6be 26f9 073e
000000a0: da3b 21be 501a d3be adc7 a1be 7d1e 3bbe
000000b0: 1d29 fabd 1341 973d cd63 96be 2442 0c3e
000000c0: 8ac8 aebc 0f45 773d a14c 19bd 8bc4 34bd
000000d0: 40d1 c33d 81c2 63bc 8957 dcbd 64fe abbd
000000e0: 5e04 643c d424 b1bd 9e4d 20be 8c0c 4dbe
000000f0: 241f 183d a589 82bd 6367 18be a75e 3abd
00000100: 9c46 3d3d 19d8 9dbe c0b8 08be 5aad 873e
00000110: 830d 193e 353d febe 75b4 18be 4e1c 35bd
00000120: c439 09bc de04 f9bd 5faa 0bbe 4919 9d3e
00000130: 25b1 b1be 3fb8 f6bd 3d79 31be 3b10 7e3e
00000140: fb5c 413e 4caf 233e 5911 883e e141 5c3d
00000150: 92f6 cbbe 0d28 f83c e8ea 92be c121 59be
00000160: f84a dbbd 105c ccbc 8820 8b3e f603 92bd
00000170: 5f9a 3cbe 87f1 1fbd ec57 bfbd 9583 f2bd
00000180: 68d5 c5bc eed7 613d 43cf f3be 9966 dd3d
00000190: acef 4a3e ca9f 81be e6ef 34be 5a9c 39be
000001a0: 6da0 5abe 9f55 a5bc 1638 f2be 1e68 f13d
000001b0: 6f59 47be c0aa bfbe 203d 3dbe 35e5 4bbe
000001c0: 8e43 62bc 9872 41be d020 d4bd 6d87 c0bd
000001d0: 532c 26bd d929 debd 222b 36be a397 31bc
000001e0: 0175 043c 0e8a b3bd 1a21 403e 8c33 e6bb
000001f0: b159 023d 2efb 5ebd 49be 36bd a3b1 f6bc
00000200: 187d ab3d 770a 693e cadb 9a3d 6a57 413d
00000210: f760 973e c55f bc3e 05a8 743e 3412 933e
00000220: aa8f 833c 25d3 823d f0ee 983d 9d99 f8bd
00000230: f008 c3b6 a8a3 01bd 29c0 383d 2ead cabd
00000240: ac14 74bd 7cd8 bd3c 61b0 08be 0373 843c
00000250: f266 503d 331f 5ebe 90d6 7abe 6f9e 7fbd
00000260: 30aa 343d 4e85 16be 0481 f1bc 60cf 97bd
00000270: a435 5b3c 28b7 2a3e 2fcf bebd 92be 9a3e
00000280: b779 0abf ac4d 62be 4628 7ebe 3ed1 25be
00000290: 0d09 633e bc78 dcbd 5789 7d3e d60c 4dbe
000002a0: c8f2 9e3e a37b c33d ccec 893e 46c6 ac3d
000002b0: 0724 583c 7154 d43d 389e bebc bd71 dcbd
000002c0: 47b6 8dbe a6e2 30be 3d72 13bd 2712 6abc
000002d0: 8fea f1be 4455 14bd a21a b3be e4d9 e13d
000002e0: aae9 7ebd 7178 11be a918 093e c2d8 c63d
000002f0: 5690 19be 2216 1ebd 8655 fabd aeff e53d
00000300: e908 0a3f b340 a33e a6c7 863e 332e ebbe
00000310: a673 273e 7619 d93e d688 35bd 6a2c 973c
00000320: d01a 3a3e f867 c63e 53d3 cb3d 3b3a 11be
00000330: 16f4 053c 6fe1 e33b 4d5b 163d d742 f6bd
00000340: 7ff9 6f3b aa75 1abd ba8e 653e 2247 2abd
00000350: 6a2d 2bbd 19fd 923d 3eef 8e3e fe84 083b
00000360: bde9 463e e5ce ec3d acef 893e 4555 8e3d
00000370: 1de8 b3be 98e8 3c3e 4683 bebd fdce d53d
00000380: 5ac3 123d 724c 793d f726 a73d 6998 f53d
00000390: b30b 81be fa38 183e 140d b0bc a8e4 c23d
000003a0: eaea 06bd 5fd0 49bd 2cd7 19be 1383 353e
000003b0: cc19 a43d 2f9b 70be 5ab8 41bd 8412 3dbe
000003c0: 5bf8 373e 9700 9e3e 62a7 673e 8b46 853e
000003d0: 62b9 063e 4fc2 633e c279 663e 2945 b53d
000003e0: 7d4c f93b a059 ef3d 385a 1a3e 14db 2f3d
000003f0: 479e 903d 4f3e 913d 7aff 783d 1866 113e

net1.netup4.COV1.0.conv_tran_r.bias f4 [8]
0.14960974 0.035316184 -0.04645352 -0.04990736 -0.1704298 -0.15095305 -0.20449774 0.078920886
00000000: 4c33 193e b4a7 103d 0c46 3ebd a96b 4cbd
00000010: 2685 2ebe 7093 1abe db67 51be 46a1 a13d

net1.netup4.COV1.0.conv_tran_i.weight f4 [16, 8, 4, 4]
0.12779942 0.008004462 0.13748536 -0.035688967 0.08331142 -0.0048722387 -0.00064816186 0.04782831
0.02974897 0.10849567 0.053716887 0.08418663 -0.089088015 0.12942393 0.08782058 -0.0044678207
0.19738774 0.169176 0.112927005 0.007735968 -0.12740397 -0.101008125 0.03950395 -0.05742308
-0.16616452 0.03297495 -0.058826488 -0.056678716 -0.114221975 -0.073717184 0.069319956 0.021460038
0.057225972 -0.13937216 -0.12335064 -0.24108791 -0.03563626 0.08822648 0.0683842 0.21373212
0.13779052 0.080888 0.09061655 -0.032666054 0.14862265 -0.24421342 0.07851659 0.108320795
0.2365322 0.12523554 -0.18271005 -0.22601815 0.10544117 0.5110041 0.05603141 0.026586425
0.14208236 0.19104335 -0.11353783 -0.018756455 0.03344108 0.1992126 0.17084283 -0.008941583
0.04946569 -0.34970626 0.19966672 0.05431219 -0.09495185 -0.07044202 -0.19143106 0.25441706
0.03380213 -0.64155793 -0.07638555 -0.22666192 0.13472699 0.023404522 -0.019546978 0.08318832
0.11597641 0.06125763 0.16850208 0.091636784 -0.31622803 -0.16722476 -0.17524913 0.152163
-0.115449056 -0.20951825 -0.2778399 0.06338218 0.016433863 -0.05073432 -0.0654879 -0.025159657
0.18607138 0.11715224 0.19378132 0.07722971 0.2581279 -0.2418573 -0.0064123897 0.04014492
0.044819646 0.008370075 0.06586792 -0.062167358 0.19086963 0.11108997 0.00068313413 0.009309672
0.003141683 -0.048192937 -0.13870825 -0.103114784 0.069901526 -0.08498835 -0.07531717 -0.1358443
0.10662111 0.08618647 -0.04450536 0.014649809 0.04953812 0.16475257 0.016138028 0.06164461
0.32714045 0.15442526 0.31289545 0.07112594 0.5671078 0.20419988 0.30579567 0.017905233
0.14560732 -0.14671284 0.12570383 -0.2769316 0.106950045 -0.21669304 -0.031010088 -0.19967397
-0.2262807 -0.13196877 -0.10114105 -0.09876307 -0.05066001 -0.030819647 0.32198745 0.0107542295
0.020484397 0.043448776 0.04122846 -0.039686255 -0.043253027 -0.019510906 -0.10479773 -0.014395318
0.11939586 0.17704093 -0.029244935 -0.06541904 -0.058296002 0.07490099 -0.1733595 -0.043707922
-0.13102329 -0.070369534 -0.21790479 -0.13668972 -0.035155628 0.05833668 -0.1829584 -0.06842038
0.21307886 0.14019804 0.015200576 -0.20979366 0.14106226 0.13859633 -0.005828853 -0.08159507
0.09103075 0.06423274 -0.2960446 -0.17462297 -0.055183794 0.017633187 -0.19310917 -0.07498432
0.51868165 0.09540833 0.20588465 0.28985623 -0.089246035 -0.5214867 -0.068761945 -0.10920097
0.36656556 -0.14388166 0.05285089 0.052589014 0.1678157 -0.2996462 0.16219753 0.15849401
-0.09232011 -0.09648074 0.29938054 0.26847824 -0.227388 0.20440798 -0.031331334 0.38144556
-0.112090856 -0.0049435366 0.07318383 0.06374739 0.052251644 -0.012475414 -0.08720164 0.10547996
0.004410441 0.3955426 0.08979195 0.0011081308 0.20002711 0.16871642 -0.0070136474 0.07634031
0.28635404 0.07224989 0.08849869 -0.21586087 0.09670424 0.022623615 -0.12196878 0.08209961
0.26323542 0.007021993 -0.012957841 -0.06424164 -0.16169846 -0.06948464 -0.111795016 -0.1294054
-0.0026227275 -0.09388415 -0.008983697 -0.051849514 -0.11290665 -0.16900864 -0.10848938 -0.051244613
00000000: dadd 023e 2625 033c f6c8 0c3e 982e 12bd
00000010: 2e9f aa3d 4da7 9fbb 68e9 29ba 9ee7 433d
00000020: 1db4 f33c fa32 de3d 3d06 5c3d 0a6a ac3d
00000030: c773 b6bd b587 043e 47db b33d cc66 92bb
00000040: 0320 4a3e 793c 2d3e 4646 e73d 017e fd3b
00000050: 3076 02be 59dd cebd e5ce 213d 7734 6bbd
00000060: 0827 2abe be10 073d 0bf4 70bd f127 68bd
00000070: 36ed e9bd 09f9 96bd 9ff7 8d3d f6cc af3c
00000080: c865 6a3d 93b7 0ebe 439f fcbd c0df 76be
00000090: 54f7 11bd 16b0 b43d 040d 8c3d 98dc 5a3e
000000a0: f518 0d3e 9ca8 a53d 2b95 b93d d7cc 05bd
000000b0: 8930 183e 1513 7abe 4ecd a03d 4bd7 dd3d
000000c0: 7f35 723e bf3d 003e 5818 3bbe 4d71 67be
000000d0: 8af1 d73d 2ad1 023f 3181 653d c6cb d93c
000000e0: 0a7e 113e dea0 433e 8686 e8bd 23a7 99bc
000000f0: 84f9 083d 63fe 4b3e 6cf1 2e3e b87f 12bc
00000100: 899c 4a3d b30c b3be 6f75 4c3e 7576 5e3d
00000110: 1e76 c2bd e843 90bd 8106 44be f442 823e
00000120: 1a74 0a3d 243d 24bf 0770 9cbd 101a 68be
00000130: dff5 093e d7ba bf3c fc20 a0bc a35e aa3d
00000140: 0a85 ed3d 48e9 7a3d cf8b 2c3e 11ac bb3d
00000150: a4e8 a1be f83c 2bbe 8274 33be 9ed0 1b3e
00000160: 8e70 ecbd f48b 56be 0841 8ebe 84ce 813d
00000170: 4fa0 863c cace 4fbd 851e 86bd a01b cebc
00000180: 7f89 3e3e 83ed ef3d 9c6e 463e 9c2a 9e3d
00000190: 5729 843e 71a9 77be 061f d2bb 006f 243d
000001a0: ce94 373d a422 093c c3e5 863d 33a3 7ebd
000001b0: 5473 433e 2383 e33d 5b14 333a 9887 183c
000001c0: b2e4 4d3b f565 45bd 8909 0ebe d82d d3bd
000001d0: 8828 8f3d 5f0e aebd e33f 9abd c51a 0bbe
000001e0: 2b5c da3d 8882 b03d 414b 36bd c105 703c
000001f0: 7ce8 4a3d e6b4 283e e633 843c 0f7f 7c3d
00000200: f47e a73e a821 1e3e d533 a03e 7aaa 913d
00000210: fa2d 113f c619 513e 4091 9c3e ffad 923c
00000220: 161a 153e e43b 16be 81b8 003e fbc9 8dbe
00000230: a008 db3d c8e4 5dbe de08 febc 5577 4cbe
00000240: 21b6 67be d222 07be 0a23 cfbd 4b44 cabd
00000250: df80 4fbd 7c79 fcbc 8adb a43e 8232 303c
00000260: e5ce a73c 58f7 313d 2cdf 283d 0e8e 22bd
00000270: 162a 31bd 56d5 9fbc 31a0 d6bd 57da 6bbc
00000280: d185 f43d 384a 353e 1393 efbc 6bfa 85bd
00000290: cac7 6ebd b165 993d 2785 31be 1407 33bd
000002a0: f82a 06be e71d 90bd 6f22 5fbe 64f8 0bbe
000002b0: 59ff 0fbd 71f2 6e3d 7259 3bbe fc1f 8cbd
000002c0: 5831 5a3e 1390 0f3e d60b 793c 26d4 56be
000002d0: a072 103e 32ec 0d3e f7ff bebb 511b a7bd
000002e0: 546e ba3d 748c 833d 2893 97be 5dd0 32be
000002f0: 6708 62bd 7973 903c 69be 45be 6191 99bd
00000300: 52c8 043f 7165 c33d 6dd3 523e 0968 943e
00000310: a0c6 b6bd 2780 05bf 10d3 8cbd c2a4 dfbd
00000320: 7bae bb3e b755 13be 2d7a 583d 9467 573d
00000330: e1d7 2b3e 3a6b 99be 1c17 263e 414c 223e
00000340: 5312 bdbd b297 c5bd 6848 993e fb75 893e
00000350: 66d8 68be 5350 513e 4955 00bd d54c c33e
00000360: e48f e5bd 64fd a1bb 67e1 953d fe8d 823d
00000370: d205 563d ae65 4cbc c696 b2bd e105 d83d
00000380: 7685 903b 8f84 ca3e d8e4 b73d b33e 913a
00000390: e8d3 4c3e ffc3 2c3e bdd2 e5bb 4f58 9c3d
000003a0: ff9c 923e c0f7 933d cd3e b53d a20a 5dbe
000003b0: df0c c63d 2955 b93c c5ca f9bd d723 a83d
000003c0: cbc6 863e bf18 e63b 204d 54bc 1f91 83bd
000003d0: 4894 25be f74d 8ebd c9f4 e4bd d982 04be
000003e0: 11e2 2bbb 5546 c0bd 5b30 13bc 2860 54bd
000003f0: 9a3b e7bd 9a10 2dbe ae2f debd dfe5 51bd

net1.netup4.COV1.0.conv_tran_i.bias f4 [8]
-0.07660987 -0.03468467 -0.069355026 -0.13269666 0.006791422 0.024823638 -0.015079587 -0.032318782
00000000: a3e5 9cbd 8311 0ebd 020a 8ebd a2e1 07be
00000010: 948a de3b f15a cb3c 5f10 77bc b360 04bd

net1.netup3.COV1.0.conv_tran_r.weight f4 [8, 4, 4, 4]
-0.17153747 0.00017513089 -0.034363832 0.056063738 -0.065127864 -0.12252186 -0.030114999 -0.053070754
-0.13764401 0.0057964334 0.010511301 0.08473321 0.10756644 -0.075552754 0.13288744 -0.04568182
-0.04743546 -0.009352918 -0.020413011 -0.04146068 -0.011003515 0.05803771 0.06427702 0.012055453
-0.03045112 0.0005604198 -0.0079879705 -0.0045636157 -0.08017792 -0.03125487 -0.047492303 -0.08001728
-0.07730759 -0.037459113 0.16414201 0.032924037 0.0074926787 0.00084001373 0.18978086 0.030128941
0.09276156 0.1062854 0.21610607 0.15867747 -0.09355428 0.06998519 0.09038101 0.081161715
-0.17506233 -0.19407092 -0.26451883 -0.2581327 -0.24967092 -0.1598436 -0.2612958 -0.102438435
-0.08300393 -0.21115421 -0.08847387 -0.27552372 -0.226867 -0.017149864 -0.24885531 -0.14604898
-0.36481708 0.07151339 -0.05691797 -0.036284726 0.117257886 -0.33414784 0.063029125 -0.089608334
-0.34342548 0.10120181 -0.19154985 -0.03907064 -0.031195868 -0.19123133 0.016332144 0.027805861
-0.082434155 -0.05815058 0.0054210806 -0.041415516 -0.020515556 0.047005598 0.101849616 0.03861652
0.028748494 0.029070826 0.08695979 0.11081537 -0.046604186 0.004341276 0.051612917 0.026817499
-0.14297727 -0.020837286 -0.054020174 -0.004296121 -0.3670544 -0.025261166 -0.15004638 -0.013371363
-0.13894999 0.013383251 -0.11150155 0.0008297548 -0.03591723 -0.009520458 0.03489416 -0.0049064355
-0.23474424 0.059451837 -0.24018003 -0.09546113 0.18498427 -0.0057014786 -0.048562035 -0.044114277
-0.11891631 0.13793294 -0.22931533 -0.010968363 -0.011299368 -0.07471317 0.03796033 -0.02231517
0.009088322 -0.21875188 -0.007982468 -0.08411028 -0.2939807 -0.008247809 -0.008344099 -0.09042102
0.050769195 -0.023918368 0.01764014 -0.037131745 -0.04375808 -0.0012804352 -0.022036081 -0.025938071
-0.23901157 -0.19999 -0.22571887 -0.19359186 -0.14431968 -0.19163872 -0.1273173 -0.15309371
-0.15947755 -0.12131022 -0.11921888 -0.09907401 -0.14196524 -0.17171109 -0.11894247 -0.13179424
-0.1512386 0.023268128 -0.09681867 -0.059627816 -0.09471932 0.13813049 -0.0045840987 -0.015928531
-0.08522431 0.12740655 0.03319919 -0.041437943 -0.09829495 -0.043288194 -0.059810877 0.039633714
0.08476474 -0.02614821 0.10793831 -0.10602208 -0.11917634 0.052847106 0.03729746 0.051586278
0.07411737 -0.087864794 -0.04877137 -0.1026829 -0.12359617 0.062188204 -0.14293341 0.037930578
0.044782054 0.065113574 0.06037211 0.07015768 0.18207557 -0.039313313 0.166805 -0.008492545
0.021001875 0.07370422 -0.021464122 -0.046311438 -0.0692828 0.01930584 -0.023941696 -0.01163658
0.041669473 0.028598465 -0.022413874 -0.06352931 0.005676595 0.063601494 -0.029119555 -0.0667264
-0.05202953 -0.04330231 -0.07557955 -0.15607537 -0.124381974 -0.09315831 -0.108246095 -0.18972316
-0.10491904 -0.09722554 -0.08224051 -0.17820883 -0.21394658 -0.21170488 -0.17383838 -0.18851203
-0.20627752 -0.17319807 -0.10905551 -0.17239657 -0.16505589 -0.0994827 0.066467024 -0.16469342
-0.049529303 -0.1484987 -0.029764976 -0.18828483 -0.11527291 -0.27415565 -0.06473446 -0.0037876526
-0.29843125 0.00824749 0.018663663 0.018757233 -0.1421597 -0.36768845 -0.15519185 -0.17608733
00000000: 85a7 2fbe 57a3 3739 17c1 0cbd 17a3 653d
00000010: c261 85bd beec fabd bbb3 f6bc b860 59bd
00000020: 8df2 0cbe 02f0 bd3b 9837 2c3c 9b88 ad3d
00000030: cb4b dc3d 67bb 9abd a513 083e dc1c 3bbd
00000040: af4b 42bd fb3c 19bc 3039 a7bc add2 29bd
00000050: 1648 34bc f3b8 6d3d aca3 833d 3c84 453c
00000060: a174 f9bc 23e9 123a fadf 02bc 628a 95bb
00000070: 5234 a4bd 1b05 00bd 4a87 42bd 1ae0 a3bd
00000080: 7153 9ebd ba6e 19bd d814 283e 5bdb 063d
00000090: 2585 f53b 5e34 5c3a ea55 423e f8d0 f63c
000000a0: c6f9 bd3d 29ac d93d e94a 5d3e 597c 223e
000000b0: 6399 bfbd 6554 8f3d ae19 b93d 1d38 a63d
000000c0: 8a43 33be 87ba 46be 036f 87be f829 84be
000000d0: bca9 7fbe 0aae 23be 90c8 85be 3ecb d1bd
000000e0: f7fd a9bd cf38 58be ca31 b5bd 7211 8dbe
000000f0: d34f 68be df7d 8cbc edd3 7ebe dd8d 15be
00000100: 4ec9 babe 9d75 923d d122 69bd 4b9f 14bd
00000110: e724 f03d 6d15 abbe 6a15 813d 9384 b7bd
00000120: 77d5 afbe e542 cf3d a525 44be 8908 20bd
00000130: 7a8e ffbc 25d2 43be fdca 853c 1ec9 e33c
00000140: 3dd3 a8bd 4d2f 6ebd 52a3 b13b 51a3 29bd
00000150: 3d10 a8bc f188 403d 8896 d03d 5b2c 1e3d
00000160: f681 eb3c f125 ee3c f917 b23d 2bf3 e23d
00000170: 08e4 3ebd 4341 8e3b 1168 533d 5fb0 db3c
00000180: a268 12be f5b2 aabc 4244 5dbd 7ac6 8cbb
00000190: 8eee bbbe 81f0 cebc c2a5 19be 9013 5bbc
000001a0: e848 0ebe 6c45 5b3c ed5a e4bd e783 593a
000001b0: f21d 13bd b2fb 1bbc 2eed 0e3d 2ac6 a0bb
000001c0: cb60 70be c583 733d c1f1 75be 2081 c3bd
000001d0: 846c 3d3e 78d3 babb fce8 46bd 2cb1 34bd
000001e0: 658a f3bd 4b3e 0d3e a3d1 6abe a6b4 33bc
000001f0: fc20 39bc 3803 99bd 4a7c 1b3d 4ece b6bc
00000200: 2fe7 143c 7e00 60be e6c8 02bc 0342 acbd
00000210: a384 96be d121 07bc b0b5 08bc a82e b9bd
00000220: 5cf3 4f3d 74f0 c3bc 0e82 903c 7517 18bd
00000230: ac3b 33bd 47d4 a7ba 0385 b4bc 147c d4bc
00000240: 73bf 74be 2eca 4cbe d922 67be f23c 46be
00000250: 8ac8 13be f13c 44be 775f 02be 99c4 1cbe
00000260: 154e 23be 7e71 f8bd 0729 f4bd 51e7 cabd
00000270: 565f 11be 08d5 2fbe 1c98 f3bd 12f5 06be
00000280: 4bde 1abe cd9c be3c de48 c6bd 4c3c 74bd
00000290: 34fc c1bd 1472 0d3e 3536 96bb 8d7c 82bc
000002a0: 158a aebd dd76 023e e0fb 073d d5ba 29bd
000002b0: dd4e c9bd f64e 31bd 40fc 74bd f656 223d
000002c0: 2399 ad3d c534 d6bc c30e dd3d 1b22 d9bd
000002d0: ba12 f4bd 3576 583d 39c5 183d 224c 533d
000002e0: d9ca 973d 75f2 b3bd 7dc4 47bd 6a4b d2bd
000002f0: fd1f fdbd 0fb9 7e3d 235d 12be 185d 1b3d
00000300: 636d 373d 445a 853d bf48 773d d4ae 8f3d
00000310: 0572 3a3e ff06 21bd eece 2a3e 5124 0bbc
00000320: 200c ac3c 3df2 963d 87d5 afbc 10b1 3dbd
00000330: 24e4 8dbd 4827 9e3c 6021 c4bc 5ba7 3ebc
00000340: 9cad 2a3d 5447 ea3c 4d9d b7bc a81b 82bd
00000350: bb02 ba3b 8041 823d 228c eebc daa7 88bd
00000360: eb1c 55bd c35d 31bd 73c9 9abd 39d2 1fbe
00000370: fabb febd c9c9 bebd 21b0 ddbd ca46 42be
00000380: cbdf d6bd 2f1e c7bd b66d a8bd 607c 36be
00000390: d014 5bbe 2ac9 58be b002 32be 4c09 41be
000003a0: 6a3a 53be d65a 31be 7f58 dfbd ba88 30be
000003b0: 6904 29be 96bd cbbd dd1f 883d 64a5 28be
000003c0: 3ddf 4abd 0b10 18be aed5 f3bc bdcd 40be
000003d0: 3414 ecbd 215e 8cbe 8093 84bd 443a 78bb
000003e0: fbcb 98be 7b20 073c 8ae4 983c c5a8 993c
000003f0: 5092 11be a941 bcbe 9dea 1ebe 3d50 34be

net1.netup3.COV1.0.conv_tran_r.bias f4 [4]
-0.119594656 0.14749235 -0.047298685 -0.22602005
00000000: 0bee f4bd 3c08 173e 44bc 41bd cd71 67be
