CCNN-CGH/1920/4init1920/proposedstate.pth (torch, 189629 bytes, 52 tensors)

net1.netdown1.COV1.0.conv_r.weight f4 [4, 1, 3, 3]
00000000: 582a 003e d9b6 13bd 911a 88be 1f5b f53c
00000010: fd26 60be c6a3 05bf 4f35 123e b9aa 4d3e
00000020: 6a44 b2bc dfbb 2f3d bcb5 2a3e d905 c8bd
00000030: ff5f bb3c cb5a 8e3d da1a c53d f1e0 bbbe
00000040: 0500 4bbe 8609 1f3e fb02 94bd e4c2 babe
00000050: 36e4 01be 541f 2c3e b240 863e 43a8 213e
00000060: 945d 56be ba2a 153e 465d e8bd 61d0 733e
00000070: 5763 02be 44b2 8bbe 6489 aa3e c884 2bbe
00000080: 7439 eb3e 4268 423e ccfc b23e ce60 dfbd
0.12516153 -0.03606305 -0.2658277 0.029950676 -0.21889873 -0.52203023 0.14278148 0.20084657
-0.021761138 0.042903777 0.16670889 -0.0976674 0.022872923 0.06950911 0.09624262 -0.36695054
-0.19824226 0.15530977 -0.07227131 -0.36476815 -0.12684712 0.16808826 0.26221234 0.15786843
-0.20934135 0.1456708 -0.113459155 0.23809959 -0.12733208 -0.27284443 0.33307946 -0.16749871
0.4594227 0.18985084 0.34958494 -0.10907136

net1.netdown1.COV1.0.conv_r.bias f4 [4]
00000000: 7230 a83e 69fe 903e bd37 cd3c 0dcf ce3b
0.3284946 0.283191 0.025050992 0.0063113035

net1.netdown1.COV1.0.conv_i.weight f4 [4, 1, 3, 3]
00000000: 75b4 903e c2f5 023e 7849 d03e bb66 04be
00000010: 0609 a6be 8cf6 aabb ecad 923e 5e30 3fbe
00000020: da14 50be 76af 283e 1305 be3d b972 37be
00000030: 6ca8 95be 4ad5 e9be 1e73 473e f221 6e3e
00000040: 2236 ea3d fe04 a13d 8f17 1cbe 90c2 523e
00000050: 913f b43c b59a 0b3f c3ca 1c3d ca5e 7f3e
00000060: 79a2 513d 86b2 5c3d 2fea 04be fbe2 283e
00000070: f8c7 473e 8aa7 253d 13a5 8e3e 469a d3bd
00000080: c700 3e3d 114b 8d3e ac0a d5bd 04e9 adbd
0.28262678 0.12789062 0.40681052 -0.12929814 -0.3242876 -0.005217379 0.28648317 -0.18670794
-0.20320454 0.16473183 0.092783116 -0.17914857 -0.29230058 -0.4567054 0.19477507 0.23255137
0.11436106 0.0786228 -0.15243362 0.20582032 0.022002967 0.5453294 0.038279306 0.24938503
0.051180337 0.05388119 -0.12979959 0.16492836 0.19509876 0.04044298 0.27860317 -0.1033216
0.04638746 0.27596334 -0.10402426 -0.0849171

net1.netdown1.COV1.0.conv_i.bias f4 [4]
00000000: 1e07 6dbe 9809 b1bd 0530 11be 7572 053d
-0.23147246 -0.08644408 -0.14178474 0.032579858

net1.netdown2.COV1.0.conv_r.weight f4 [8, 4, 3, 3]
00000000: 32fb 5e3d dbdb 01be f56f 383d bf02 6b3d
00000010: 7cf0 61be f469 60be 7dbe 43be e78a 31be
00000020: 7efd 62be a098 bf3d 3cb9 5fbd a3c5 4abe
00000030: bdf8 813d f62e 86be 5a73 d9be da9e 1abe
00000040: e4cd 85be c5c2 1bbe 5541 933c 5dcc 1dbc
00000050: 7090 0a3e f36e 533d d480 543e 89cb 453c
00000060: ebc2 283e 94ba 3f3d 2309 81bc 5e4f 5c3d
00000070: 0e19 e4bd 34ba a8bd 2275 e8bd dbc8 363d
00000080: c66c 0fbe cb6c c03d 738d c23c 8e00 213e
00000090: ec19 3f3e 51c3 0b3e f7de 6bbd c1cd d13d
000000a0: 468a 613d f5b8 4fbd 5e5c 5a3e 0a39 98bd
000000b0: 0511 16bf f5fc 453d 6ec7 d9bc 8b92 17be
000000c0: 3e63 9cbd 7197 463d fc19 183d aa28 513d
000000d0: ca99 acbc ef20 273e f7f6 0d3e bdd6 b5be
000000e0: 3696 e5bd 245a 98be 958b 77be 5c8f 5fbd
000000f0: 464f dc3c b2fc 51be f680 0bbe 9529 13bd
00000100: 873f 7dbd a956 e73d ed20 0dbe 31c8 5ebe
00000110: 90ae 0b3e 39e7 083d 77d7 463d 8575 683e
00000120: b5b4 9e3c ca4c 69bd 574d 5bbd 507f b33d
00000130: cdac 293e 8994 8b3e 6729 2e3e 97d1 323e
00000140: a7cb ee3d cb59 9dbe 8219 abbe c7c8 673d
00000150: 40f2 93be cba7 36be 5b36 0f3d 83ba 29be
00000160: 6c8a 963c d97a 1dbe e421 3cbc 815a 51be
00000170: 5f89 88bd 5944 a6bd d93f 923d ae3f 86be
00000180: f87a d33c 48f2 87bd 0446 343d 52d8 1cbd
00000190: 6873 4cbe bfb5 9dbd d6e6 16be 9f57 f53d
000001a0: dcf2 0f3e 39ce 3b3e 2bf0 34bd a3df 9a3d
000001b0: 9aff 1b3d 55c3 653d d16b d8bd ac77 5e3d
000001c0: 663a d03d 8874 ccbd 6e34 d2bc 7362 7a3c
000001d0: ef16 8b3c f3e9 11bd 6d6e 81be fe8a 1dbe
000001e0: ac8f 053d 3969 eabd ad66 883d 777a b3bd
000001f0: 339b 4dbe e607 c23d 2d09 023e 4729 193e
00000200: 2b97 aa3d 704d ea3d 5eeb b9bd 4306 d23d
00000210: 8fc2 063e b552 2e3e 44ff 3c3e dedb 1fbe
00000220: 6dd1 9abc 7460 24be 08da 40bd 6376 03be
00000230: 8c82 103e 701b 2c3d ee86 463e 0013 533e
00000240: ccfe 2dbe 221c 0dbe 0851 88be c920 f4ba
00000250: f948 b13e 27e0 663e 5da8 0e3d aba0 05bd
00000260: b025 f1bd db21 74bd b74e 31bd a5fb aabd
00000270: cbac 9ebd 14c4 2a3d a2db f8bd 3160 25bc
00000280: 5068 e6bd 2ee9 393c a3ac 80bd 02fc 953d
00000290: a9a9 1e3e 9b2d 063e a73a e93d b106 c63d
000002a0: 0177 aabe 2c3e 24bf 1a23 82be 1462 453d
000002b0: 0985 8abd 4118 813d ef9c ebbd f44e 833c
000002c0: f6aa 54bd def2 a83c 4a20 9ebd 8edb f83d
000002d0: ebce 3c3e 180d 4a3e 67dc 1c3e b65b d63d
000002e0: 15a8 9d3e 0877 b33e 9803 383e 271b 323e
000002f0: 33bd c53d be2c 37bb 54bd 12be 3026 053e
00000300: 7fd4 d3bd fe52 823d d426 1fbe 689b fabd
00000310: 9ad8 f23d e2b3 1a3c 008d e43c fbc2 3c3e
00000320: 3472 d4bd a3c3 13be 00cf adbd 73e1 c5bd
00000330: 4ebf a03e 2ae0 d5bb ae11 e8bd 372f 9dbd
00000340: 4678 17be 069a fbbd eb53 76bc d67d f5bc
00000350: fa31 69bd 00dd d53d 6f76 fbbd a141 bdbd
00000360: a41e 0dbd d7cb 3abe a6f8 cbbd 5717 633d
00000370: 4c1d 82bd ab5c dbbd 0ecd af3d 112a 63bd
00000380: 4891 0fbd eae7 cb3d 5382 0b3c 1bf9 1b3e
00000390: c940 ef3c 75d0 9ebc 801a 2c3e fb65 b5bd
000003a0: 5096 a0bc 767a c7bd 08b4 e4be 37f9 bbbe
000003b0: ef7c 0bbf 54d8 e3be f57f 71be d9b6 61be
000003c0: 61dc 03bf 6e88 a4be 7ae8 efbe 761c ecbe
000003d0: e2d9 cebe 1f6a 9fbd df08 96be d79f 47be
000003e0: 9491 cc3c 4b76 04be 9c95 17be 57a8 f1bd
000003f0: 0057 47be 5ded 253d 2cfb 263e 17a1 49bd
0.054438777 -0.12681524 0.045028646 0.057375666 -0.22064394 -0.21915418 -0.19115634 -0.17338143
-0.22167012 0.09355283 -0.054620013 -0.19801955 0.06346271 -0.26207703 -0.4247082 -0.1509966
-0.26133645 -0.15211017 0.017975489 -0.009631244 0.13531661 0.05161948 0.20752269 0.012072452
0.16480605 0.046808794 -0.015751427 0.053786628 -0.11137591 -0.082386404 -0.11350466 0.044625144
-0.14006338 0.093957506 0.023749089 0.15722868 0.18662232 0.13648726 -0.057585683 0.102443226
0.05506351 -0.0507135 0.21324298 -0.07432754 -0.5861972 0.04833694 -0.026584353 -0.14801995
-0.076361164 0.04848427 0.037134156 0.05106417 -0.021069426 0.16321157 0.13863741 -0.35515395
-0.11210291 -0.29756272 -0.2417434 -0.054580078 0.02689327 -0.20506552 -0.13623413 -0.035928328
-0.061828163 0.11295826 -0.13782091 -0.21756054 0.13640809 0.033423636 0.048545327 0.2270108
0.019373277 -0.056957997 -0.053540554 0.08764517 0.16569825 0.2726176 0.17007981 0.17462765
0.11659937 -0.3073257 -0.33417898 0.05658796 -0.2889576 -0.17837445 0.034963947 -0.16575055
0.018376552 -0.15378894 -0.0114826895 -0.20444681 -0.066668265 -0.08118505 0.07141084 -0.2622046
0.025815472 -0.06638008 0.044012085 -0.038292237 -0.19965899 -0.07700681 -0.14736494 0.11979603
0.14057487 0.18340386 -0.044174355 0.075621866 0.038085558 0.056094486 -0.10567439 0.054313347
0.101673886 -0.09983164 -0.025659766 0.015282261 0.016978709 -0.035623502 -0.2527956 -0.15385053
0.03260772 -0.11445851 0.06660209 -0.08763593 -0.20078735 0.09474163 0.12698813 0.14957152
0.08329614 0.11440551 -0.09078096 0.102551006 0.13160156 0.17023738 0.18456751 -0.15611216
-0.01889869 -0.16052419 -0.04708293 -0.1283813 0.141123 0.042018354 0.19387409 0.20612717
-0.16991729 -0.13780263 -0.26624322 -0.0018625493 0.34625986 0.22546445 0.034828532 -0.032623928
-0.117747664 -0.0596026 -0.04328796 -0.08348779 -0.077478014 0.0416909 -0.12151267 -0.010093735
-0.11250365 0.011347098 -0.06282928 0.07323457 0.15494408 0.13103335 0.1138814 0.09669245
-0.33293918 -0.64157367 -0.25417405 0.048189238 -0.06763656 0.06303454 -0.11504542 0.016028859
-0.051920854 0.02062362 -0.077210024 0.12151252 0.18438308 0.19731557 0.15318452 0.10466711
0.307923 0.3505175 0.17970121 0.1739317 0.096552275 -0.0027950252 -0.14330035 0.13002849
-0.10343265 0.06363486 -0.15542156 -0.12236673 0.1185772 0.0094423015 0.027899265 0.18433754
-0.10373345 -0.14430098 -0.08486748 -0.09662142 0.31395954 -0.0065269666 -0.11331497 -0.07675021
-0.14791974 -0.12285237 -0.015034656 -0.02996723 -0.056932427 0.10442543 -0.12278449 -0.09241033
-0.03445305 -0.18241821 -0.09959535 0.05544218 -0.06353244 -0.107110344 0.08584033 -0.05546004
-0.03505066 0.099563435 0.008514958 0.15231745 0.029205697 -0.01938651 0.16806984 -0.08857342
-0.019602925 -0.097401544 -0.44668603 -0.36713573 -0.5448751 -0.44500983 -0.23583968 -0.22042407
-0.51508147 -0.32135338 -0.46857053 -0.46115464 -0.40400606 -0.07783913 -0.29303643 -0.19494568
0.02497176 -0.1293575 -0.14803165 -0.117996864 -0.19466782 0.04050957 0.16306752 -0.049225893

net1.netdown2.COV1.0.conv_r.bias f4 [8]
00000000: 01fa c73c c37c c4bd 5136 07bd 210e bfbe
00000010: 14f0 dcbd 16ba a4bd 6471 07be 46c1 153c
0.024411203 -0.09594109 -0.033010785 -0.37315467 -0.10787979 -0.080433056 -0.13226849 0.009140318

net1.netdown2.COV1.0.conv_i.weight f4 [8, 4, 3, 3]
00000000: ce4f 313d 6a0d 33bd 9240 49be d57f 47be
00000010: a519 bfbd 4c3b 49bc 53e2 da3d 6801 4a3e
00000020: 2c62 e23d 8583 9fbb 970f 27bd d934 c5bc
00000030: e7b5 55bd d364 733c 9df5 f2bd bc8b d9bd
00000040: cb16 e6bc 9e52 8c3d 856b 1fbe a5d0 a03c
00000050: 7b26 693d a9ce f2bd 06fc fd3e 6c62 ca3e
00000060: 5279 053f 954f d23e 5309 013f 8b39 6b3d
00000070: 2614 fb3b 8d34 373e b223 e83d 511d 093e
00000080: 6bd3 743e b475 293e 0b5a 0b3e f7db 883e
00000090: 7d0a 77bd ac81 4a3d 0574 553d 550c 89be
000000a0: ac16 b4bc 0ec4 403d 2422 193e e9d4 7ebe
000000b0: e9bd 143b 4212 01be 078f 9bbe 2093 41bd
000000c0: 8012 91be d8f6 b6be d550 d53d dbfe c0bd
000000d0: 53a4 94be 7f0c 4ebd 734a 8fbd 572d efbc
000000e0: 257c 08bb f51c a73d 58cf 73bd 92cd 41bd
000000f0: 9f2d 87bd 0690 64bd a6bc 553d 6611 f23c
00000100: d7d6 453d 7409 bd3d 9e49 d33b 8de1 b13c
00000110: b3c8 513d 09e0 96bb c351 7fbd fccb 34be
00000120: 3d30 013e 054a 673e 08d8 8a3e 5128 573d
00000130: a655 2e3e 7284 b53d 98a6 c4bc 6f90 a23d
00000140: fe70 163d 061e 3abd ac42 7b3d 0028 923d
00000150: 7560 763d 78dc 72ba a5de 4e3d fa5f 95bd
00000160: 9b80 2abe 7e16 c13d c986 b8be f845 54bd
00000170: 2f4e debe a112 573e e319 71be aa19 34be
00000180: 9217 5c3d 14bc a2bd 011b cabd f90e 013e
00000190: ea68 523e 8c3a 523e 3978 053b e0d1 3b3c
000001a0: 541c cfbc 4320 623e f686 96bd 2ba4 233e
000001b0: e124 d1be 6b72 b9be 2ac6 f2be 108a a9be
000001c0: d6ba 17bf d4af e3be 3b8d bebe 76c9 6fbd
000001d0: 3865 ffbd 993a 0fbe 7309 b6bd e749 15be
000001e0: e76a 2e3d 26eb 02bc 2079 303e 4701 85bd
000001f0: 36e5 313e 042b 3dbd 82cb eebd 182a 263d
00000200: d23f 373e 5f29 463e a2f4 843e 83ad b6bd
00000210: ccf2 d7bc 1fb6 2ebe 6a91 19be 223c 453d
00000220: 8b8e b43d 5b05 c23d 490a 3e3d f7b0 163e
00000230: 69cf d53c 058c 483c e12a 7b3e 5dcb cf3d
00000240: 5d4d 73be fb96 a2bd a051 803d e8b6 b73d
00000250: 2aa1 3b3c 6cac 0c3e e38f 61be 1472 84be
00000260: 5679 67bd 943b b2be 7b59 0ebd f06f adbd
00000270: 541b 15bc f328 97be 3e35 ecbe d2b6 25bf
00000280: 8657 10bf 287a 93be eb29 a5bd 1cd5 e53c
00000290: febe 09be 94a2 d8bd e09f 9cbc 0042 93bd
000002a0: a82f c63d 8b1d 3d3e 8eba c2bd dbfc 053d
000002b0: 0217 aa3c 30ac e1bd e05b efbd ba63 513e
000002c0: df2d 283e 10ee 993d 8e5a dabd 5c16 613b
000002d0: b265 ea3d 0f7c 483c 9f17 e43d 4570 b9bc
000002e0: 33a4 91bc 1eda e2bd 060c 6b3e 6965 e63d
000002f0: 3380 ecbd 113a 22be 4115 fcbd 81bd 42be
00000300: d902 93be 78b0 91be 3191 b8be 7fff ae3d
00000310: aeee c2bd 7127 cb3c 36a6 2ebd b667 9e39
00000320: 6ba3 173d a98d febb 00d6 a3bd b7de 4b3e
00000330: 4b4e ebbb 76bb 6fbc 8a4d f93d 09d3 cabd
00000340: 3ed9 37bc d8b6 87bd a35b c1bd 7994 dd3d
00000350: bba8 ffbd 9e28 97bc 0814 2ebe d8b6 0a3d
00000360: b468 733c f6de 473e a75c c33d bc92 3c3e
00000370: fd7c d73d 9b1a c63d ebd1 623e 0453 b73c
00000380: 53a4 833e 1937 b03c ee0c a9bd d546 04be
00000390: 0f71 0abe 53d0 963d 6a1d 04be 6a56 7d3d
000003a0: d37c 2e3c b179 13be a7ef 623d e83c 353e
000003b0: e1fa a6bc 280e 0f3e 73d4 96bd 75b4 9e3d
000003c0: eda1 e93d bad0 55bd 213f b53d c814 98be
000003d0: ea36 45be 0a20 ecbe 77b2 8abe 97b2 a9be
000003e0: 80d2 dabe 0508 a6be 52fc bbbe 0737 d7be
000003f0: cf95 56bd 71ef aa3d 4f31 8cbd c183 973c
0.043289 -0.043713965 -0.19653538 -0.19482358 -0.09331063 -0.012282204 0.10687699 0.19727099
0.11053881 -0.0048679733 -0.040786352 -0.024073051 -0.05217543 0.014855581 -0.11863253 -0.10622355
-0.02808704 0.068516955 -0.15568359 0.01963074 0.056921463 -0.118558235 0.4960634 0.39528215
0.52138245 0.4107634 0.5040485 0.057427924 0.007662314 0.1789114 0.11334933 0.1339009
0.23908775 0.16548806 0.13608567 0.2673032 -0.060312737 0.04944007 0.052112598 -0.2676722
-0.021983467 0.047061972 0.1495443 -0.24885906 0.0022696203 -0.12604621 -0.3038256 -0.04725945
-0.28334427 -0.35735202 0.10415808 -0.0942361 -0.2903162 -0.050304886 -0.06996622 -0.029196424
-0.002082595 0.0815982 -0.05952391 -0.047315188 -0.066004984 -0.055801414 0.052181862 0.029549312
0.04830059 0.09230319 0.006447985 0.021713996 0.051216792 -0.004604344 -0.062333833 -0.17655939
0.12616058 0.2258683 0.27117944 0.052528683 0.1702486 0.088631526 -0.02400522 0.07937705
0.03672885 -0.04543879 0.06134288 0.07136536 0.060150582 -0.000926442 0.0505053 -0.07293697
-0.16650622 0.09428118 -0.36040333 -0.05182454 -0.43419024 0.210032 -0.23545031 -0.17587915
0.053733416 -0.07946029 -0.09868432 0.12603368 0.20547834 0.20530146 0.0020365848 0.011463612
-0.025282063 0.2208262 -0.073499605 0.15980594 -0.4084845 -0.36220106 -0.47416812 -0.33113146
-0.59269464 -0.44470084 -0.37217125 -0.058541737 -0.12470478 -0.13987197 -0.08888521 -0.14578973
0.04258242 -0.007990634 0.17233706 -0.06494384 0.17372593 -0.0461836 -0.1165991 0.040567487
0.1789544 0.1935172 0.2596789 -0.089198135 -0.026360892 -0.17061661 -0.14996877 0.04815305
0.088162504 0.09473678 0.046396527 0.14715944 0.026099877 0.0122404145 0.24528076 0.1014621
-0.2375998 -0.079389535 0.06265569 0.089704335 0.011451999 0.13737649 -0.22027545 -0.25868285
-0.0565122 -0.3481108 -0.034753304 -0.08468616 -0.009100754 -0.2952343 -0.4613437 -0.64732087
-0.5638355 -0.28804135 -0.08064636 0.02805572 -0.13451764 -0.10577884 -0.019119203 -0.07190323
0.096770585 0.18468301 -0.09508239 0.032711845 0.020762924 -0.1101917 -0.11687446 0.20448199
0.16423748 0.0751611 -0.10661803 0.0034345603 0.11445178 0.012236609 0.11137318 -0.022636542
-0.017778492 -0.11076759 0.22953805 0.11249811 -0.115478896 -0.15842463 -0.12308741 -0.19017603
-0.2871311 -0.28454947 -0.36048272 0.08544826 -0.09518181 0.02479908 -0.04263898 0.0003021338
0.037021082 -0.007768352 -0.07999802 0.19909178 -0.007180964 -0.0146320965 0.121729925 -0.09903533
-0.011221228 -0.066266716 -0.094413064 0.108193345 -0.12483355 -0.018451985 -0.16999829 0.03386578
0.014856506 0.19518647 0.095391564 0.1841535 0.105218865 0.09673043 0.2215039 0.022378452
0.25711307 0.021510648 -0.08254419 -0.12917645 -0.13519691 0.073639534 -0.12901846 0.06184999
0.010649878 -0.1440189 0.05540433 0.17699015 -0.0203833 0.13970244 -0.0736474 0.07749263
0.11407838 -0.05220101 0.088499315 -0.29703355 -0.1925923 -0.46118194 -0.27089283 -0.33144066
-0.42738724 -0.32427993 -0.36715943 -0.4203417 -0.052388962 0.08346451 -0.06845342 0.018495442

net1.netdown2.COV1.0.conv_i.bias f4 [8]
00000000: d88b 8d3d 6bd9 2f3d 0d1b 53be 0da5 84be
00000010: b0bf 943d 59a9 b93c 2eb5 4b3e 7c5d fbbd
0.06911439 0.042931955 -0.20615788 -0.25907174 0.07263124 0.022663759 0.19893333 -0.1227369

net1.netdown3.COV1.0.conv_r.weight f4 [16, 8, 3, 3]
00000000: 9e3f c83d bb87 5abd ab04 fc3d a0a1 3cbd
00000010: c576 1abe 9175 9bbd 2859 fcbc 21ae a7bd
00000020: 5922 9e3c 8778 cabd 3a61 5c3d bf5f 1cbe
00000030: e6de f1bc 1b6c 7ebe ef6c 74be 680e 02bc
00000040: aba9 e9bd 5e6f a13c 5f0d c23d efe5 24bc
00000050: 1080 c4bc 4cc5 d6bd cf65 df3c 78b9 39bb
00000060: 2c0d 963d 680e 69bc cf2e cbbc 548e 26be
00000070: 316c a1be bf12 b9be 5624 de3c e3c3 38be
00000080: d977 4dbe a902 a63c d679 d3bd d6ac d8bc
00000090: 5b68 f83c d4f8 313d 2b5d 75bc 34e4 0a3d
000000a0: da68 c53d 6c06 4bbd cfb7 dd3d c938 003c
000000b0: 648b 183c d1c2 d6bd af06 96be 451f 3dbe
000000c0: 2a6b bfbd 6569 003e 6748 a23d a710 ab3d
000000d0: 044f 313d 0a4a 5a3e 488a 063e c7d5 8fbc
000000e0: c8e9 22bd ff19 a73d 0212 3a3d 7abc 04bc
000000f0: 9459 e33d 9a78 f6bd 1376 aebc d305 df3d
00000100: 0d58 7e3d 01a1 8d3d 9c5a 053e 129f 49bb
00000110: deb7 37bd f15f c83d b6c4 d0bd 9231 d7bd
00000120: 9e5e 02bd 4198 483d 1c38 53bd 990b bc3d
00000130: 9bf5 bc3d b347 56bc cec2 dc3d f952 af3d
00000140: d355 8a3d 4625 abbd 531c 20be 12e5 7cbd
00000150: f746 383d b107 d9bd 6f8f c53d d6a5 24bd
00000160: 01c4 3c3b 3cd3 1a3e bf28 d23d e2f7 803d
00000170: 18c8 c73c 1e86 53bc c0fc f93c 662b 82bd
00000180: 4ba3 733d 2018 153b e489 17be 21ff 47bd
00000190: 03d9 c5bc 5803 14bd 7c8e eb3d dfd9 b0bd
000001a0: 395a 18be f6c6 f73d 096b 02bd 04c7 87bd
000001b0: 3d88 033d 95fb 66bd dc3e adbc e193 a53d
000001c0: 815b e8bc 5ca4 99bd c18a bfbb 4d82 313d
000001d0: c5a2 cf3d f59d da3d 8b25 983c fe1f 4e3d
000001e0: 7a67 18bd 9360 133e 7fcc b03d 752f 4d3e
000001f0: 7d91 ab3d 0b43 653c c70b cabd d1be ec3d
00000200: 4952 103e 3dd0 95bd 7f1f a1bd d05e e03d
00000210: 83cd 92be 236c d3bd 13ca 813e 058b 2fbc
00000220: 6e27 c3bc d670 79bd 02d2 ddbd ab97 e53c
00000230: d5db 803d 3707 853d 71a8 a0bd d76a 063d
00000240: 0f3c b13d e7d1 98bb d123 96bd d293 453e
00000250: 80ac 74bd 65fc b3be 89f5 d93d e6b3 183e
00000260: e077 c13a e1b5 aebd e301 1ebd c51a fe3d
00000270: 0526 babd ed15 533c d866 88bd 7e25 78bd
00000280: 44bc 3a3e 2b6f 5abd 8683 723e 0c0f edbc
00000290: a3ce 55bd ab0c b23b 9720 a63c 601f d4bd
000002a0: 3eb0 263e 7a16 80bd 9944 0bbd 73f3 b9bd
000002b0: f377 9f3a 229f 8abd c875 d5bc 6bb9 f63d
000002c0: 11e6 c0bd fb5b 803e a1ef 2e3d 26e0 3fbd
000002d0: 0c2b 92bd f08a f3bd 6cab a4bd 756e 903c
000002e0: f6b2 09be 24e7 54be fce9 0a3e 0188 bc3d
000002f0: 147b ba3d 8757 103e bff8 913e 76fc 7e3e
00000300: 07f5 5abd f5e0 58bd 06d1 2b3d a1ad 62bd
00000310: d38a 90be f5e0 4cbe a094 ab3d 6487 863e
00000320: 7762 ce3e 0629 11bd a98b 843e 2df1 843e
00000330: afa8 46be 09b7 3b3e a013 613c 2256 b3bd
00000340: 3d5d 0f3e 23ec 213d 6189 9d3d ccd6 7f3d
00000350: a07c 483d e53e 44bd 35c5 0d3e 719d 083e
00000360: dcde c73c 0191 803d 0208 8b3d 7c04 a83d
00000370: 25cb ebbd 4546 d4bd 04c9 0a3e 3d08 9dbc
00000380: f8aa 333d 6afc f43d 0b16 9b3d 41fe 053e
00000390: b4aa 903d d4a9 85bb 90ee 91be 9926 34be
000003a0: 97b6 04bf 93e6 1fbf 5812 54bc 80fd 3f3d
000003b0: 6fa8 d3bc 87f7 5a3d 3007 67bd 3d08 03be
000003c0: 6b31 0d3e 7fcf 033c 3a25 57be 5ac6 86bd
000003d0: b2af dabd d045 26bd fecc 8a3d 6ddc c53b
000003e0: 950c 2abd 9a51 f43d e61f 12be d759 a3bc
000003f0: 0471 763d 0eb9 2ebc 3b5a a3bd 2509 7a3d
0.09777759 -0.0533521 0.12305578 -0.046052575 -0.1508437 -0.075907834 -0.030804232 -0.08187509
0.019303488 -0.0988627 0.05380366 -0.15270899 -0.029525232 -0.24845926 -0.2386968 -0.007938005
-0.11409315 0.019706424 0.094752066 -0.010064586 -0.023986846 -0.1048685 0.027270226 -0.0028339308
0.07326731 -0.014224626 -0.024802594 -0.16265231 -0.31527856 -0.36147115 0.027116936 -0.18043475
-0.2006525 0.02026494 -0.10325973 -0.026449602 0.030323198 0.04345019 -0.014975826 0.033909038
0.096391395 -0.04956667 0.10826074 0.007826039 0.009310577 -0.10486377 -0.29301974 -0.1846896
-0.09346612 0.12540205 0.07923966 0.083527856 0.043288246 0.21317306 0.13138688 -0.017557992
-0.039773732 0.08159255 0.04542733 -0.008101577 0.1110107 -0.12034722 -0.021296537 0.10889783
0.06209569 0.06915475 0.13022846 -0.003076498 -0.044853084 0.09783924 -0.1019377 -0.10507502
-0.031828515 0.048973326 -0.051567182 0.091818996 0.09226533 -0.013078618 0.107793435 0.08560748
0.06754651 -0.08356719 -0.15635805 -0.061741896 0.044989552 -0.1059717 0.096464984 -0.040197216
0.002880335 0.15119642 0.10261678 0.0629728 0.024387404 -0.012910394 0.030516028 -0.06355934
0.0594819 0.0022749975 -0.14798695 -0.048827294 -0.02415133 -0.036136 0.11501786 -0.086353056
-0.14878167 0.12098496 -0.031840358 -0.06629756 0.03211235 -0.05639227 -0.021148138 0.08084846
-0.028363945 -0.07502052 -0.005845398 0.043337155 0.10138468 0.10674659 0.01857259 0.05032348
-0.037208058 0.14392309 0.086327545 0.20037635 0.08377359 0.013993035 -0.098655276 0.11559833
0.1409389 -0.07315109 -0.078673355 0.10955584 -0.28672418 -0.1032336 0.25349483 -0.010714297
-0.023822512 -0.060898624 -0.108310714 0.028026422 0.0629193 0.06495517 -0.07844628 0.032816734
0.086540334 -0.004663694 -0.0733105 0.1929467 -0.05973482 -0.351535 0.10642535 0.14912376
0.0014760457 -0.085307844 -0.038576018 0.1240745 -0.09089283 0.0128836455 -0.06660241 -0.06058263
0.1823588 -0.053328674 0.23682985 -0.028937839 -0.052199017 0.005433639 0.020279212 -0.10357547
0.16278169 -0.06254287 -0.034000967 -0.090796374 0.0012166485 -0.067686334 -0.026057139 0.120470844
-0.09418882 0.25070176 0.042708997 -0.046844624 -0.07137117 -0.118917346 -0.08040509 0.017630795
-0.13447174 -0.20791298 0.1356582 0.09205628 0.091055065 0.14095889 0.2851009 0.24900994
-0.053456333 -0.05294891 0.041947387 -0.055341367 -0.28230914 -0.2000769 0.08377957 0.2627517
0.40309498 -0.035439514 0.25887802 0.25965253 -0.19400285 0.18331541 0.013737589 -0.08756663
0.14000411 0.03953184 0.076922186 0.062460706 0.048946977 -0.047911543 0.1384476 0.13341309
0.02439826 0.06277657 0.06788637 0.0820398 -0.11513356 -0.10364965 0.13553244 -0.019168967
0.04386422 0.11962207 0.07572564 0.13085271 0.07063809 -0.004079083 -0.2850232 -0.17592849
-0.5184111 -0.62461203 -0.012943827 0.046872616 -0.025837151 0.053458717 -0.05640334 -0.12796111
0.13788383 0.008045076 -0.21010295 -0.06580801 -0.106780425 -0.040593922 0.067773804 0.0060382397
-0.041515905 0.11929627 -0.14269981 -0.0199403 0.060166374 -0.010664238 -0.079761945 0.061043877

net1.netdown3.COV1.0.conv_r.bias f4 [16]
00000000: 2587 093e 4b61 a6be 2675 60be b1f9 06be
00000010: 1a88 073d 9c23 1cbe e3b5 96be ee03 d0bd
00000020: 9994 a8bd 7c58 8a3e e2ea 43be b954 693d
00000030: bbf8 353d e6d0 51be c0ea 293d 0b90 0bbe
0.1343046 -0.32496104 -0.21919689 -0.13181187 0.03308878 -0.15247959 -0.29435644 -0.101569995
-0.08231468 0.27020633 -0.1913257 0.056965563 0.04442666 -0.20489845 0.04148364 -0.13629167

net1.netdown3.COV1.0.conv_i.weight f4 [16, 8, 3, 3]
00000000: 200a 693d b570 d6bb ca8c 433e 6cf6 c3bd
00000010: 89a4 283d 35c5 6b3e b286 56be bec5 60bd
00000020: 9648 21be 3162 ad3d 215a 46bd 92f5 e2bc
00000030: f62d 003e e894 9dbd 8715 03bd 537a 9fbd
00000040: 9012 2abe 3796 1abe 5c03 febd a98c ca3d
00000050: 9ae4 3a3d 1742 503d 0275 473e d0c3 063e
00000060: 8224 52be 4e4e 0b3c 546d ac3d ed74 f7bd
00000070: 4d24 16be d80d 49be 2548 893d ffa5 433d
00000080: f325 ac3d dbca 96bd 935d ee3d aefe 7ebc
00000090: ae5d 103d 2c3a 97bc d9b2 823b cb52 173d
000000a0: 7e4a a8bc c9f1 c8ba 7d55 b8bd f9df d3bd
000000b0: 5402 debd 6872 ee3d 69d1 4a3e 9518 483e
000000c0: 3c6a f63c a21a 043e cb30 3a3e 6d5f ca3d
000000d0: 440b 103e 9ab3 613e 6581 3a3e 3973 603d
000000e0: eedd 35bc 8442 8abd 8465 48be 6067 28be
000000f0: 67b8 98bc 48d9 73bd b2e6 1bbe fc57 e1bd
00000100: d0f9 1c3e 50d8 d83d c2bb 70bb dfaf 543d
00000110: c4db 153d 4686 4bbd e7bc 303e d49e c03d
00000120: 066e 1f3e 891c 093e 827a 963e 2b7e 79bd
00000130: 8e8a d9bb 90a1 32bd 8381 2abe a2d1 edbd
00000140: c486 f23c b123 80bc e6b3 b23c 5eb1 d5bd
00000150: 27b7 c13c d823 b33d 788c 20bd a697 4bbc
00000160: 57f0 503d 9a56 283d 116c 733c 5b71 c53d
00000170: dc10 0ebd a6a5 a5bd e204 8e3c 284e 773d
00000180: 8615 0ebe f387 923d 1845 603d d42b edbd
00000190: 3747 47be 3c81 cdbd 4f35 4ebe eec1 61bd
000001a0: cd33 f9bd cd91 1fbe 0259 24be 0614 7dbe
000001b0: 72c8 6abd 3768 83bd 8b2d 40bb 23a4 7b3d
000001c0: 0104 293d 6fee 883d 77ba ef3d 8e52 8f3c
000001d0: ff49 81bd 06b1 0abe aac2 a33c 4ef3 183e
000001e0: 72c0 5fbe b8b6 8b3d 29e2 533e 2f89 d1bd
000001f0: 765a aebb 1e79 743e 0a03 90bc 7edd 933d
00000200: 956a 1c3e 28e3 f23e 418d 303f 4ba5 7e3e
00000210: 06a4 b03e af18 053f 216f 7b3e d150 9fbd
00000220: 39ea 3d3d 7d51 7abd 50dc 99bd 3c6d 44ba
00000230: cb70 a8bd 43f7 733d 697f 33bd 793e a9bd
00000240: ce52 f73d eccd 0f3e 40cf e4bd 0487 a53d
00000250: fe3f 483e d869 123d ebcc 87bd a50d 73be
00000260: 4944 99be 7e51 cdbc 7942 9e3d b586 47be
00000270: a242 efbc c736 913c abad dfbd 53f1 1f3e
00000280: 706c cf3d 3b0d 21be a8e2 a93d fd9c d23d
00000290: d0de a03d 3468 adbd 77ad 073c f45d abbd
000002a0: 64ed c83d fd07 aa3d e20a 9c3d d4e8 00be
000002b0: 0a11 9bbc e2c8 893d 7d2a adbc 5ae6 b73d
000002c0: 2fc1 453d b376 d63d a891 b8bd e417 a4bd
000002d0: 7492 8bbc 5c8a 4dbc 66c0 993c 235a 333d
000002e0: 8b60 b23d 76f9 d6bd f796 103e c2b1 40b9
000002f0: 3458 203e 4363 803d ee9d a7bd 3957 923c
00000300: 5335 bbbd 966a e1bd 8901 573d bad1 c0bd
00000310: da28 85bd 9123 353d a75a c1be f384 7fbe
00000320: e926 79be 8005 98bd 98d3 d6bd bf4d 86bd
00000330: 53af 5c3e 3a10 eb3e 78aa 633e 7f97 a8bc
00000340: ff02 f9bd 03c1 cabd a84a d2bd 153c 8c3a
00000350: 3d2e b93d 1d4c 583d 5349 813d b995 883c
00000360: 9358 9e3d 499e 14be 4e84 dfbd 9888 063e
00000370: 560f 12bd 9d11 8bbd 9e81 d63e 5ad4 a83e
00000380: 87cb f53e d543 85bd cdf8 153c dccf 0e3e
00000390: b6e7 28be 1a00 76be 6618 503e 0ce8 fe3d
000003a0: 02e9 44be 83c0 cc3e 3289 3c3d db06 6abd
000003b0: 6523 94be c272 6a3d f982 17be 26ea 9dbe
000003c0: 9345 5b3e 4376 963d c542 fd3d d687 85be
000003d0: a3ce 76be bbaa a7be 6e1e dabd f801 86be
000003e0: 9c0d 8a3c aa2e ad3e 37ab bd3e 5f51 073f
000003f0: 5bb2 79bd cdc4 b9bc 0601 1fbe 965e 31be
0.05689442 -0.0065441974 0.19096676 -0.095684856 0.041172538 0.23024447 -0.2094982 -0.05487608
-0.15750346 0.08465994 -0.048425797 -0.027704988 0.12517533 -0.07694417 -0.032002952 -0.07787003
-0.16608644 -0.15096365 -0.124029845 0.0989011 0.045628168 0.05084428 0.19478229 0.13160634
-0.20521739 0.008502556 0.0841929 -0.12082849 -0.14662285 -0.19634187 0.067032136 0.047765728
0.08405676 -0.0736291 0.116389416 -0.01556365 0.03524559 -0.018460356 0.0039886055 0.036944192
-0.020543333 -0.0015330847 -0.090006806 -0.10345454 -0.10840288 0.11642915 0.19806446 0.19540627
0.030079953 0.12900785 0.18182676 0.09881482 0.14066797 0.22041169 0.18213423 0.054797385
-0.011100275 -0.06750968 -0.19569975 -0.16445684 -0.018642617 -0.059533387 -0.15224722 -0.1100311
0.15329671 0.10588133 -0.0036733006 0.051925536 0.036586538 -0.0496886 0.1725956 0.09405294
0.15569314 0.13389792 0.2939034 -0.06091134 -0.0066388315 -0.04361111 -0.16650967 -0.1161225
0.029605277 -0.015642019 0.021814298 -0.10434221 0.023646904 0.08747071 -0.03919646 -0.0124262925
0.051010456 0.041098215 0.014857308 0.096407615 -0.034684047 -0.080882356 0.017336313 0.06037727
-0.13875398 0.071548365 0.054753393 -0.11580625 -0.1946076 -0.10034415 -0.20137523 -0.055116586
-0.12168083 -0.15582962 -0.16049579 -0.2471467 -0.057320066 -0.06416362 -0.002932402 0.06143583
0.041263584 0.066861026 0.11705487 0.01749542 -0.06312942 -0.13544092 0.019990284 0.14936563
-0.21850756 0.0682196 0.20691742 -0.10231244 -0.0053208424 0.23874328 -0.017579574 0.07219981
0.15275033 0.4743893 0.68965536 0.24867742 0.3450014 0.5199079 0.24554111 -0.077790864
0.04636595 -0.06111287 -0.075127244 -0.0007493084 -0.082246386 0.05956198 -0.04382268 -0.08263869
0.120763406 0.14043397 -0.11172342 0.08082393 0.19555661 0.03574547 -0.06630882 -0.23735674
-0.2993491 -0.025063273 0.077275224 -0.1948498 -0.029206578 0.017726315 -0.109217964 0.15619402
0.10128105 -0.15727703 0.082951844 0.102838494 0.07854998 -0.08467141 0.008281103 -0.083675295
0.09810904 0.08302305 0.07619263 -0.12588817 -0.018929023 0.067277685 -0.021138424 0.08979483
0.048279937 0.10471859 -0.09012157 -0.08012369 -0.017037608 -0.0125451945 0.0187685 0.043787133
0.0870982 -0.104968 0.14120089 -0.00018376767 0.15658647 0.06268933 -0.081844196 0.017863857
-0.0914103 -0.11006658 0.0524917 -0.09415002 -0.065019324 0.044223372 -0.37764475 -0.2495306
-0.2433125 -0.07422924 -0.10489577 -0.06557798 0.21551256 0.45910817 0.22232997 -0.020580051
-0.121587746 -0.09900095 -0.10268146 0.0010699058 0.090420224 0.052806962 0.063128136 0.016672956
0.07731738 -0.14513506 -0.10913907 0.13138044 -0.035659157 -0.06790469 0.41895765 0.3297451
0.48006842 -0.065070786 0.009153557 0.1394648 -0.1649464 -0.24023476 0.20321807 0.12446603
-0.1922951 0.39990625 0.046029277 -0.057135444 -0.28933254 0.057238348 -0.14796056 -0.30842704
0.21413259 0.073467754 0.12366251 -0.26080197 -0.24102263 -0.32747445 -0.10650335 -0.26173377
0.016852193 0.33824664 0.3704469 0.5285854 -0.06096111 -0.02267685 -0.15527734 -0.17321238

net1.netdown3.COV1.0.conv_i.bias f4 [16]
00000000: d170 063d 60c4 933d a89e dfbd e251 b2bd
00000010: 19dc ab3d 52f4 703e 43e4 51be 372c 48be
00000020: 4484 2a3e eb75 4f3e e051 2e3e 82ec 0a3e
00000030: bf48 2bbd 3bac 04bd 4eff f63c b360 ff3d
0.032822434 0.0721519 -0.10918933 -0.08707024 0.0839159 0.23530701 -0.20497231 -0.19548117
0.16652018 0.20259826 0.1702342 0.13566783 -0.041817423 -0.032390814 0.030151036 0.12469616

net1.netdown4.COV1.0.conv_r.weight f4 [32, 16, 3, 3]
00000000: 6f30 fcbd 554e 75bd b0b1 99bd 25f2 03be
00000010: 8965 c7bc 645f 833d 7289 6bbd 47c2 433d
00000020: 3161 aa3d 6b4c 5b3e 680c 5fbd 1ecd 02bd
00000030: 7ea5 1a3e 8bd3 743d 3b58 383e 733b 9cbd
00000040: bcec 803d 15fe a439 0bee 8a3d 43fe 14bd
00000050: 1be5 a3bd 39e6 28bd b9b7 ef3d a310 283d
00000060: c9c9 39be df82 f2bd 2fe9 a73d c505 0cbc
00000070: 6c8c 0f3e 57e9 043e 4dfe d93d 1488 f1bc
00000080: 0d52 e83d 758e 023d e1a2 153b 6734 4e3d
00000090: 46dd f4bd 243e 23be e510 aabe 3c94 1f3d
000000a0: b656 0e3e 36be 283c 1c6b af3c 9848 b33d
000000b0: 28f7 6f3d 0e9c 933b d53c 0fbe 490f a4bc
000000c0: 7257 9f3d 56d1 6bbd 2568 ff3b 0560 5ebd
000000d0: 10b7 a1bd da48 5fbc a05e b3bd cddc 743d
000000e0: a2f7 72bd a77d e73d bc9e d93d 8b1a 233e
000000f0: 02a2 153e 744f 0d3e 66c6 3d3e c552 a9bd
00000100: 639c 54bd 5d86 a3bd 0127 6dbe 3ac7 12be
00000110: b806 78be eb8a 063d 09a0 31be a71a c0be
00000120: ef8d b53b 9b72 52bc e98b a63d a218 c1bd
00000130: 8caa cb3d 860c a03c 1baf 8fbe 0887 973d
00000140: 5b0c 893e 9676 45bd 74d9 25be 923d aa3d
00000150: d643 32be f9f1 5abe f80c 69be a695 5cbe
00000160: edee a9be 754a 63be 03a3 c7bd b991 32be
00000170: 5e7c 7dbe 0b79 0abe b45e 6abe 392b c4be
00000180: 094f 5abe f7de 52be 0a98 5cbe be03 06be
00000190: 5485 1bbd 28b6 0abe 8598 4dbe f64f 16be
000001a0: 9ac5 f1bc 44ea aebd a7b8 59bd 603c 0ebc
000001b0: 492a f9bd a51a 8fbd 92c6 aebc 89d4 533d
000001c0: f1d3 debd 89eb 84bd 48f1 553e f455 3cbe
000001d0: d089 88be 2780 05bd 3c0c abbd 8b3b 89bd
000001e0: 9826 9dbc 4b14 27bd 60e6 9ebd 0a34 fbbd
000001f0: b2f3 a73c 61b2 0bbe 8f39 b63b 710d 0cbc
00000200: e3b5 733c 3971 20bb 6e4c ccbd 8fb4 1cba
00000210: 71f2 ffbb 24cd f2bd 625a b93c 12b2 563d
00000220: 1aa1 3e3d 88aa 073c 6448 a9bd 2f60 8ebd
00000230: 371d 0cbb 4cfd 47bd b800 84bd e59b 9a3d
00000240: 8370 4c3e 13d0 6c3e fe47 f93d 1320 473e
00000250: f67f 133e 376a 00be f8de 58bd a3ad 41be
00000260: a5b8 fcbe ab6e 7f3d 4776 34bc 7ffa 20bd
00000270: 2343 1dbc d8e9 58be aa2f d9bd 7c88 3d3e
00000280: 499e 163d 97ff ba3d aa5b 91bd 9250 a5bc
00000290: 8a87 1bbe 8ecd 18bd 3f45 f2bc 0945 1bbe
000002a0: 59c7 cdbd 86c0 0cbe 3eef adbe 64cb 2ebe
000002b0: bc3b a8be 9cb4 3ebe c5c6 cc3d c8dd 5c3d
000002c0: dfb2 9e3d b058 1b3e c770 1d3e d41a 993e
000002d0: c97e 643c 2066 213d f4b4 52bd 1f78 dbbd
000002e0: 5e58 41bc f8a0 09be b3bb 5abd 3024 a4be
000002f0: 525f abbe cc8c 183d 8ec8 a4bd 201b 923c
00000300: 9371 d8be 4fa8 24bd 0ed9 903e 3633 93bd
00000310: 334c 133e edbd b43e 011e b23d 6440 b7bd
00000320: e28b 033d 0bc2 8e3e 0f80 523e 6795 553e
00000330: d6ca 9b3e 2377 383e 5236 c93d 1a15 94bd
00000340: 7a4f 39be ae90 383d cb00 88be 710a 8fbe
00000350: 1e20 703c 80f4 3b3d b02f b53d 0fdc b03e
00000360: d673 88be 4a51 8a3d a90c 06bd 8c1c 5ebe
00000370: 1e68 d8bd 27c4 9b3d ecf8 673e 5f30 ac3d
00000380: bed6 753d 5b97 03ba fc36 2a3d b514 b03d
00000390: 71db 1e3e 7c54 113d 8cbe 21bd 2d92 0f3e
000003a0: dda2 8abe 70d7 bdbe 2ab1 063e 759a 4d3e
000003b0: 231c a03d 5896 403e fa3e 633e c258 a63d
000003c0: a93f d13e d4ab 89be 03a0 e0be d26d 2c3e
000003d0: 9df1 d53d 28aa 993d 0012 cd3c 8cdc c83d
000003e0: 0ea8 93bd 666c 3dbd f782 abbd 9d0b 7dbe
000003f0: 4655 c5bc 0f2c 3fbd 0963 f0bc dc8a ab3c
-0.123139255 -0.059889156 -0.07504594 -0.1288534 -0.024340408 0.06414679 -0.057504125 0.0477927
0.08319319 0.2141587 -0.05445519 -0.031933896 0.15102193 0.059772056 0.18002407 -0.076285265
0.062951535 0.00031469823 0.06783684 -0.036375295 -0.08002683 -0.041235182 0.11704964 0.04103149
-0.18143381 -0.11841368 0.08198773 -0.008546297 0.1401841 0.12979637 0.10644207 -0.029483832
0.11343775 0.03187414 0.002283268 0.050342944 -0.11956267 -0.15941674 -0.33216015 0.038959727
0.13900265 0.010299256 0.021413378 0.087540805 0.058585316 0.004504687 -0.1398805 -0.02002682
0.07780351 -0.057572685 0.0077943974 -0.05429079 -0.078962445 -0.013628209 -0.08758283 0.059780885
-0.059318192 0.11303263 0.10625979 0.15928094 0.14612582 0.1379984 0.18532714 -0.0826774
-0.051906954 -0.07984612 -0.2315941 -0.14333811 -0.24221313 0.032847326 -0.17346205 -0.37520334
0.0055406014 -0.012844707 0.081321545 -0.094285265 0.099446386 0.019537222 -0.28063282 0.07398802
0.2676724 -0.048208795 -0.16196233 0.08312525 -0.1740869 -0.21381368 -0.22758853 -0.21541461
-0.33190098 -0.22196372 -0.09747889 -0.17438401 -0.24754474 -0.13522737 -0.22887689 -0.38314226
-0.21319212 -0.20592867 -0.21542373 -0.13087365 -0.03796895 -0.1354605 -0.20077713 -0.1467894
-0.02951317 -0.08540776 -0.053154614 -0.008681387 -0.121662684 -0.06987504 -0.02133492 0.05171636
-0.10880268 -0.06490237 0.20892823 -0.18392164 -0.26667643 -0.03259292 -0.08351943 -0.0670081
-0.019183442 -0.040790837 -0.07758784 -0.12265785 0.020501945 -0.13642265 0.0055610607 -0.008548127
0.014874908 -0.0024481548 -0.09975515 -0.0005977833 -0.0078108837 -0.11855534 0.022626106 0.052415915
0.046540357 0.008280404 -0.082657605 -0.06951939 -0.0021379718 -0.048825547 -0.064454496 0.07549266
0.19964795 0.23126249 0.121719345 0.19445829 0.14404282 -0.12540518 -0.052947015 -0.18913893
-0.49359623 0.0623614 -0.011014528 -0.03930139 -0.009598526 -0.21182954 -0.10604794 0.18509096
0.036772046 0.09130781 -0.07097562 -0.02018002 -0.15188423 -0.037305407 -0.029574035 -0.15163054
-0.10047788 -0.13745317 -0.3397159 -0.17069775 -0.32858074 -0.18623585 0.0999885 0.053922445
0.07748961 0.1517055 0.15375052 0.2990328 0.013946244 0.039404035 -0.0514421 -0.10716271
-0.011800854 -0.13440311 -0.05340166 -0.3205886 -0.3347116 0.03724365 -0.08046065 0.0178352
-0.4227415 -0.040199574 0.282906 -0.07187502 0.14384536 0.35301152 0.08697129 -0.089478284
0.032115825 0.27882418 0.20556663 0.20857774 0.3042819 0.18014197 0.09824814 -0.07230587
-0.18096724 0.045059852 -0.26563105 -0.27937654 0.014656095 0.04588747 0.08846986 0.3454289
-0.26650876 0.06753786 -0.032726917 -0.21690577 -0.10566734 0.076057725 0.2265355 0.084076636
0.060019247 -0.0005019807 0.041556343 0.085976996 0.15513398 0.03548096 -0.03948836 0.14020605
-0.2707738 -0.37078428 0.1315352 0.20078452 0.07817867 0.18807352 0.22191992 0.08122398
0.4086888 -0.26888907 -0.4387208 0.16838768 0.10446475 0.07503158 0.025032997 0.09807691
-0.07209788 -0.046245955 -0.08374589 -0.24711461 -0.024088513 -0.046672877 -0.029344099 0.020940237

net1.netdown4.COV1.0.conv_r.bias f4 [32]
00000000: 0fc6 c9bd 8eb6 9fbd 984e 89bd d0c3 bc3d
00000010: cae4 323d 7393 b83c 46ea 61bd cb4a 44bd
00000020: cedf 2e3b 0d5a 1abe e075 3ebe 32e3 43bc
00000030: 04eb 0fbe 9f86 b8bd c2c9 50bd 8952 b0bb
00000040: e239 4abe a2c0 973d be59 89be 9389 9bbd
00000050: 0a9e 173e 7448 8c3d 7303 e33c ec41 96bc
00000060: c7be 6ebd 3909 683d 07d6 c8bd 82f4 093d
00000070: 7e98 30be 759d 453e 325e 8fbd 1f7a f4bd
-0.0985223 -0.077984914 -0.06704444 0.09217036 0.04367522 0.022531247 -0.05515506 -0.04792289
0.002668369 -0.15073414 -0.18599653 -0.011956023 -0.14054495 -0.09010052 -0.05097366 -0.0053809327
-0.19748643 0.07409789 -0.2682628 -0.075945996 0.14806381 0.06849757 0.027711606 -0.01834198
-0.05828741 0.05664942 -0.098064475 0.033680446 -0.17245671 0.19298346 -0.07000388 -0.11937355

net1.netdown4.COV1.0.conv_i.weight f4 [32, 16, 3, 3]
00000000: 452d fbbc 21c1 b8bd 66ea adbd b1a3 fc3d
00000010: 851d 823d 591b 30be 43f3 d83d 30c4 d23d
00000020: 6654 483d 9ec2 ebbc fd3d 413e 8260 073e
00000030: bc54 7fbd ba81 e0bd 4787 6e3d 14d9 243d
00000040: 9991 c1bb a3f7 55be d742 51bd 4e46 1cbd
00000050: f08c 90bd 0bb6 303d 23a0 a8be ac15 50be
00000060: 0f53 053e 987d 243b a984 96be 9035 0b3d
00000070: ba06 463d efb0 f4bc a594 17bd d244 983d
00000080: 3310 d43d 9f15 c7bc 32d0 b23d 9658 183e
00000090: b2ed 833d 3310 0b3b 752b e1bd 65fb 04be
000000a0: 5123 df3c 7732 c2bc ba95 f6bd b0c1 5fbd
000000b0: e144 43be 2772 0a3e 6c84 7c3d a84f 363e
000000c0: 9302 f8ba 81da 8c3c 12bf 3e3e b9f1 83be
000000d0: 8d86 ddba 99c6 ff3d 42d7 52bc 6d27 b63d
000000e0: b147 ad3c 5882 b1bd af92 ecbd 471e 1fbe
000000f0: 3fd4 9b3d 28c7 ee3c 1704 0ebd 8b96 173e
00000100: 1304 653e dfe3 b63e 59b5 ae39 62dc d8bc
00000110: 333f 9d3d af9d 06be d23d e8bd 96d6 d0bd
00000120: 7b7f 333e 9913 183e 8c42 0ebc b7da dcbd
00000130: ddc9 b3bd 87d8 07be e640 2abd 4d46 00be
00000140: 4501 dcbd df24 193f 255f d63e 0ce2 f33e
00000150: fc1b c93e 2831 a43e 7889 a93e 192e 3b3e
00000160: 61b1 b33e 3548 f63e 13c7 2a3e 3377 2f3e
00000170: 82e4 8d3d 1876 b8bd 2fcf 6e3e 0fa5 29bb
00000180: bf02 213e cc93 4a3e 282e cabd d4c1 413d
00000190: b61b 543d 3c29 203d b848 f6bc a5be bbbd
000001a0: 76b5 a2bd f66c c83d 05b2 063e 6092 34bc
000001b0: 8340 763d c814 1b3e 7332 313e b01e 95bd
000001c0: 723d 4e3d e475 50be f72c 91bc c7ba 043d
000001d0: 9839 843c c78b 09be 6278 383e ad87 953e
000001e0: 8629 b73d baea 893d 68cb eb3d fb68 16be
000001f0: f050 0dbe 6805 ccbd 0e28 69bd 2df5 063d
00000200: 8703 a6bc 5ca2 6fbe a0e8 8bbe caca 85be
00000210: 9ada 643d 7ca0 76bd 0b37 343d ffdf f13d
00000220: 59b4 0a3e bdb8 aa3d b05a 2e3d d36d 5c3d
00000230: f44e c63b 1f40 c03e 0816 553e aba1 93bd
00000240: 11a5 d3bb f6c3 09bd c017 0f38 7284 423a
00000250: e750 293e c826 98bc ebd3 f3bd c8b2 833c
00000260: bcbb 70bd 74c7 aebb 6b90 bdbd 1727 4bbd
00000270: 4590 78bd 5cd1 3ebe 4fb9 29bd 8f46 fc3d
00000280: 1c29 733e 5f33 a93e ba8f c43d 526e 863d
00000290: e03b d53d 5590 27bc 5840 6e3d b332 f93d
000002a0: 8c85 b0bd 2c64 213e d9e2 fc3b 92d8 e4bc
000002b0: 8148 1bbb 807b 943d b63b 1e3e ffff 003e
000002c0: de4e bfbd 1dfb 193e e917 00be 06db cbbe
000002d0: 82d9 1dbe 1d9e 58be a5a1 11be 27b5 94bd
000002e0: fba1 03be 6703 673d 40c2 503e 8490 ac3e
000002f0: 4228 8a3e 65b3 8d3d 9775 a33c 2c5b da3d
00000300: 84b0 81bc 050c 6abe 9e9e d33c e041 3b3e
00000310: e776 4d3d 242a 553e 0bfd 293e cb19 023e
00000320: cbdf f33d 6bef 5b3e 6e69 c73e 0c08 8b3e
00000330: a9cf 803e 694e 663e 5404 733d 77ac c83d
00000340: 43b2 723d a123 403e 9872 ec3d 71b5 f8bb
00000350: bbc9 f63d 48c0 c73d 5e89 61bd 2228 5dbd
00000360: ebfa 3b3b d93a 9d3e 4ee3 c5bd c106 fabd
00000370: 4912 69be 9561 fcbe 4d51 e7bd 82b9 b0be
00000380: 50e9 24bf befb f1bc 7328 07be c4a1 05be
00000390: 9bd2 543d dd57 7a3c 20eb ba3c d245 5ebd
000003a0: efec 8cbe b0d2 aebd 75e1 bb3d 95e1 3ebd
000003b0: 9790 6f3e 0d3d 6a3c d13d 05be 01d4 a43d
000003c0: 01bf 6a3c 78c8 0abe 9c6c 0bbb 22dd 103d
000003d0: 2c34 c3bc d501 653d a5c3 753e b75d 9b3e
000003e0: db07 093e ad61 06be e072 6e3e 2131 df3d
000003f0: 2e20 5f3e 5255 bf3d e730 033e ac4c b03d
-0.030661235 -0.090212114 -0.084919736 0.12335909 0.06353287 -0.17197932 0.105932735 0.10291326
0.048908614 -0.028779324 0.18871303 0.13220409 -0.06233667 -0.109622434 0.05823448 0.040246084
-0.005907249 -0.20895247 -0.051089134 -0.038152985 -0.07058132 0.04314236 -0.32934675 -0.20320767
0.13019966 0.0025099274 -0.29398087 0.033986628 0.04834626 -0.029869525 -0.037006993 0.074350014
0.10354652 -0.024302302 0.08731116 0.14877543 0.06441821 0.0021219372 -0.10994617 -0.12986524
0.02723852 -0.023705704 -0.12040277 -0.054628074 -0.19069244 0.13520108 0.061649725 0.17803824
-0.0018921666 0.017194035 0.18627575 -0.25770357 -0.0016901061 0.12489051 -0.012868704 0.088942386
0.02115235 -0.08667439 -0.11551415 -0.15538894 0.07608842 0.0291477 -0.03467187 0.14803521
0.22364835 0.35720727 0.0003332298 -0.026472274 0.0767807 -0.13146089 -0.11339916 -0.10197179
0.17529099 0.14851226 -0.008682858 -0.10783904 -0.08778737 -0.13266192 -0.0415658 -0.12526818
-0.1074243 0.59821886 0.41869465 0.47633398 0.39279163 0.32068753 0.33112693 0.18279304
0.35096267 0.48101965 0.16677503 0.17135315 0.0692835 -0.090068996 0.23321222 -0.0025885736
0.15723704 0.19782943 -0.09872085 0.04730399 0.05178424 0.039101824 -0.030063972 -0.09167222
-0.07944767 0.09786408 0.13153847 -0.011021227 0.060120117 0.15144646 0.17304401 -0.07281244
0.050351568 -0.20357472 -0.017721636 0.032404687 0.016140744 -0.13432227 0.18014672 0.29205075
0.08943467 0.06734224 0.11513406 -0.14688484 -0.13800406 -0.09961969 -0.056922965 0.03294866
-0.020265354 -0.23401779 -0.27325916 -0.26131278 0.055872537 -0.060211644 0.043997806 0.11810302
0.1354536 0.08336017 0.042566955 0.053815674 0.0060518924 0.3754892 0.20809186 -0.0720857
-0.0064588864 -0.03363415 3.4115976e-05 0.00074202486 0.16534768 -0.01857318 -0.119056545 0.01607646
-0.058772787 -0.0053338353 -0.09256061 -0.049597826 -0.06068446 -0.18634552 -0.04143649 0.123181455
0.2374615 0.33047006 0.09597726 0.06564011 0.10411811 -0.0102272825 0.05816683 0.12167873
-0.08619222 0.15760869 0.007717472 -0.0279353 -0.0023694339 0.07250118 0.15452465 0.12597655
-0.093412146 0.15037198 -0.12509121 -0.3981554 -0.15415004 -0.21154065 -0.14221819 -0.072611146
-0.1285476 0.05639973 0.203866 0.33704007 0.2698384 0.069189824 0.019953532 0.10661921
-0.01583124 -0.22856148 0.02583247 0.18286848 0.050162222 0.20816857 0.16600434 0.12705152
0.119079195 0.2147805 0.38947624 0.27154577 0.25158432 0.22490849 0.0593303 0.0979852
0.059252035 0.18763591 0.115452945 -0.007589989 0.12050196 0.097534716 -0.055062644 -0.05399335
0.0028683494 0.3070896 -0.096624956 -0.122083195 -0.22760881 -0.492932 -0.11294804 -0.3451653
-0.64418507 -0.029538985 -0.13199024 -0.1304999 0.05195866 0.015279737 0.022817194 -0.054265805
-0.27524516 -0.08536279 0.09173862 -0.04660185 0.23395 0.014296782 -0.13011862 0.08048249
0.014327765 -0.13553035 -0.0021274453 0.03536714 -0.023828588 0.05590995 0.24000414 0.30344936
0.13381903 -0.13123198 0.23286009 0.108980425 0.2178962 0.093424454 0.12811624 0.08608374

net1.netdown4.COV1.0.conv_i.bias f4 [32]
00000000: e552 d43b ca3f 97bd f933 3139 e081 29be
00000010: b480 823e c18c 883d dd0d 5fbd 685a 2f3d
00000020: 9c8e d53c ae32 383e 4cf7 96bd 361e 063e
00000030: aaa0 f4bc 246d e33d e340 a4bd ea4b 26be
00000040: 21be 82bd 5cf4 d83c 1dd7 94bd 2c6d cebc
00000050: f358 7a3c c49d 923d 5c12 153c 2e82 d2bd
00000060: 0801 253e 4231 f43d 4a52 3a3d 4b09 a8bc
00000070: 50c7 3b3a 1bce 713e bfae 163d 641f 29bc
0.0064796084 -0.07385214 0.00016899397 -0.1655345 0.25488818 0.06667472 -0.05445658 0.042810827
0.026068978 0.17988083 -0.07371387 0.13097462 -0.029861767 0.11104801 -0.08020189 -0.16239896
-0.063839205 0.026483707 -0.07267592 -0.025198542 0.015279996 0.07158998 0.0090986155 -0.10278736
0.16113675 0.11923458 0.045488633 -0.020512244 0.0007163184 0.23613779 0.036787745 -0.0103224255

net1.netup4.COV1.0.conv_tran_r.weight f4 [32, 16, 4, 4]
00000000: 8499 153e f3f0 973d aea3 edbd 4c84 823d
00000010: 5f0d 28bc 22ef 7bbd 11c3 5bbb 7ac3 863d
00000020: fe61 34bd 0552 24be 87d2 c53d e737 9f3d
00000030: b6cc 763e 054d bcbd a44f 713d d799 6fbd
00000040: bfc4 b73d d8f2 7d3d 4c0b bbbc 400a 3d3e
00000050: 0c87 b3bc 5c82 f4bc f316 f6bd 108f 0cbd
00000060: 5bdb 013d 6d22 b53c 31f5 ab3e 3ca3 823e
00000070: 3572 b3bd 0aaf 3ebe b80b 14bd f215 623d
00000080: f466 933d 256f 6e3b f2f7 01bd e7e2 893b
00000090: 00ce 023e 9fd1 db3d 44f4 a13d 8981 ff3d
000000a0: 80ce 593b 5448 54be 8094 e83d 615a d43d
000000b0: 98bf e73d 20bc b1bd cab0 473d ce61 123e
000000c0: 8d5b 91bd f436 43bd d628 6fbe 9e9c 78be
000000d0: 4b16 7cbd b983 28bd ebf1 10be e983 09bc
000000e0: 9514 333e 13a8 b33d 8de5 423d f4dd 983d
000000f0: 1ad5 aa3d c677 6e3e 2dab c3bb 3efe 193e
00000100: f89f e0bd 8125 4f3d 0a65 d1bb c2e3 00bd
00000110: 52ee 98bc 87ab 9a3c 777e af3d bc79 563d
00000120: 0e4f 4d3e 0b4b 07be 48e4 11bc 2c1e 31be
00000130: 9fa2 083c 3884 b6be 8c74 943b 1e10 d9bd
00000140: 3b73 dabc 658f 37be 2a55 9b3d d992 ffbd
00000150: dab9 27bd 6999 ea3d 8f58 41bd 40bc c13d
00000160: 1edf 81bd 7b04 4b3d 8e9a a7bc 5718 f73c
00000170: 999b 40bd 4477 98bc 8271 8bbd 1dd0 2b3d
00000180: b744 3e3d 7a20 8dbe fd97 03be bd30 fb3d
00000190: 2194 0b3e 033c 28bc 19b1 3d3c c316 e7bc
000001a0: 60ac 983b f8a5 f7bc 9559 65bd 7ee6 443c
000001b0: 66d2 e33d 462d c8be cb42 d83d 7ad9 8dbe
000001c0: 961b 193d 3f65 5ebd bb81 5fbd 5f42 3cbe
000001d0: 8145 29be a50b 80be 7f9b 02bd bdc8 ee3d
000001e0: feaa 8d3d 8058 9cbe 2fc2 693d fe46 b73d
000001f0: ae63 28be b86e 2ebe 0699 6d3d 8a91 223d
00000200: ba29 3a3e 5fe4 3dbe 8216 c9ba a31c c2be
00000210: 0bfc 553e d39d 313e b81b 3f3e 6988 623e
00000220: 6ce1 813d d267 763d 2067 ba38 09e7 2d3e
00000230: 611b 313d 4751 e6bd 96c7 b9bc 3d93 0d3e
00000240: fece 2ebe 36fa b8bc 19cb 88be 6449 6a3d
00000250: ae65 8b3d 4009 13be 9f07 a93d 89a6 5bbe
00000260: 4e98 3b3e 817f 2b3d 2ecf ae3d e8e6 1f3e
00000270: a12c 1a3e 6d13 133e 09f7 a5bb d706 f6bd
00000280: df89 0e3d 2bab f03d b7bd b63d 854f 203e
00000290: 3e54 6e3c 4f92 b83d b0de c239 a81d 0e3e
000002a0: c374 55bb 3f16 6c3e 128a c33c 997b 003e
000002b0: 6207 abbc 164c 163d cb7c d23d ccc4 523d
000002c0: a555 17be cf9d 013e f7d5 1abe 2e3f bbbd
000002d0: 92a5 0ebe fb0b 80bd 6c32 59be f949 9bbd
000002e0: 1ea2 d53c 3ae0 763d aa80 a9bd 649e eb3a
000002f0: dca0 e5bd c99e c03a e404 9abd fa71 28be
00000300: 7830 283e 6e84 a6bd e3a9 31bd dde0 4d3d
00000310: 5b41 6ebc 2691 cb3b 3995 63bd c905 253d
00000320: 5408 2bbd 0985 15bd fd02 123e 5748 103e
00000330: 28cd 0f3b ae19 49bd 1d24 6ebd 099c dcbd
00000340: 6b68 283d 4b60 53bd 30bd a23d 731a fcbc
00000350: 1391 543d 3b31 2bbd 6395 e6bd 0815 b5bc
00000360: 9d3d dabc cb04 88bb 2424 463b 5418 30bd
00000370: 7f5d b7bd 7921 fdbe 1661 2a3d c8fc e0be
00000380: 1238 293e 02f7 3fbd d5e8 06bd 4086 e2bd
00000390: 8fcc 403d 2289 7b3d 42a5 e3bd a15d 0d3e
000003a0: 01c9 78bd 3971 933d a283 c13d c9e7 113e
000003b0: 8fe4 173e 3ab6 f73e f6e9 5f3e 6ce5 893e
000003c0: f190 b13d 9dac 18be 3cab bd3d c65d 8bbd
000003d0: 7c7b f0ba d79c 24bd 17d6 5ebe e071 f23c
000003e0: bd4d 8dbe e7cf 62bd 4011 8bbd 4f33 fb3c
000003f0: 92c2 8bbd f6b6 dc3d 2554 c6bd 5e71 d53d
0.14609343 0.07419004 -0.11603485 0.0637289 -0.010257094 -0.06150735 -0.0033533017 0.06580253
-0.044038765 -0.16046913 0.096592955 0.077743344 0.24101529 -0.09194378 0.05891384 -0.058496322
0.08973073 0.061999172 -0.022832535 0.18460941 -0.021914981 -0.029847316 -0.12016096 -0.034316123
0.031703334 0.022111142 0.33585504 0.25515163 -0.08762018 -0.1862146 -0.03614399 0.05519671
0.07197371 0.0036382165 -0.0317306 0.004207957 0.12773895 0.107333414 0.07907918 0.12475879
0.0033234656 -0.20730716 0.11356449 0.10368801 0.113158405 -0.0867846 0.048752584 0.14295122
-0.0709754 -0.04765983 -0.23355421 -0.24278495 -0.061544698 -0.041141246 -0.14154784 -0.008393266
0.1748832 0.08772292 0.047582198 0.07464209 0.08341427 0.23287877 -0.0059713335 0.15038392
-0.109680116 0.050572876 -0.0063902186 -0.031467207 -0.018668327 0.018880619 0.08569043 0.05236219
0.20049688 -0.1321222 -0.008904524 -0.17296666 0.008339553 -0.3564775 0.004530495 -0.10598777
-0.026666274 -0.17925794 0.07584603 -0.12479181 -0.040948726 0.11455042 -0.047203597 0.09459734
-0.06341384 0.04956482 -0.02045944 0.030162973 -0.04702339 -0.018611558 -0.06808759 0.04194652
0.04645225 -0.2756384 -0.12850948 0.122651555 0.13630725 -0.010268214 0.011577868 -0.028209096
0.0046592206 -0.030230507 -0.055993635 0.012017844 0.11124115 -0.3909704 0.10559615 -0.27704984
0.037379824 -0.054295775 -0.05456708 -0.18384694 -0.1653042 -0.25008884 -0.031886574 0.116593815
0.0691738 -0.3053627 0.057069954 0.089490876 -0.16444275 -0.17034423 0.058007263 0.039689578
0.1817998 -0.18544148 -0.0015341791 -0.37912473 0.20896928 0.17345361 0.18662918 0.22122349
0.06341824 0.060157605 8.88838e-05 0.16982664 0.043239 -0.11245971 -0.022678178 0.13825698
-0.17071149 -0.022580247 -0.2671745 0.057198897 0.06806503 -0.14358997 0.08253407 -0.21450247
0.18319818 0.041869644 0.0853561 0.15615427 0.15056087 0.14362879 -0.0050648493 -0.12013023
0.034799453 0.11751398 0.08922904 0.15655334 0.014546452 0.09012281 0.0003716848 0.138785
-0.0032570816 0.23055361 0.023869548 0.12547149 -0.020877544 0.036693655 0.102777086 0.05145721
-0.14778765 0.12657855 -0.15120684 -0.0914291 -0.13930348 -0.06252285 -0.2121064 -0.075824685
0.02607828 0.060272433 -0.08276494 0.0017976281 -0.11212322 0.0014695759 -0.07520464 -0.16449729
0.1642474 -0.08130728 -0.043374907 0.050263274 -0.014541949 0.0062123714 -0.05556223 0.04028872
-0.04175599 -0.036503825 0.14258952 0.14090095 0.002194235 -0.049096756 -0.05813991 -0.10771949
0.041115206 -0.051605504 0.07946241 -0.03077433 0.051896166 -0.041794997 -0.11258962 -0.022104755
-0.026640708 -0.004150962 0.0030233944 -0.04299195 -0.0895338 -0.494396 0.041596495 -0.43942857
0.16525295 -0.046866424 -0.03293689 -0.110607624 0.047070082 0.061410077 -0.11115505 0.13805248
-0.060738567 0.0719933 0.09448935 0.14248575 0.14833282 0.48381215 0.21866593 0.26932847
0.086702235 -0.14909597 0.09261176 -0.06804995 -0.0018347348 -0.040188637 -0.21761356 0.029595315
-0.27598372 -0.055374052 -0.067903996 0.030664114 -0.06824221 0.107770845 -0.09684018 0.10422014

net1.netup4.COV1.0.conv_tran_r.bias f4 [16]
00000000: 05ad d5bd 49fa 05be 33c9 b2bc 2873 f53b
00000010: a64d 36bd c219 02be 4a7b 783c a748 3f3d
00000020: d78b 99bc b291 ae3d 84f1 4abd e75d 17bc
00000030: d0ff 63be c847 1abc 6617 c8bd 92cc ddbd
-0.104333915 -0.13083757 -0.021824455 0.0074905343 -0.044507645 -0.12705138 0.015166113 0.046700146
-0.018743439 0.08523883 -0.049546733 -0.009238697 -0.22265553 -0.009416528 -0.09770088 -0.10830034
